Class counts: {'company': 648, 'date': 949, 'address': 449, 'total': 992, 'other': 12732}
Model summary:
===================================================================================================================
Layer (type:depth-idx)                   Input Shape               Output Shape              Param #
===================================================================================================================
ConfigurableGNN                          [163, 776]                [163, 5]                  --
├─ModuleList: 1-1                        --                        --                        --
│    └─GCNConv: 2-1                      [163, 776]                [163, 4096]               4,096
│    │    └─Linear: 3-1                  [163, 776]                [163, 4096]               3,178,496
│    │    └─SumAggregation: 3-2          [322, 4096]               [163, 4096]               --
│    └─GCNConv: 2-2                      [163, 4096]               [163, 4096]               4,096
│    │    └─Linear: 3-3                  [163, 4096]               [163, 4096]               16,777,216
│    │    └─SumAggregation: 3-4          [322, 4096]               [163, 4096]               --
│    └─GCNConv: 2-3                      [163, 4096]               [163, 4096]               4,096
│    │    └─Linear: 3-5                  [163, 4096]               [163, 4096]               16,777,216
│    │    └─SumAggregation: 3-6          [322, 4096]               [163, 4096]               --
│    └─GCNConv: 2-4                      [163, 4096]               [163, 4096]               4,096
│    │    └─Linear: 3-7                  [163, 4096]               [163, 4096]               16,777,216
│    │    └─SumAggregation: 3-8          [322, 4096]               [163, 4096]               --
├─ModuleList: 1-2                        --                        --                        --
│    └─GATConv: 2-5                      [163, 4096]               [163, 4096]               36,864
│    │    └─Linear: 3-9                  [163, 4096]               [163, 16384]              67,108,864
│    │    └─SumAggregation: 3-10         [322, 4, 4096]            [163, 4, 4096]            --
│    └─GATConv: 2-6                      [163, 4096]               [163, 4096]               36,864
│    │    └─Linear: 3-11                 [163, 4096]               [163, 16384]              67,108,864
│    │    └─SumAggregation: 3-12         [322, 4, 4096]            [163, 4, 4096]            --
│    └─GATConv: 2-7                      [163, 4096]               [163, 4096]               36,864
│    │    └─Linear: 3-13                 [163, 4096]               [163, 16384]              67,108,864
│    │    └─SumAggregation: 3-14         [322, 4, 4096]            [163, 4, 4096]            --
│    └─GATConv: 2-8                      [163, 4096]               [163, 4096]               36,864
│    │    └─Linear: 3-15                 [163, 4096]               [163, 16384]              67,108,864
│    │    └─SumAggregation: 3-16         [322, 4, 4096]            [163, 4, 4096]            --
├─Linear: 1-3                            [163, 4096]               [163, 5]                  20,485
===================================================================================================================
Total params: 322,129,925
Trainable params: 322,129,925
Non-trainable params: 0
Total mult-adds (Units.GIGABYTES): 52.48
===================================================================================================================
Input size (MB): 0.51
Forward/backward pass size (MB): 106.83
…
