Class counts: {'company': 530, 'date': 635, 'address': 1233, 'total': 1341, 'other': 24088}
Model summary:
===================================================================================================================
Layer (type:depth-idx)                   Input Shape               Output Shape              Param #
===================================================================================================================
ConfigurableGNN                          [220, 776]                [220, 5]                  --
├─ModuleList: 1-1                        --                        --                        --
│    └─GCNConv: 2-1                      [220, 776]                [220, 5000]               5,000
│    │    └─Linear: 3-1                  [220, 776]                [220, 5000]               3,880,000
│    │    └─SumAggregation: 3-2          [436, 5000]               [220, 5000]               --
│    └─GCNConv: 2-2                      [220, 5000]               [220, 5000]               5,000
│    │    └─Linear: 3-3                  [220, 5000]               [220, 5000]               25,000,000
│    │    └─SumAggregation: 3-4          [436, 5000]               [220, 5000]               --
│    └─GCNConv: 2-3                      [220, 5000]               [220, 5000]               5,000
│    │    └─Linear: 3-5                  [220, 5000]               [220, 5000]               25,000,000
│    │    └─SumAggregation: 3-6          [436, 5000]               [220, 5000]               --
│    └─GCNConv: 2-4                      [220, 5000]               [220, 5000]               5,000
│    │    └─Linear: 3-7                  [220, 5000]               [220, 5000]               25,000,000
│    │    └─SumAggregation: 3-8          [436, 5000]               [220, 5000]               --
├─ModuleList: 1-2                        --                        --                        --
│    └─GATConv: 2-5                      [220, 5000]               [220, 5000]               15,000
│    │    └─Linear: 3-9                  [220, 5000]               [220, 5000]               25,000,000
│    │    └─SumAggregation: 3-10         [436, 1, 5000]            [220, 1, 5000]            --
│    └─GATConv: 2-6                      [220, 5000]               [220, 5000]               15,000
│    │    └─Linear: 3-11                 [220, 5000]               [220, 5000]               25,000,000
│    │    └─SumAggregation: 3-12         [436, 1, 5000]            [220, 1, 5000]            --
│    └─GATConv: 2-7                      [220, 5000]               [220, 5000]               15,000
│    │    └─Linear: 3-13                 [220, 5000]               [220, 5000]               25,000,000
│    │    └─SumAggregation: 3-14         [436, 1, 5000]            [220, 1, 5000]            --
│    └─GATConv: 2-8                      [220, 5000]               [220, 5000]               15,000
│    │    └─Linear: 3-15                 [220, 5000]               [220, 5000]               25,000,000
│    │    └─SumAggregation: 3-16         [436, 1, 5000]            [220, 1, 5000]            --
├─SpatialAttentionLayer: 1-3             [220, 5000]               [220, 5000]               --
│    └─Linear: 2-9                       [220, 5000]               [220, 5000]               25,005,000
│    └─Linear: 2-10                      [220, 5000]               [220, 5000]               25,005,000
│    └─Linear: 2-11                      [220, 5000]               [220, 5000]               25,005,000
├─Linear: 1-4                            [220, 5000]               [220, 5]                  25,005
===================================================================================================================
Total params: 254,000,005
Trainable params: 254,000,005
Non-trainable params: 0
Total mult-adds (Units.GIGABYTES): 55.86
===================================================================================================================
Input size (MB): 0.69
Forward/backward pass size (MB): 96.81
…
