Class counts: {'company': 530, 'date': 635, 'address': 1233, 'total': 1341, 'other': 24088}
Model summary:
===================================================================================================================
Layer (type:depth-idx)                   Input Shape               Output Shape              Param #
===================================================================================================================
ConfigurableGNN                          [195, 776]                [195, 5]                  --
├─ModuleList: 1-1                        --                        --                        --
│    └─GCNConv: 2-1                      [195, 776]                [195, 512]                512
│    │    └─Linear: 3-1                  [195, 776]                [195, 512]                397,312
│    │    └─SumAggregation: 3-2          [386, 512]                [195, 512]                --
│    └─GCNConv: 2-2                      [195, 512]                [195, 512]                512
│    │    └─Linear: 3-3                  [195, 512]                [195, 512]                262,144
│    │    └─SumAggregation: 3-4          [386, 512]                [195, 512]                --
│    └─GCNConv: 2-3                      [195, 512]                [195, 512]                512
│    │    └─Linear: 3-5                  [195, 512]                [195, 512]                262,144
│    │    └─SumAggregation: 3-6          [386, 512]                [195, 512]                --
├─ModuleList: 1-2                        --                        --                        --
│    └─GATConv: 2-4                      [195, 512]                [195, 512]                1,536
│    │    └─Linear: 3-7                  [195, 512]                [195, 512]                262,144
│    │    └─SumAggregation: 3-8          [386, 1, 512]             [195, 1, 512]             --
│    └─GATConv: 2-5                      [195, 512]                [195, 512]                1,536
│    │    └─Linear: 3-9                  [195, 512]                [195, 512]                262,144
│    │    └─SumAggregation: 3-10         [386, 1, 512]             [195, 1, 512]             --
│    └─GATConv: 2-6                      [195, 512]                [195, 512]                1,536
│    │    └─Linear: 3-11                 [195, 512]                [195, 512]                262,144
│    │    └─SumAggregation: 3-12         [386, 1, 512]             [195, 1, 512]             --
├─SpatialAttentionLayer: 1-3             [195, 512]                [195, 512]                --
│    └─Linear: 2-7                       [195, 512]                [195, 512]                262,656
│    └─Linear: 2-8                       [195, 512]                [195, 512]                262,656
│    └─Linear: 2-9                       [195, 512]                [195, 512]                262,656
├─Linear: 1-4                            [195, 512]                [195, 5]                  2,565
===================================================================================================================
Total params: 2,504,709
Trainable params: 2,504,709
Non-trainable params: 0
Total mult-adds (Units.MEGABYTES): 487.22
===================================================================================================================
Input size (MB): 0.61
Forward/backward pass size (MB): 7.20
…
