Class counts: {'company': 530, 'date': 635, 'address': 1233, 'total': 1341, 'other': 24088}
Model summary:
===================================================================================================================
Layer (type:depth-idx)                   Input Shape               Output Shape              Param #
===================================================================================================================
ConfigurableGNN                          [447, 776]                [447, 5]                  --
├─ModuleList: 1-1                        --                        --                        --
│    └─GCNConv: 2-1                      [447, 776]                [447, 5000]               5,000
│    │    └─Linear: 3-1                  [447, 776]                [447, 5000]               3,880,000
│    │    └─SumAggregation: 3-2          [886, 5000]               [447, 5000]               --
│    └─GCNConv: 2-2                      [447, 5000]               [447, 5000]               5,000
│    │    └─Linear: 3-3                  [447, 5000]               [447, 5000]               25,000,000
│    │    └─SumAggregation: 3-4          [886, 5000]               [447, 5000]               --
│    └─GCNConv: 2-3                      [447, 5000]               [447, 5000]               5,000
│    │    └─Linear: 3-5                  [447, 5000]               [447, 5000]               25,000,000
│    │    └─SumAggregation: 3-6          [886, 5000]               [447, 5000]               --
│    └─GCNConv: 2-4                      [447, 5000]               [447, 5000]               5,000
│    │    └─Linear: 3-7                  [447, 5000]               [447, 5000]               25,000,000
│    │    └─SumAggregation: 3-8          [886, 5000]               [447, 5000]               --
├─ModuleList: 1-2                        --                        --                        --
│    └─GATConv: 2-5                      [447, 5000]               [447, 5000]               15,000
│    │    └─Linear: 3-9                  [447, 5000]               [447, 5000]               25,000,000
│    │    └─SumAggregation: 3-10         [886, 1, 5000]            [447, 1, 5000]            --
│    └─GATConv: 2-6                      [447, 5000]               [447, 5000]               15,000
│    │    └─Linear: 3-11                 [447, 5000]               [447, 5000]               25,000,000
│    │    └─SumAggregation: 3-12         [886, 1, 5000]            [447, 1, 5000]            --
│    └─GATConv: 2-7                      [447, 5000]               [447, 5000]               15,000
│    │    └─Linear: 3-13                 [447, 5000]               [447, 5000]               25,000,000
│    │    └─SumAggregation: 3-14         [886, 1, 5000]            [447, 1, 5000]            --
│    └─GATConv: 2-8                      [447, 5000]               [447, 5000]               15,000
│    │    └─Linear: 3-15                 [447, 5000]               [447, 5000]               25,000,000
│    │    └─SumAggregation: 3-16         [886, 1, 5000]            [447, 1, 5000]            --
├─SpatialAttentionLayer: 1-3             [447, 5000]               [447, 5000]               --
│    └─Linear: 2-9                       [447, 5000]               [447, 5000]               25,005,000
│    └─Linear: 2-10                      [447, 5000]               [447, 5000]               25,005,000
│    └─Linear: 2-11                      [447, 5000]               [447, 5000]               25,005,000
├─Linear: 1-4                            [447, 5000]               [447, 5]                  25,005
===================================================================================================================
Total params: 254,000,005
Trainable params: 254,000,005
Non-trainable params: 0
Total mult-adds (Units.GIGABYTES): 113.50
===================================================================================================================
Input size (MB): 1.39
Forward/backward pass size (MB): 196.70
…
