Class counts: {'company': 648, 'date': 949, 'address': 449, 'total': 992, 'other': 12732}
Model summary:
===================================================================================================================
Layer (type:depth-idx)                   Input Shape               Output Shape              Param #
===================================================================================================================
ConfigurableGNN                          [151, 776]                [151, 5]                  --
├─ModuleList: 1-1                        --                        --                        --
│    └─GCNConv: 2-1                      [151, 776]                [151, 5000]               5,000
│    │    └─Linear: 3-1                  [151, 776]                [151, 5000]               3,880,000
│    │    └─SumAggregation: 3-2          [298, 5000]               [151, 5000]               --
│    └─GCNConv: 2-2                      [151, 5000]               [151, 5000]               5,000
│    │    └─Linear: 3-3                  [151, 5000]               [151, 5000]               25,000,000
│    │    └─SumAggregation: 3-4          [298, 5000]               [151, 5000]               --
│    └─GCNConv: 2-3                      [151, 5000]               [151, 5000]               5,000
│    │    └─Linear: 3-5                  [151, 5000]               [151, 5000]               25,000,000
│    │    └─SumAggregation: 3-6          [298, 5000]               [151, 5000]               --
│    └─GCNConv: 2-4                      [151, 5000]               [151, 5000]               5,000
│    │    └─Linear: 3-7                  [151, 5000]               [151, 5000]               25,000,000
│    │    └─SumAggregation: 3-8          [298, 5000]               [151, 5000]               --
├─ModuleList: 1-2                        --                        --                        --
│    └─GATConv: 2-5                      [151, 5000]               [151, 5000]               45,000
│    │    └─Linear: 3-9                  [151, 5000]               [151, 20000]              100,000,000
│    │    └─SumAggregation: 3-10         [298, 4, 5000]            [151, 4, 5000]            --
│    └─GATConv: 2-6                      [151, 5000]               [151, 5000]               45,000
│    │    └─Linear: 3-11                 [151, 5000]               [151, 20000]              100,000,000
│    │    └─SumAggregation: 3-12         [298, 4, 5000]            [151, 4, 5000]            --
│    └─GATConv: 2-7                      [151, 5000]               [151, 5000]               45,000
│    │    └─Linear: 3-13                 [151, 5000]               [151, 20000]              100,000,000
│    │    └─SumAggregation: 3-14         [298, 4, 5000]            [151, 4, 5000]            --
│    └─GATConv: 2-8                      [151, 5000]               [151, 5000]               45,000
│    │    └─Linear: 3-15                 [151, 5000]               [151, 20000]              100,000,000
│    │    └─SumAggregation: 3-16         [298, 4, 5000]            [151, 4, 5000]            --
├─Linear: 1-3                            [151, 5000]               [151, 5]                  25,005
===================================================================================================================
Total params: 479,105,005
Trainable params: 479,105,005
Non-trainable params: 0
Total mult-adds (Units.GIGABYTES): 72.31
===================================================================================================================
Input size (MB): 0.47
Forward/backward pass size (MB): 120.81
…
