Class counts: {'company': 530, 'date': 635, 'address': 1233, 'total': 1341, 'other': 24088}
Model summary:
===================================================================================================================
Layer (type:depth-idx)                   Input Shape               Output Shape              Param #
===================================================================================================================
ConfigurableGNN                          [198, 776]                [198, 5]                  --
├─ModuleList: 1-1                        --                        --                        --
│    └─GCNConv: 2-1                      [198, 776]                [198, 5000]               5,000
│    │    └─Linear: 3-1                  [198, 776]                [198, 5000]               3,880,000
│    │    └─SumAggregation: 3-2          [392, 5000]               [198, 5000]               --
│    └─GCNConv: 2-2                      [198, 5000]               [198, 5000]               5,000
│    │    └─Linear: 3-3                  [198, 5000]               [198, 5000]               25,000,000
│    │    └─SumAggregation: 3-4          [392, 5000]               [198, 5000]               --
│    └─GCNConv: 2-3                      [198, 5000]               [198, 5000]               5,000
│    │    └─Linear: 3-5                  [198, 5000]               [198, 5000]               25,000,000
│    │    └─SumAggregation: 3-6          [392, 5000]               [198, 5000]               --
├─ModuleList: 1-2                        --                        --                        --
│    └─GATConv: 2-4                      [198, 5000]               [198, 5000]               65,000
│    │    └─Linear: 3-7                  [198, 5000]               [198, 30000]              150,000,000
│    │    └─SumAggregation: 3-8          [392, 6, 5000]            [198, 6, 5000]            --
│    └─GATConv: 2-5                      [198, 5000]               [198, 5000]               65,000
│    │    └─Linear: 3-9                  [198, 5000]               [198, 30000]              150,000,000
│    │    └─SumAggregation: 3-10         [392, 6, 5000]            [198, 6, 5000]            --
│    └─GATConv: 2-6                      [198, 5000]               [198, 5000]               65,000
│    │    └─Linear: 3-11                 [198, 5000]               [198, 30000]              150,000,000
│    │    └─SumAggregation: 3-12         [392, 6, 5000]            [198, 6, 5000]            --
├─Linear: 1-3                            [198, 5000]               [198, 5]                  25,005
===================================================================================================================
Total params: 504,115,005
Trainable params: 504,115,005
Non-trainable params: 0
Total mult-adds (Units.GIGABYTES): 99.77
===================================================================================================================
Input size (MB): 0.62
Forward/backward pass size (MB): 166.33
…
