Class counts: {'company': 648, 'date': 949, 'address': 449, 'total': 992, 'other': 12732}
Model summary:
===================================================================================================================
Layer (type:depth-idx)                   Input Shape               Output Shape              Param #
===================================================================================================================
ConfigurableGNN                          [206, 776]                [206, 5]                  --
├─ModuleList: 1-1                        --                        --                        --
│    └─GCNConv: 2-1                      [206, 776]                [206, 5000]               5,000
│    │    └─Linear: 3-1                  [206, 776]                [206, 5000]               3,880,000
│    │    └─SumAggregation: 3-2          [408, 5000]               [206, 5000]               --
│    └─GCNConv: 2-2                      [206, 5000]               [206, 5000]               5,000
│    │    └─Linear: 3-3                  [206, 5000]               [206, 5000]               25,000,000
│    │    └─SumAggregation: 3-4          [408, 5000]               [206, 5000]               --
│    └─GCNConv: 2-3                      [206, 5000]               [206, 5000]               5,000
│    │    └─Linear: 3-5                  [206, 5000]               [206, 5000]               25,000,000
│    │    └─SumAggregation: 3-6          [408, 5000]               [206, 5000]               --
├─ModuleList: 1-2                        --                        --                        --
│    └─GATConv: 2-4                      [206, 5000]               [206, 5000]               45,000
│    │    └─Linear: 3-7                  [206, 5000]               [206, 20000]              100,000,000
│    │    └─SumAggregation: 3-8          [408, 4, 5000]            [206, 4, 5000]            --
│    └─GATConv: 2-5                      [206, 5000]               [206, 5000]               45,000
│    │    └─Linear: 3-9                  [206, 5000]               [206, 20000]              100,000,000
│    │    └─SumAggregation: 3-10         [408, 4, 5000]            [206, 4, 5000]            --
│    └─GATConv: 2-6                      [206, 5000]               [206, 5000]               45,000
│    │    └─Linear: 3-11                 [206, 5000]               [206, 20000]              100,000,000
│    │    └─SumAggregation: 3-12         [408, 4, 5000]            [206, 4, 5000]            --
├─SpatialAttentionLayer: 1-3             [206, 5000]               [206, 5000]               --
│    └─Linear: 2-7                       [206, 5000]               [206, 5000]               25,005,000
│    └─Linear: 2-8                       [206, 5000]               [206, 5000]               25,005,000
│    └─Linear: 2-9                       [206, 5000]               [206, 5000]               25,005,000
├─Linear: 1-4                            [206, 5000]               [206, 5]                  25,005
===================================================================================================================
Total params: 429,070,005
Trainable params: 429,070,005
Non-trainable params: 0
Total mult-adds (Units.GIGABYTES): 88.36
===================================================================================================================
Input size (MB): 0.64
Forward/backward pass size (MB): 148.33
…
