Class counts: {'company': 530, 'date': 635, 'address': 1233, 'total': 1341, 'other': 24088}
Model summary:
===================================================================================================================
Layer (type:depth-idx)                   Input Shape               Output Shape              Param #
===================================================================================================================
ConfigurableGNN                          [236, 776]                [236, 5]                  --
├─ModuleList: 1-1                        --                        --                        --
│    └─GCNConv: 2-1                      [236, 776]                [236, 4096]               4,096
│    │    └─Linear: 3-1                  [236, 776]                [236, 4096]               3,178,496
│    │    └─SumAggregation: 3-2          [468, 4096]               [236, 4096]               --
│    └─GCNConv: 2-2                      [236, 4096]               [236, 4096]               4,096
│    │    └─Linear: 3-3                  [236, 4096]               [236, 4096]               16,777,216
│    │    └─SumAggregation: 3-4          [468, 4096]               [236, 4096]               --
│    └─GCNConv: 2-3                      [236, 4096]               [236, 4096]               4,096
│    │    └─Linear: 3-5                  [236, 4096]               [236, 4096]               16,777,216
│    │    └─SumAggregation: 3-6          [468, 4096]               [236, 4096]               --
├─ModuleList: 1-2                        --                        --                        --
│    └─GATConv: 2-4                      [236, 4096]               [236, 4096]               12,288
│    │    └─Linear: 3-7                  [236, 4096]               [236, 4096]               16,777,216
│    │    └─SumAggregation: 3-8          [468, 1, 4096]            [236, 1, 4096]            --
│    └─GATConv: 2-5                      [236, 4096]               [236, 4096]               12,288
│    │    └─Linear: 3-9                  [236, 4096]               [236, 4096]               16,777,216
│    │    └─SumAggregation: 3-10         [468, 1, 4096]            [236, 1, 4096]            --
│    └─GATConv: 2-6                      [236, 4096]               [236, 4096]               12,288
│    │    └─Linear: 3-11                 [236, 4096]               [236, 4096]               16,777,216
│    │    └─SumAggregation: 3-12         [468, 1, 4096]            [236, 1, 4096]            --
├─Linear: 1-3                            [236, 4096]               [236, 5]                  20,485
===================================================================================================================
Total params: 87,134,213
Trainable params: 87,134,213
Non-trainable params: 0
Total mult-adds (Units.GIGABYTES): 20.55
===================================================================================================================
Input size (MB): 0.74
Forward/backward pass size (MB): 46.41
…
