Class counts: {'company': 648, 'date': 949, 'address': 449, 'total': 992, 'other': 12732}
Model summary:
===================================================================================================================
Layer (type:depth-idx)                   Input Shape               Output Shape              Param #
===================================================================================================================
ConfigurableGNN                          [201, 776]                [201, 5]                  --
├─ModuleList: 1-1                        --                        --                        --
│    └─GCNConv: 2-1                      [201, 776]                [201, 4096]               4,096
│    │    └─Linear: 3-1                  [201, 776]                [201, 4096]               3,178,496
│    │    └─SumAggregation: 3-2          [398, 4096]               [201, 4096]               --
│    └─GCNConv: 2-2                      [201, 4096]               [201, 4096]               4,096
│    │    └─Linear: 3-3                  [201, 4096]               [201, 4096]               16,777,216
│    │    └─SumAggregation: 3-4          [398, 4096]               [201, 4096]               --
│    └─GCNConv: 2-3                      [201, 4096]               [201, 4096]               4,096
│    │    └─Linear: 3-5                  [201, 4096]               [201, 4096]               16,777,216
│    │    └─SumAggregation: 3-6          [398, 4096]               [201, 4096]               --
├─ModuleList: 1-2                        --                        --                        --
│    └─GATConv: 2-4                      [201, 4096]               [201, 4096]               36,864
│    │    └─Linear: 3-7                  [201, 4096]               [201, 16384]              67,108,864
│    │    └─SumAggregation: 3-8          [398, 4, 4096]            [201, 4, 4096]            --
│    └─GATConv: 2-5                      [201, 4096]               [201, 4096]               36,864
│    │    └─Linear: 3-9                  [201, 4096]               [201, 16384]              67,108,864
│    │    └─SumAggregation: 3-10         [398, 4, 4096]            [201, 4, 4096]            --
│    └─GATConv: 2-6                      [201, 4096]               [201, 4096]               36,864
│    │    └─Linear: 3-11                 [201, 4096]               [201, 16384]              67,108,864
│    │    └─SumAggregation: 3-12         [398, 4, 4096]            [201, 4, 4096]            --
├─SpatialAttentionLayer: 1-3             [201, 4096]               [201, 4096]               --
│    └─Linear: 2-7                       [201, 4096]               [201, 4096]               16,781,312
│    └─Linear: 2-8                       [201, 4096]               [201, 4096]               16,781,312
│    └─Linear: 2-9                       [201, 4096]               [201, 4096]               16,781,312
├─Linear: 1-4                            [201, 4096]               [201, 5]                  20,485
===================================================================================================================
Total params: 288,546,821
Trainable params: 288,546,821
Non-trainable params: 0
Total mult-adds (Units.GIGABYTES): 57.97
===================================================================================================================
Input size (MB): 0.63
Forward/backward pass size (MB): 118.56
…
