Class counts: {'company': 648, 'date': 949, 'address': 449, 'total': 992, 'other': 12732}
Model summary:
===================================================================================================================
Layer (type:depth-idx)                   Input Shape               Output Shape              Param #
===================================================================================================================
ConfigurableGNN                          [227, 776]                [227, 5]                  --
├─ModuleList: 1-1                        --                        --                        --
│    └─GCNConv: 2-1                      [227, 776]                [227, 5000]               5,000
│    │    └─Linear: 3-1                  [227, 776]                [227, 5000]               3,880,000
│    │    └─SumAggregation: 3-2          [450, 5000]               [227, 5000]               --
│    └─GCNConv: 2-2                      [227, 5000]               [227, 5000]               5,000
│    │    └─Linear: 3-3                  [227, 5000]               [227, 5000]               25,000,000
│    │    └─SumAggregation: 3-4          [450, 5000]               [227, 5000]               --
│    └─GCNConv: 2-3                      [227, 5000]               [227, 5000]               5,000
│    │    └─Linear: 3-5                  [227, 5000]               [227, 5000]               25,000,000
│    │    └─SumAggregation: 3-6          [450, 5000]               [227, 5000]               --
│    └─GCNConv: 2-4                      [227, 5000]               [227, 5000]               5,000
│    │    └─Linear: 3-7                  [227, 5000]               [227, 5000]               25,000,000
│    │    └─SumAggregation: 3-8          [450, 5000]               [227, 5000]               --
├─ModuleList: 1-2                        --                        --                        --
│    └─GATConv: 2-5                      [227, 5000]               [227, 5000]               45,000
│    │    └─Linear: 3-9                  [227, 5000]               [227, 20000]              100,000,000
│    │    └─SumAggregation: 3-10         [450, 4, 5000]            [227, 4, 5000]            --
│    └─GATConv: 2-6                      [227, 5000]               [227, 5000]               45,000
│    │    └─Linear: 3-11                 [227, 5000]               [227, 20000]              100,000,000
│    │    └─SumAggregation: 3-12         [450, 4, 5000]            [227, 4, 5000]            --
│    └─GATConv: 2-7                      [227, 5000]               [227, 5000]               45,000
│    │    └─Linear: 3-13                 [227, 5000]               [227, 20000]              100,000,000
│    │    └─SumAggregation: 3-14         [450, 4, 5000]            [227, 4, 5000]            --
│    └─GATConv: 2-8                      [227, 5000]               [227, 5000]               45,000
│    │    └─Linear: 3-15                 [227, 5000]               [227, 20000]              100,000,000
│    │    └─SumAggregation: 3-16         [450, 4, 5000]            [227, 4, 5000]            --
├─Linear: 1-3                            [227, 5000]               [227, 5]                  25,005
===================================================================================================================
Total params: 479,105,005
Trainable params: 479,105,005
Non-trainable params: 0
Total mult-adds (Units.GIGABYTES): 108.71
===================================================================================================================
Input size (MB): 0.71
Forward/backward pass size (MB): 181.61
…
