Class counts: {'company': 530, 'date': 635, 'address': 1233, 'total': 1341, 'other': 24088}
Model summary:
===================================================================================================================
Layer (type:depth-idx)                   Input Shape               Output Shape              Param #
===================================================================================================================
ConfigurableGNN                          [269, 776]                [269, 5]                  --
├─ModuleList: 1-1                        --                        --                        --
│    └─GCNConv: 2-1                      [269, 776]                [269, 4096]               4,096
│    │    └─Linear: 3-1                  [269, 776]                [269, 4096]               3,178,496
│    │    └─SumAggregation: 3-2          [534, 4096]               [269, 4096]               --
│    └─GCNConv: 2-2                      [269, 4096]               [269, 4096]               4,096
│    │    └─Linear: 3-3                  [269, 4096]               [269, 4096]               16,777,216
│    │    └─SumAggregation: 3-4          [534, 4096]               [269, 4096]               --
│    └─GCNConv: 2-3                      [269, 4096]               [269, 4096]               4,096
│    │    └─Linear: 3-5                  [269, 4096]               [269, 4096]               16,777,216
│    │    └─SumAggregation: 3-6          [534, 4096]               [269, 4096]               --
│    └─GCNConv: 2-4                      [269, 4096]               [269, 4096]               4,096
│    │    └─Linear: 3-7                  [269, 4096]               [269, 4096]               16,777,216
│    │    └─SumAggregation: 3-8          [534, 4096]               [269, 4096]               --
├─ModuleList: 1-2                        --                        --                        --
│    └─GATConv: 2-5                      [269, 4096]               [269, 4096]               12,288
│    │    └─Linear: 3-9                  [269, 4096]               [269, 4096]               16,777,216
│    │    └─SumAggregation: 3-10         [534, 1, 4096]            [269, 1, 4096]            --
│    └─GATConv: 2-6                      [269, 4096]               [269, 4096]               12,288
│    │    └─Linear: 3-11                 [269, 4096]               [269, 4096]               16,777,216
│    │    └─SumAggregation: 3-12         [534, 1, 4096]            [269, 1, 4096]            --
│    └─GATConv: 2-7                      [269, 4096]               [269, 4096]               12,288
│    │    └─Linear: 3-13                 [269, 4096]               [269, 4096]               16,777,216
│    │    └─SumAggregation: 3-14         [534, 1, 4096]            [269, 1, 4096]            --
│    └─GATConv: 2-8                      [269, 4096]               [269, 4096]               12,288
│    │    └─Linear: 3-15                 [269, 4096]               [269, 4096]               16,777,216
│    │    └─SumAggregation: 3-16         [534, 1, 4096]            [269, 1, 4096]            --
├─Linear: 1-3                            [269, 4096]               [269, 5]                  20,485
===================================================================================================================
Total params: 120,705,029
Trainable params: 120,705,029
Non-trainable params: 0
Total mult-adds (Units.GIGABYTES): 32.45
===================================================================================================================
Input size (MB): 0.84
Forward/backward pass size (MB): 70.53
…
