Class counts: {'company': 648, 'date': 949, 'address': 449, 'total': 992, 'other': 12732}
Model summary:
===================================================================================================================
Layer (type:depth-idx)                   Input Shape               Output Shape              Param #
===================================================================================================================
ConfigurableGNN                          [195, 776]                [195, 5]                  --
├─ModuleList: 1-1                        --                        --                        --
│    └─GCNConv: 2-1                      [195, 776]                [195, 5000]               5,000
│    │    └─Linear: 3-1                  [195, 776]                [195, 5000]               3,880,000
│    │    └─SumAggregation: 3-2          [386, 5000]               [195, 5000]               --
│    └─GCNConv: 2-2                      [195, 5000]               [195, 5000]               5,000
│    │    └─Linear: 3-3                  [195, 5000]               [195, 5000]               25,000,000
│    │    └─SumAggregation: 3-4          [386, 5000]               [195, 5000]               --
│    └─GCNConv: 2-3                      [195, 5000]               [195, 5000]               5,000
│    │    └─Linear: 3-5                  [195, 5000]               [195, 5000]               25,000,000
│    │    └─SumAggregation: 3-6          [386, 5000]               [195, 5000]               --
├─ModuleList: 1-2                        --                        --                        --
│    └─GATConv: 2-4                      [195, 5000]               [195, 5000]               45,000
│    │    └─Linear: 3-7                  [195, 5000]               [195, 20000]              100,000,000
│    │    └─SumAggregation: 3-8          [386, 4, 5000]            [195, 4, 5000]            --
│    └─GATConv: 2-5                      [195, 5000]               [195, 5000]               45,000
│    │    └─Linear: 3-9                  [195, 5000]               [195, 20000]              100,000,000
│    │    └─SumAggregation: 3-10         [386, 4, 5000]            [195, 4, 5000]            --
│    └─GATConv: 2-6                      [195, 5000]               [195, 5000]               45,000
│    │    └─Linear: 3-11                 [195, 5000]               [195, 20000]              100,000,000
│    │    └─SumAggregation: 3-12         [386, 4, 5000]            [195, 4, 5000]            --
├─Linear: 1-3                            [195, 5000]               [195, 5]                  25,005
===================================================================================================================
Total params: 354,055,005
Trainable params: 354,055,005
Non-trainable params: 0
Total mult-adds (Units.GIGABYTES): 69.01
===================================================================================================================
Input size (MB): 0.61
Forward/backward pass size (MB): 117.01
…
