Class counts: {'company': 893, 'date': 2052, 'address': 1881, 'total': 1520, 'other': 21481}
Model summary:
===================================================================================================================
Layer (type:depth-idx)                   Input Shape               Output Shape              Param #
===================================================================================================================
ConfigurableGNN                          [189, 776]                [189, 5]                  --
├─ModuleList: 1-1                        --                        --                        --
│    └─GCNConv: 2-1                      [189, 776]                [189, 5000]               5,000
│    │    └─Linear: 3-1                  [189, 776]                [189, 5000]               3,880,000
│    │    └─SumAggregation: 3-2          [374, 5000]               [189, 5000]               --
│    └─GCNConv: 2-2                      [189, 5000]               [189, 5000]               5,000
│    │    └─Linear: 3-3                  [189, 5000]               [189, 5000]               25,000,000
│    │    └─SumAggregation: 3-4          [374, 5000]               [189, 5000]               --
│    └─GCNConv: 2-3                      [189, 5000]               [189, 5000]               5,000
│    │    └─Linear: 3-5                  [189, 5000]               [189, 5000]               25,000,000
│    │    └─SumAggregation: 3-6          [374, 5000]               [189, 5000]               --
├─ModuleList: 1-2                        --                        --                        --
│    └─GATConv: 2-4                      [189, 5000]               [189, 5000]               65,000
│    │    └─Linear: 3-7                  [189, 5000]               [189, 30000]              150,000,000
│    │    └─SumAggregation: 3-8          [374, 6, 5000]            [189, 6, 5000]            --
│    └─GATConv: 2-5                      [189, 5000]               [189, 5000]               65,000
│    │    └─Linear: 3-9                  [189, 5000]               [189, 30000]              150,000,000
│    │    └─SumAggregation: 3-10         [374, 6, 5000]            [189, 6, 5000]            --
│    └─GATConv: 2-6                      [189, 5000]               [189, 5000]               65,000
│    │    └─Linear: 3-11                 [189, 5000]               [189, 30000]              150,000,000
│    │    └─SumAggregation: 3-12         [374, 6, 5000]            [189, 6, 5000]            --
├─Linear: 1-3                            [189, 5000]               [189, 5]                  25,005
===================================================================================================================
Total params: 504,115,005
Trainable params: 504,115,005
Non-trainable params: 0
Total mult-adds (Units.GIGABYTES): 95.24
===================================================================================================================
Input size (MB): 0.59
Forward/backward pass size (MB): 158.77
…
