Class counts: {'company': 530, 'date': 635, 'address': 1233, 'total': 1341, 'other': 24088}
Model summary:
===================================================================================================================
Layer (type:depth-idx)                   Input Shape               Output Shape              Param #
===================================================================================================================
ConfigurableGNN                          [243, 776]                [243, 5]                  --
├─ModuleList: 1-1                        --                        --                        --
│    └─GCNConv: 2-1                      [243, 776]                [243, 128]                128
│    │    └─Linear: 3-1                  [243, 776]                [243, 128]                99,328
│    │    └─SumAggregation: 3-2          [482, 128]                [243, 128]                --
│    └─GCNConv: 2-2                      [243, 128]                [243, 128]                128
│    │    └─Linear: 3-3                  [243, 128]                [243, 128]                16,384
│    │    └─SumAggregation: 3-4          [482, 128]                [243, 128]                --
│    └─GCNConv: 2-3                      [243, 128]                [243, 128]                128
│    │    └─Linear: 3-5                  [243, 128]                [243, 128]                16,384
│    │    └─SumAggregation: 3-6          [482, 128]                [243, 128]                --
│    └─GCNConv: 2-4                      [243, 128]                [243, 128]                128
│    │    └─Linear: 3-7                  [243, 128]                [243, 128]                16,384
│    │    └─SumAggregation: 3-8          [482, 128]                [243, 128]                --
├─ModuleList: 1-2                        --                        --                        --
│    └─GATConv: 2-5                      [243, 128]                [243, 128]                384
│    │    └─Linear: 3-9                  [243, 128]                [243, 128]                16,384
│    │    └─SumAggregation: 3-10         [482, 1, 128]             [243, 1, 128]             --
│    └─GATConv: 2-6                      [243, 128]                [243, 128]                384
│    │    └─Linear: 3-11                 [243, 128]                [243, 128]                16,384
│    │    └─SumAggregation: 3-12         [482, 1, 128]             [243, 1, 128]             --
│    └─GATConv: 2-7                      [243, 128]                [243, 128]                384
│    │    └─Linear: 3-13                 [243, 128]                [243, 128]                16,384
│    │    └─SumAggregation: 3-14         [482, 1, 128]             [243, 1, 128]             --
│    └─GATConv: 2-8                      [243, 128]                [243, 128]                384
│    │    └─Linear: 3-15                 [243, 128]                [243, 128]                16,384
│    │    └─SumAggregation: 3-16         [482, 1, 128]             [243, 1, 128]             --
├─SpatialAttentionLayer: 1-3             [243, 128]                [243, 128]                --
│    └─Linear: 2-9                       [243, 128]                [243, 128]                16,512
│    └─Linear: 2-10                      [243, 128]                [243, 128]                16,512
│    └─Linear: 2-11                      [243, 128]                [243, 128]                16,512
├─Linear: 1-4                            [243, 128]                [243, 5]                  645
===================================================================================================================
Total params: 266,245
Trainable params: 266,245
Non-trainable params: 0
Total mult-adds (Units.MEGABYTES): 64.20
===================================================================================================================
Input size (MB): 0.76
Forward/backward pass size (MB): 2.75
…
