Class counts: {'company': 648, 'date': 949, 'address': 449, 'total': 992, 'other': 12732}
Model summary:
===================================================================================================================
Layer (type:depth-idx)                   Input Shape               Output Shape              Param #
===================================================================================================================
ConfigurableGNN                          [150, 776]                [150, 5]                  --
├─ModuleList: 1-1                        --                        --                        --
│    └─GCNConv: 2-1                      [150, 776]                [150, 5000]               5,000
│    │    └─Linear: 3-1                  [150, 776]                [150, 5000]               3,880,000
│    │    └─SumAggregation: 3-2          [296, 5000]               [150, 5000]               --
│    └─GCNConv: 2-2                      [150, 5000]               [150, 5000]               5,000
│    │    └─Linear: 3-3                  [150, 5000]               [150, 5000]               25,000,000
│    │    └─SumAggregation: 3-4          [296, 5000]               [150, 5000]               --
│    └─GCNConv: 2-3                      [150, 5000]               [150, 5000]               5,000
│    │    └─Linear: 3-5                  [150, 5000]               [150, 5000]               25,000,000
│    │    └─SumAggregation: 3-6          [296, 5000]               [150, 5000]               --
├─ModuleList: 1-2                        --                        --                        --
│    └─GATConv: 2-4                      [150, 5000]               [150, 5000]               45,000
│    │    └─Linear: 3-7                  [150, 5000]               [150, 20000]              100,000,000
│    │    └─SumAggregation: 3-8          [296, 4, 5000]            [150, 4, 5000]            --
│    └─GATConv: 2-5                      [150, 5000]               [150, 5000]               45,000
│    │    └─Linear: 3-9                  [150, 5000]               [150, 20000]              100,000,000
│    │    └─SumAggregation: 3-10         [296, 4, 5000]            [150, 4, 5000]            --
│    └─GATConv: 2-6                      [150, 5000]               [150, 5000]               45,000
│    │    └─Linear: 3-11                 [150, 5000]               [150, 20000]              100,000,000
│    │    └─SumAggregation: 3-12         [296, 4, 5000]            [150, 4, 5000]            --
├─SpatialAttentionLayer: 1-3             [150, 5000]               [150, 5000]               --
│    └─Linear: 2-7                       [150, 5000]               [150, 5000]               25,005,000
│    └─Linear: 2-8                       [150, 5000]               [150, 5000]               25,005,000
│    └─Linear: 2-9                       [150, 5000]               [150, 5000]               25,005,000
├─Linear: 1-4                            [150, 5000]               [150, 5]                  25,005
===================================================================================================================
Total params: 429,070,005
Trainable params: 429,070,005
Non-trainable params: 0
Total mult-adds (Units.GIGABYTES): 64.34
===================================================================================================================
Input size (MB): 0.47
Forward/backward pass size (MB): 108.01
…
