Class counts: {'company': 648, 'date': 949, 'address': 449, 'total': 992, 'other': 12732}
Model summary:
===================================================================================================================
Layer (type:depth-idx)                   Input Shape               Output Shape              Param #
===================================================================================================================
ConfigurableGNN                          [149, 776]                [149, 5]                  --
├─ModuleList: 1-1                        --                        --                        --
│    └─GCNConv: 2-1                      [149, 776]                [149, 5000]               5,000
│    │    └─Linear: 3-1                  [149, 776]                [149, 5000]               3,880,000
│    │    └─SumAggregation: 3-2          [294, 5000]               [149, 5000]               --
│    └─GCNConv: 2-2                      [149, 5000]               [149, 5000]               5,000
│    │    └─Linear: 3-3                  [149, 5000]               [149, 5000]               25,000,000
│    │    └─SumAggregation: 3-4          [294, 5000]               [149, 5000]               --
│    └─GCNConv: 2-3                      [149, 5000]               [149, 5000]               5,000
│    │    └─Linear: 3-5                  [149, 5000]               [149, 5000]               25,000,000
│    │    └─SumAggregation: 3-6          [294, 5000]               [149, 5000]               --
├─ModuleList: 1-2                        --                        --                        --
│    └─GATConv: 2-4                      [149, 5000]               [149, 5000]               45,000
│    │    └─Linear: 3-7                  [149, 5000]               [149, 20000]              100,000,000
│    │    └─SumAggregation: 3-8          [294, 4, 5000]            [149, 4, 5000]            --
│    └─GATConv: 2-5                      [149, 5000]               [149, 5000]               45,000
│    │    └─Linear: 3-9                  [149, 5000]               [149, 20000]              100,000,000
│    │    └─SumAggregation: 3-10         [294, 4, 5000]            [149, 4, 5000]            --
│    └─GATConv: 2-6                      [149, 5000]               [149, 5000]               45,000
│    │    └─Linear: 3-11                 [149, 5000]               [149, 20000]              100,000,000
│    │    └─SumAggregation: 3-12         [294, 4, 5000]            [149, 4, 5000]            --
├─Linear: 1-3                            [149, 5000]               [149, 5]                  25,005
===================================================================================================================
Total params: 354,055,005
Trainable params: 354,055,005
Non-trainable params: 0
Total mult-adds (Units.GIGABYTES): 52.73
===================================================================================================================
Input size (MB): 0.46
Forward/backward pass size (MB): 89.41
…
