Class counts: {'company': 648, 'date': 949, 'address': 449, 'total': 992, 'other': 12732}
Model summary:
===================================================================================================================
Layer (type:depth-idx)                   Input Shape               Output Shape              Param #
===================================================================================================================
ConfigurableGNN                          [164, 776]                [164, 5]                  --
├─ModuleList: 1-1                        --                        --                        --
│    └─GCNConv: 2-1                      [164, 776]                [164, 8000]               8,000
│    │    └─Linear: 3-1                  [164, 776]                [164, 8000]               6,208,000
│    │    └─SumAggregation: 3-2          [324, 8000]               [164, 8000]               --
│    └─GCNConv: 2-2                      [164, 8000]               [164, 8000]               8,000
│    │    └─Linear: 3-3                  [164, 8000]               [164, 8000]               64,000,000
│    │    └─SumAggregation: 3-4          [324, 8000]               [164, 8000]               --
│    └─GCNConv: 2-3                      [164, 8000]               [164, 8000]               8,000
│    │    └─Linear: 3-5                  [164, 8000]               [164, 8000]               64,000,000
│    │    └─SumAggregation: 3-6          [324, 8000]               [164, 8000]               --
├─ModuleList: 1-2                        --                        --                        --
│    └─GATConv: 2-4                      [164, 8000]               [164, 8000]               24,000
│    │    └─Linear: 3-7                  [164, 8000]               [164, 8000]               64,000,000
│    │    └─SumAggregation: 3-8          [324, 1, 8000]            [164, 1, 8000]            --
│    └─GATConv: 2-5                      [164, 8000]               [164, 8000]               24,000
│    │    └─Linear: 3-9                  [164, 8000]               [164, 8000]               64,000,000
│    │    └─SumAggregation: 3-10         [324, 1, 8000]            [164, 1, 8000]            --
│    └─GATConv: 2-6                      [164, 8000]               [164, 8000]               24,000
│    │    └─Linear: 3-11                 [164, 8000]               [164, 8000]               64,000,000
│    │    └─SumAggregation: 3-12         [324, 1, 8000]            [164, 1, 8000]            --
├─Linear: 1-3                            [164, 8000]               [164, 5]                  40,005
===================================================================================================================
Total params: 326,344,005
Trainable params: 326,344,005
Non-trainable params: 0
Total mult-adds (Units.GIGABYTES): 53.50
===================================================================================================================
Input size (MB): 0.51
Forward/backward pass size (MB): 62.98
…
