Class counts: {'company': 530, 'date': 635, 'address': 1233, 'total': 1341, 'other': 24088}
Model summary:
===================================================================================================================
Layer (type:depth-idx)                   Input Shape               Output Shape              Param #
===================================================================================================================
ConfigurableGNN                          [188, 776]                [188, 5]                  --
├─ModuleList: 1-1                        --                        --                        --
│    └─GCNConv: 2-1                      [188, 776]                [188, 5000]               5,000
│    │    └─Linear: 3-1                  [188, 776]                [188, 5000]               3,880,000
│    │    └─SumAggregation: 3-2          [372, 5000]               [188, 5000]               --
│    └─GCNConv: 2-2                      [188, 5000]               [188, 5000]               5,000
│    │    └─Linear: 3-3                  [188, 5000]               [188, 5000]               25,000,000
│    │    └─SumAggregation: 3-4          [372, 5000]               [188, 5000]               --
│    └─GCNConv: 2-3                      [188, 5000]               [188, 5000]               5,000
│    │    └─Linear: 3-5                  [188, 5000]               [188, 5000]               25,000,000
│    │    └─SumAggregation: 3-6          [372, 5000]               [188, 5000]               --
├─ModuleList: 1-2                        --                        --                        --
│    └─GATConv: 2-4                      [188, 5000]               [188, 5000]               15,000
│    │    └─Linear: 3-7                  [188, 5000]               [188, 5000]               25,000,000
│    │    └─SumAggregation: 3-8          [372, 1, 5000]            [188, 1, 5000]            --
│    └─GATConv: 2-5                      [188, 5000]               [188, 5000]               15,000
│    │    └─Linear: 3-9                  [188, 5000]               [188, 5000]               25,000,000
│    │    └─SumAggregation: 3-10         [372, 1, 5000]            [188, 1, 5000]            --
│    └─GATConv: 2-6                      [188, 5000]               [188, 5000]               15,000
│    │    └─Linear: 3-11                 [188, 5000]               [188, 5000]               25,000,000
│    │    └─SumAggregation: 3-12         [372, 1, 5000]            [188, 1, 5000]            --
├─SpatialAttentionLayer: 1-3             [188, 5000]               [188, 5000]               --
│    └─Linear: 2-7                       [188, 5000]               [188, 5000]               25,005,000
│    └─Linear: 2-8                       [188, 5000]               [188, 5000]               25,005,000
│    └─Linear: 2-9                       [188, 5000]               [188, 5000]               25,005,000
├─Linear: 1-4                            [188, 5000]               [188, 5]                  25,005
===================================================================================================================
Total params: 203,980,005
Trainable params: 203,980,005
Non-trainable params: 0
Total mult-adds (Units.GIGABYTES): 38.34
===================================================================================================================
Input size (MB): 0.59
Forward/backward pass size (MB): 67.69
…
