Class counts: {'company': 530, 'date': 635, 'address': 1233, 'total': 1341, 'other': 24088}
Model summary:
===================================================================================================================
Layer (type:depth-idx)                   Input Shape               Output Shape              Param #
===================================================================================================================
ConfigurableGNN                          [199, 776]                [199, 5]                  --
├─ModuleList: 1-1                        --                        --                        --
│    └─GCNConv: 2-1                      [199, 776]                [199, 5000]               5,000
│    │    └─Linear: 3-1                  [199, 776]                [199, 5000]               3,880,000
│    │    └─SumAggregation: 3-2          [394, 5000]               [199, 5000]               --
│    └─GCNConv: 2-2                      [199, 5000]               [199, 5000]               5,000
│    │    └─Linear: 3-3                  [199, 5000]               [199, 5000]               25,000,000
│    │    └─SumAggregation: 3-4          [394, 5000]               [199, 5000]               --
│    └─GCNConv: 2-3                      [199, 5000]               [199, 5000]               5,000
│    │    └─Linear: 3-5                  [199, 5000]               [199, 5000]               25,000,000
│    │    └─SumAggregation: 3-6          [394, 5000]               [199, 5000]               --
├─ModuleList: 1-2                        --                        --                        --
│    └─GATConv: 2-4                      [199, 5000]               [199, 5000]               85,000
│    │    └─Linear: 3-7                  [199, 5000]               [199, 40000]              200,000,000
│    │    └─SumAggregation: 3-8          [394, 8, 5000]            [199, 8, 5000]            --
│    └─GATConv: 2-5                      [199, 5000]               [199, 5000]               85,000
│    │    └─Linear: 3-9                  [199, 5000]               [199, 40000]              200,000,000
│    │    └─SumAggregation: 3-10         [394, 8, 5000]            [199, 8, 5000]            --
│    └─GATConv: 2-6                      [199, 5000]               [199, 5000]               85,000
│    │    └─Linear: 3-11                 [199, 5000]               [199, 40000]              200,000,000
│    │    └─SumAggregation: 3-12         [394, 8, 5000]            [199, 8, 5000]            --
├─Linear: 1-3                            [199, 5000]               [199, 5]                  25,005
===================================================================================================================
Total params: 654,175,005
Trainable params: 654,175,005
Non-trainable params: 0
Total mult-adds (Units.GIGABYTES): 130.13
===================================================================================================================
Input size (MB): 0.62
Forward/backward pass size (MB): 214.93
…
