Class counts: {'company': 530, 'date': 635, 'address': 1233, 'total': 1341, 'other': 24088}
Model summary:
===================================================================================================================
Layer (type:depth-idx)                   Input Shape               Output Shape              Param #
===================================================================================================================
ConfigurableGNN                          [197, 776]                [197, 5]                  --
├─ModuleList: 1-1                        --                        --                        --
│    └─GCNConv: 2-1                      [197, 776]                [197, 4096]               4,096
│    │    └─Linear: 3-1                  [197, 776]                [197, 4096]               3,178,496
│    │    └─SumAggregation: 3-2          [390, 4096]               [197, 4096]               --
│    └─GCNConv: 2-2                      [197, 4096]               [197, 4096]               4,096
│    │    └─Linear: 3-3                  [197, 4096]               [197, 4096]               16,777,216
│    │    └─SumAggregation: 3-4          [390, 4096]               [197, 4096]               --
│    └─GCNConv: 2-3                      [197, 4096]               [197, 4096]               4,096
│    │    └─Linear: 3-5                  [197, 4096]               [197, 4096]               16,777,216
│    │    └─SumAggregation: 3-6          [390, 4096]               [197, 4096]               --
├─ModuleList: 1-2                        --                        --                        --
│    └─GATConv: 2-4                      [197, 4096]               [197, 4096]               12,288
│    │    └─Linear: 3-7                  [197, 4096]               [197, 4096]               16,777,216
│    │    └─SumAggregation: 3-8          [390, 1, 4096]            [197, 1, 4096]            --
│    └─GATConv: 2-5                      [197, 4096]               [197, 4096]               12,288
│    │    └─Linear: 3-9                  [197, 4096]               [197, 4096]               16,777,216
│    │    └─SumAggregation: 3-10         [390, 1, 4096]            [197, 1, 4096]            --
│    └─GATConv: 2-6                      [197, 4096]               [197, 4096]               12,288
│    │    └─Linear: 3-11                 [197, 4096]               [197, 4096]               16,777,216
│    │    └─SumAggregation: 3-12         [390, 1, 4096]            [197, 1, 4096]            --
├─SpatialAttentionLayer: 1-3             [197, 4096]               [197, 4096]               --
│    └─Linear: 2-7                       [197, 4096]               [197, 4096]               16,781,312
│    └─Linear: 2-8                       [197, 4096]               [197, 4096]               16,781,312
│    └─Linear: 2-9                       [197, 4096]               [197, 4096]               16,781,312
├─Linear: 1-4                            [197, 4096]               [197, 5]                  20,485
===================================================================================================================
Total params: 137,478,149
Trainable params: 137,478,149
Non-trainable params: 0
Total mult-adds (Units.GIGABYTES): 27.07
===================================================================================================================
Input size (MB): 0.61
Forward/backward pass size (MB): 58.11
…
