Class counts: {'company': 530, 'date': 635, 'address': 1233, 'total': 1341, 'other': 24088}
Model summary:
===================================================================================================================
Layer (type:depth-idx)                   Input Shape               Output Shape              Param #
===================================================================================================================
ConfigurableGNN                          [133, 776]                [133, 5]                  --
├─ModuleList: 1-1                        --                        --                        --
│    └─GCNConv: 2-1                      [133, 776]                [133, 5000]               5,000
│    │    └─Linear: 3-1                  [133, 776]                [133, 5000]               3,880,000
│    │    └─SumAggregation: 3-2          [262, 5000]               [133, 5000]               --
│    └─GCNConv: 2-2                      [133, 5000]               [133, 5000]               5,000
│    │    └─Linear: 3-3                  [133, 5000]               [133, 5000]               25,000,000
│    │    └─SumAggregation: 3-4          [262, 5000]               [133, 5000]               --
│    └─GCNConv: 2-3                      [133, 5000]               [133, 5000]               5,000
│    │    └─Linear: 3-5                  [133, 5000]               [133, 5000]               25,000,000
│    │    └─SumAggregation: 3-6          [262, 5000]               [133, 5000]               --
├─ModuleList: 1-2                        --                        --                        --
│    └─GATConv: 2-4                      [133, 5000]               [133, 5000]               15,000
│    │    └─Linear: 3-7                  [133, 5000]               [133, 5000]               25,000,000
│    │    └─SumAggregation: 3-8          [262, 1, 5000]            [133, 1, 5000]            --
│    └─GATConv: 2-5                      [133, 5000]               [133, 5000]               15,000
│    │    └─Linear: 3-9                  [133, 5000]               [133, 5000]               25,000,000
│    │    └─SumAggregation: 3-10         [262, 1, 5000]            [133, 1, 5000]            --
│    └─GATConv: 2-6                      [133, 5000]               [133, 5000]               15,000
│    │    └─Linear: 3-11                 [133, 5000]               [133, 5000]               25,000,000
│    │    └─SumAggregation: 3-12         [262, 1, 5000]            [133, 1, 5000]            --
├─SpatialAttentionLayer: 1-3             [133, 5000]               [133, 5000]               --
│    └─Linear: 2-7                       [133, 5000]               [133, 5000]               25,005,000
│    └─Linear: 2-8                       [133, 5000]               [133, 5000]               25,005,000
│    └─Linear: 2-9                       [133, 5000]               [133, 5000]               25,005,000
├─Linear: 1-4                            [133, 5000]               [133, 5]                  25,005
===================================================================================================================
Total params: 203,980,005
Trainable params: 203,980,005
Non-trainable params: 0
Total mult-adds (Units.GIGABYTES): 27.12
===================================================================================================================
Input size (MB): 0.42
Forward/backward pass size (MB): 47.89
…
