Class counts: {'company': 648, 'date': 949, 'address': 449, 'total': 992, 'other': 12732}
Model summary:
===================================================================================================================
Layer (type:depth-idx)                   Input Shape               Output Shape              Param #
===================================================================================================================
ConfigurableGNN                          [125, 776]                [125, 5]                  --
├─ModuleList: 1-1                        --                        --                        --
│    └─GCNConv: 2-1                      [125, 776]                [125, 5000]               5,000
│    │    └─Linear: 3-1                  [125, 776]                [125, 5000]               3,880,000
│    │    └─SumAggregation: 3-2          [246, 5000]               [125, 5000]               --
│    └─GCNConv: 2-2                      [125, 5000]               [125, 5000]               5,000
│    │    └─Linear: 3-3                  [125, 5000]               [125, 5000]               25,000,000
│    │    └─SumAggregation: 3-4          [246, 5000]               [125, 5000]               --
│    └─GCNConv: 2-3                      [125, 5000]               [125, 5000]               5,000
│    │    └─Linear: 3-5                  [125, 5000]               [125, 5000]               25,000,000
│    │    └─SumAggregation: 3-6          [246, 5000]               [125, 5000]               --
├─ModuleList: 1-2                        --                        --                        --
│    └─GATConv: 2-4                      [125, 5000]               [125, 5000]               45,000
│    │    └─Linear: 3-7                  [125, 5000]               [125, 20000]              100,000,000
│    │    └─SumAggregation: 3-8          [246, 4, 5000]            [125, 4, 5000]            --
│    └─GATConv: 2-5                      [125, 5000]               [125, 5000]               45,000
│    │    └─Linear: 3-9                  [125, 5000]               [125, 20000]              100,000,000
│    │    └─SumAggregation: 3-10         [246, 4, 5000]            [125, 4, 5000]            --
│    └─GATConv: 2-6                      [125, 5000]               [125, 5000]               45,000
│    │    └─Linear: 3-11                 [125, 5000]               [125, 20000]              100,000,000
│    │    └─SumAggregation: 3-12         [246, 4, 5000]            [125, 4, 5000]            --
├─Linear: 1-3                            [125, 5000]               [125, 5]                  25,005
===================================================================================================================
Total params: 354,055,005
Trainable params: 354,055,005
Non-trainable params: 0
Total mult-adds (Units.GIGABYTES): 44.24
===================================================================================================================
Input size (MB): 0.39
Forward/backward pass size (MB): 75.00
…
