Loaded model from best_checkpoint/invoice_gnn.pth
Class counts: {'company': 74, 'date': 64, 'address': 194, 'total': 113, 'other': 2296}
Model summary:
===================================================================================================================
Layer (type:depth-idx)                   Input Shape               Output Shape              Param #
===================================================================================================================
ConfigurableGNN                          [174, 776]                [174, 5]                  --
├─ModuleList: 1-1                        --                        --                        --
│    └─GCNConv: 2-1                      [174, 776]                [174, 4096]               4,096
│    │    └─Linear: 3-1                  [174, 776]                [174, 4096]               3,178,496
│    │    └─SumAggregation: 3-2          [344, 4096]               [174, 4096]               --
│    └─GCNConv: 2-2                      [174, 4096]               [174, 4096]               4,096
│    │    └─Linear: 3-3                  [174, 4096]               [174, 4096]               16,777,216
│    │    └─SumAggregation: 3-4          [344, 4096]               [174, 4096]               --
│    └─GCNConv: 2-3                      [174, 4096]               [174, 4096]               4,096
│    │    └─Linear: 3-5                  [174, 4096]               [174, 4096]               16,777,216
│    │    └─SumAggregation: 3-6          [344, 4096]               [174, 4096]               --
├─ModuleList: 1-2                        --                        --                        --
│    └─GATConv: 2-4                      [174, 4096]               [174, 4096]               12,288
│    │    └─Linear: 3-7                  [174, 4096]               [174, 4096]               16,777,216
│    │    └─SumAggregation: 3-8          [344, 1, 4096]            [174, 1, 4096]            --
│    └─GATConv: 2-5                      [174, 4096]               [174, 4096]               12,288
│    │    └─Linear: 3-9                  [174, 4096]               [174, 4096]               16,777,216
│    │    └─SumAggregation: 3-10         [344, 1, 4096]            [174, 1, 4096]            --
│    └─GATConv: 2-6                      [174, 4096]               [174, 4096]               12,288
│    │    └─Linear: 3-11                 [174, 4096]               [174, 4096]               16,777,216
│    │    └─SumAggregation: 3-12         [344, 1, 4096]            [174, 1, 4096]            --
├─SpatialAttentionLayer: 1-3             [174, 4096]               [174, 4096]               --
│    └─Linear: 2-7                       [174, 4096]               [174, 4096]               16,781,312
│    └─Linear: 2-8                       [174, 4096]               [174, 4096]               16,781,312
│    └─Linear: 2-9                       [174, 4096]               [174, 4096]               16,781,312
├─Linear: 1-4                            [174, 4096]               [174, 5]                  20,485
===================================================================================================================
Total params: 137,478,149
Trainable params: 137,478,149
Non-trainable params: 0
Total mult-adds (Units.GIGABYTES): 23.91
===================================================================================================================
Input size (MB): 0.54
Forward/backward pass size (MB): 51.32
…
