Class counts: {'company': 648, 'date': 949, 'address': 449, 'total': 992, 'other': 12732}
Model summary:
===================================================================================================================
Layer (type:depth-idx)                   Input Shape               Output Shape              Param #
===================================================================================================================
ConfigurableGNN                          [136, 776]                [136, 5]                  --
├─ModuleList: 1-1                        --                        --                        --
│    └─GCNConv: 2-1                      [136, 776]                [136, 5000]               5,000
│    │    └─Linear: 3-1                  [136, 776]                [136, 5000]               3,880,000
│    │    └─SumAggregation: 3-2          [268, 5000]               [136, 5000]               --
│    └─GCNConv: 2-2                      [136, 5000]               [136, 5000]               5,000
│    │    └─Linear: 3-3                  [136, 5000]               [136, 5000]               25,000,000
│    │    └─SumAggregation: 3-4          [268, 5000]               [136, 5000]               --
│    └─GCNConv: 2-3                      [136, 5000]               [136, 5000]               5,000
│    │    └─Linear: 3-5                  [136, 5000]               [136, 5000]               25,000,000
│    │    └─SumAggregation: 3-6          [268, 5000]               [136, 5000]               --
├─ModuleList: 1-2                        --                        --                        --
│    └─GATConv: 2-4                      [136, 5000]               [136, 5000]               45,000
│    │    └─Linear: 3-7                  [136, 5000]               [136, 20000]              100,000,000
│    │    └─SumAggregation: 3-8          [268, 4, 5000]            [136, 4, 5000]            --
│    └─GATConv: 2-5                      [136, 5000]               [136, 5000]               45,000
│    │    └─Linear: 3-9                  [136, 5000]               [136, 20000]              100,000,000
│    │    └─SumAggregation: 3-10         [268, 4, 5000]            [136, 4, 5000]            --
│    └─GATConv: 2-6                      [136, 5000]               [136, 5000]               45,000
│    │    └─Linear: 3-11                 [136, 5000]               [136, 20000]              100,000,000
│    │    └─SumAggregation: 3-12         [268, 4, 5000]            [136, 4, 5000]            --
├─SpatialAttentionLayer: 1-3             [136, 5000]               [136, 5000]               --
│    └─Linear: 2-7                       [136, 5000]               [136, 5000]               25,005,000
│    └─Linear: 2-8                       [136, 5000]               [136, 5000]               25,005,000
│    └─Linear: 2-9                       [136, 5000]               [136, 5000]               25,005,000
├─Linear: 1-4                            [136, 5000]               [136, 5]                  25,005
===================================================================================================================
Total params: 429,070,005
Trainable params: 429,070,005
Non-trainable params: 0
Total mult-adds (Units.GIGABYTES): 58.33
===================================================================================================================
Input size (MB): 0.42
Forward/backward pass size (MB): 97.93
…
