Class counts: {'company': 530, 'date': 635, 'address': 1233, 'total': 1341, 'other': 24088}
Model summary:
===================================================================================================================
Layer (type:depth-idx)                   Input Shape               Output Shape              Param #
===================================================================================================================
ConfigurableGNN                          [288, 776]                [288, 5]                  --
├─ModuleList: 1-1                        --                        --                        --
│    └─GCNConv: 2-1                      [288, 776]                [288, 512]                512
│    │    └─Linear: 3-1                  [288, 776]                [288, 512]                397,312
│    │    └─SumAggregation: 3-2          [572, 512]                [288, 512]                --
│    └─GCNConv: 2-2                      [288, 512]                [288, 512]                512
│    │    └─Linear: 3-3                  [288, 512]                [288, 512]                262,144
│    │    └─SumAggregation: 3-4          [572, 512]                [288, 512]                --
│    └─GCNConv: 2-3                      [288, 512]                [288, 512]                512
│    │    └─Linear: 3-5                  [288, 512]                [288, 512]                262,144
│    │    └─SumAggregation: 3-6          [572, 512]                [288, 512]                --
├─ModuleList: 1-2                        --                        --                        --
│    └─GATConv: 2-4                      [288, 512]                [288, 512]                1,536
│    │    └─Linear: 3-7                  [288, 512]                [288, 512]                262,144
│    │    └─SumAggregation: 3-8          [572, 1, 512]             [288, 1, 512]             --
│    └─GATConv: 2-5                      [288, 512]                [288, 512]                1,536
│    │    └─Linear: 3-9                  [288, 512]                [288, 512]                262,144
│    │    └─SumAggregation: 3-10         [572, 1, 512]             [288, 1, 512]             --
│    └─GATConv: 2-6                      [288, 512]                [288, 512]                1,536
│    │    └─Linear: 3-11                 [288, 512]                [288, 512]                262,144
│    │    └─SumAggregation: 3-12         [572, 1, 512]             [288, 1, 512]             --
├─SpatialAttentionLayer: 1-3             [288, 512]                [288, 512]                --
│    └─Linear: 2-7                       [288, 512]                [288, 512]                262,656
│    └─Linear: 2-8                       [288, 512]                [288, 512]                262,656
│    └─Linear: 2-9                       [288, 512]                [288, 512]                262,656
├─Linear: 1-4                            [288, 512]                [288, 5]                  2,565
===================================================================================================================
Total params: 2,504,709
Trainable params: 2,504,709
Non-trainable params: 0
Total mult-adds (Units.MEGABYTES): 719.59
===================================================================================================================
Input size (MB): 0.90
Forward/backward pass size (MB): 10.63
…
