Class counts: {'company': 648, 'date': 949, 'address': 449, 'total': 992, 'other': 12732}
Model summary:
===================================================================================================================
Layer (type:depth-idx)                   Input Shape               Output Shape              Param #
===================================================================================================================
ConfigurableGNN                          [149, 776]                [149, 5]                  --
├─ModuleList: 1-1                        --                        --                        --
│    └─GCNConv: 2-1                      [149, 776]                [149, 8000]               8,000
│    │    └─Linear: 3-1                  [149, 776]                [149, 8000]               6,208,000
│    │    └─SumAggregation: 3-2          [294, 8000]               [149, 8000]               --
│    └─GCNConv: 2-2                      [149, 8000]               [149, 8000]               8,000
│    │    └─Linear: 3-3                  [149, 8000]               [149, 8000]               64,000,000
│    │    └─SumAggregation: 3-4          [294, 8000]               [149, 8000]               --
│    └─GCNConv: 2-3                      [149, 8000]               [149, 8000]               8,000
│    │    └─Linear: 3-5                  [149, 8000]               [149, 8000]               64,000,000
│    │    └─SumAggregation: 3-6          [294, 8000]               [149, 8000]               --
├─ModuleList: 1-2                        --                        --                        --
│    └─GATConv: 2-4                      [149, 8000]               [149, 8000]               40,000
│    │    └─Linear: 3-7                  [149, 8000]               [149, 16000]              128,000,000
│    │    └─SumAggregation: 3-8          [294, 2, 8000]            [149, 2, 8000]            --
│    └─GATConv: 2-5                      [149, 8000]               [149, 8000]               40,000
│    │    └─Linear: 3-9                  [149, 8000]               [149, 16000]              128,000,000
│    │    └─SumAggregation: 3-10         [294, 2, 8000]            [149, 2, 8000]            --
│    └─GATConv: 2-6                      [149, 8000]               [149, 8000]               40,000
│    │    └─Linear: 3-11                 [149, 8000]               [149, 16000]              128,000,000
│    │    └─SumAggregation: 3-12         [294, 2, 8000]            [149, 2, 8000]            --
├─Linear: 1-3                            [149, 8000]               [149, 5]                  40,005
===================================================================================================================
Total params: 518,392,005
Trainable params: 518,392,005
Non-trainable params: 0
Total mult-adds (Units.GIGABYTES): 77.22
===================================================================================================================
Input size (MB): 0.46
Forward/backward pass size (MB): 85.83
…
