Class counts: {'company': 530, 'date': 635, 'address': 1233, 'total': 1341, 'other': 24088}
Model summary:
===================================================================================================================
Layer (type:depth-idx)                   Input Shape               Output Shape              Param #
===================================================================================================================
ConfigurableGNN                          [217, 776]                [217, 5]                  --
├─ModuleList: 1-1                        --                        --                        --
│    └─GCNConv: 2-1                      [217, 776]                [217, 5000]               5,000
│    │    └─Linear: 3-1                  [217, 776]                [217, 5000]               3,880,000
│    │    └─SumAggregation: 3-2          [430, 5000]               [217, 5000]               --
│    └─GCNConv: 2-2                      [217, 5000]               [217, 5000]               5,000
│    │    └─Linear: 3-3                  [217, 5000]               [217, 5000]               25,000,000
│    │    └─SumAggregation: 3-4          [430, 5000]               [217, 5000]               --
│    └─GCNConv: 2-3                      [217, 5000]               [217, 5000]               5,000
│    │    └─Linear: 3-5                  [217, 5000]               [217, 5000]               25,000,000
│    │    └─SumAggregation: 3-6          [430, 5000]               [217, 5000]               --
├─ModuleList: 1-2                        --                        --                        --
│    └─GATConv: 2-4                      [217, 5000]               [217, 5000]               85,000
│    │    └─Linear: 3-7                  [217, 5000]               [217, 40000]              200,000,000
│    │    └─SumAggregation: 3-8          [430, 8, 5000]            [217, 8, 5000]            --
│    └─GATConv: 2-5                      [217, 5000]               [217, 5000]               85,000
│    │    └─Linear: 3-9                  [217, 5000]               [217, 40000]              200,000,000
│    │    └─SumAggregation: 3-10         [430, 8, 5000]            [217, 8, 5000]            --
│    └─GATConv: 2-6                      [217, 5000]               [217, 5000]               85,000
│    │    └─Linear: 3-11                 [217, 5000]               [217, 40000]              200,000,000
│    │    └─SumAggregation: 3-12         [430, 8, 5000]            [217, 8, 5000]            --
├─Linear: 1-3                            [217, 5000]               [217, 5]                  25,005
===================================================================================================================
Total params: 654,175,005
Trainable params: 654,175,005
Non-trainable params: 0
Total mult-adds (Units.GIGABYTES): 141.90
===================================================================================================================
Input size (MB): 0.68
Forward/backward pass size (MB): 234.37
…
