Class counts: {'company': 530, 'date': 635, 'address': 1233, 'total': 1341, 'other': 24088}
Model summary:
===================================================================================================================
Layer (type:depth-idx)                   Input Shape               Output Shape              Param #
===================================================================================================================
ConfigurableGNN                          [211, 776]                [211, 5]                  --
├─ModuleList: 1-1                        --                        --                        --
│    └─GCNConv: 2-1                      [211, 776]                [211, 768]                768
│    │    └─Linear: 3-1                  [211, 776]                [211, 768]                595,968
│    │    └─SumAggregation: 3-2          [418, 768]                [211, 768]                --
│    └─GCNConv: 2-2                      [211, 768]                [211, 768]                768
│    │    └─Linear: 3-3                  [211, 768]                [211, 768]                589,824
│    │    └─SumAggregation: 3-4          [418, 768]                [211, 768]                --
│    └─GCNConv: 2-3                      [211, 768]                [211, 768]                768
│    │    └─Linear: 3-5                  [211, 768]                [211, 768]                589,824
│    │    └─SumAggregation: 3-6          [418, 768]                [211, 768]                --
├─ModuleList: 1-2                        --                        --                        --
│    └─GATConv: 2-4                      [211, 768]                [211, 768]                2,304
│    │    └─Linear: 3-7                  [211, 768]                [211, 768]                589,824
│    │    └─SumAggregation: 3-8          [418, 1, 768]             [211, 1, 768]             --
│    └─GATConv: 2-5                      [211, 768]                [211, 768]                2,304
│    │    └─Linear: 3-9                  [211, 768]                [211, 768]                589,824
│    │    └─SumAggregation: 3-10         [418, 1, 768]             [211, 1, 768]             --
│    └─GATConv: 2-6                      [211, 768]                [211, 768]                2,304
│    │    └─Linear: 3-11                 [211, 768]                [211, 768]                589,824
│    │    └─SumAggregation: 3-12         [418, 1, 768]             [211, 1, 768]             --
├─SpatialAttentionLayer: 1-3             [211, 768]                [211, 768]                --
│    └─Linear: 2-7                       [211, 768]                [211, 768]                590,592
│    └─Linear: 2-8                       [211, 768]                [211, 768]                590,592
│    └─Linear: 2-9                       [211, 768]                [211, 768]                590,592
├─Linear: 1-4                            [211, 768]                [211, 5]                  3,845
===================================================================================================================
Total params: 5,329,925
Trainable params: 5,329,925
Non-trainable params: 0
Total mult-adds (Units.GIGABYTES): 1.12
===================================================================================================================
Input size (MB): 0.66
Forward/backward pass size (MB): 11.68
…
