Class counts: {'company': 648, 'date': 949, 'address': 449, 'total': 992, 'other': 12732}
Model summary:
===================================================================================================================
Layer (type:depth-idx)                   Input Shape               Output Shape              Param #
===================================================================================================================
ConfigurableGNN                          [139, 776]                [139, 5]                  --
├─ModuleList: 1-1                        --                        --                        --
│    └─GCNConv: 2-1                      [139, 776]                [139, 4096]               4,096
│    │    └─Linear: 3-1                  [139, 776]                [139, 4096]               3,178,496
│    │    └─SumAggregation: 3-2          [274, 4096]               [139, 4096]               --
│    └─GCNConv: 2-2                      [139, 4096]               [139, 4096]               4,096
│    │    └─Linear: 3-3                  [139, 4096]               [139, 4096]               16,777,216
│    │    └─SumAggregation: 3-4          [274, 4096]               [139, 4096]               --
│    └─GCNConv: 2-3                      [139, 4096]               [139, 4096]               4,096
│    │    └─Linear: 3-5                  [139, 4096]               [139, 4096]               16,777,216
│    │    └─SumAggregation: 3-6          [274, 4096]               [139, 4096]               --
├─ModuleList: 1-2                        --                        --                        --
│    └─GATConv: 2-4                      [139, 4096]               [139, 4096]               36,864
│    │    └─Linear: 3-7                  [139, 4096]               [139, 16384]              67,108,864
│    │    └─SumAggregation: 3-8          [274, 4, 4096]            [139, 4, 4096]            --
│    └─GATConv: 2-5                      [139, 4096]               [139, 4096]               36,864
│    │    └─Linear: 3-9                  [139, 4096]               [139, 16384]              67,108,864
│    │    └─SumAggregation: 3-10         [274, 4, 4096]            [139, 4, 4096]            --
│    └─GATConv: 2-6                      [139, 4096]               [139, 4096]               36,864
│    │    └─Linear: 3-11                 [139, 4096]               [139, 16384]              67,108,864
│    │    └─SumAggregation: 3-12         [274, 4, 4096]            [139, 4, 4096]            --
├─Linear: 1-3                            [139, 4096]               [139, 5]                  20,485
===================================================================================================================
Total params: 238,202,885
Trainable params: 238,202,885
Non-trainable params: 0
Total mult-adds (Units.GIGABYTES): 33.09
===================================================================================================================
Input size (MB): 0.43
Forward/backward pass size (MB): 68.33
…
