Class counts: {'company': 530, 'date': 635, 'address': 1233, 'total': 1341, 'other': 24088}
Model summary:
===================================================================================================================
Layer (type:depth-idx)                   Input Shape               Output Shape              Param #
===================================================================================================================
ConfigurableGNN                          [186, 776]                [186, 5]                  --
├─ModuleList: 1-1                        --                        --                        --
│    └─GCNConv: 2-1                      [186, 776]                [186, 256]                256
│    │    └─Linear: 3-1                  [186, 776]                [186, 256]                198,656
│    │    └─SumAggregation: 3-2          [368, 256]                [186, 256]                --
│    └─GCNConv: 2-2                      [186, 256]                [186, 256]                256
│    │    └─Linear: 3-3                  [186, 256]                [186, 256]                65,536
│    │    └─SumAggregation: 3-4          [368, 256]                [186, 256]                --
│    └─GCNConv: 2-3                      [186, 256]                [186, 256]                256
│    │    └─Linear: 3-5                  [186, 256]                [186, 256]                65,536
│    │    └─SumAggregation: 3-6          [368, 256]                [186, 256]                --
│    └─GCNConv: 2-4                      [186, 256]                [186, 256]                256
│    │    └─Linear: 3-7                  [186, 256]                [186, 256]                65,536
│    │    └─SumAggregation: 3-8          [368, 256]                [186, 256]                --
├─ModuleList: 1-2                        --                        --                        --
│    └─GATConv: 2-5                      [186, 256]                [186, 256]                768
│    │    └─Linear: 3-9                  [186, 256]                [186, 256]                65,536
│    │    └─SumAggregation: 3-10         [368, 1, 256]             [186, 1, 256]             --
│    └─GATConv: 2-6                      [186, 256]                [186, 256]                768
│    │    └─Linear: 3-11                 [186, 256]                [186, 256]                65,536
│    │    └─SumAggregation: 3-12         [368, 1, 256]             [186, 1, 256]             --
│    └─GATConv: 2-7                      [186, 256]                [186, 256]                768
│    │    └─Linear: 3-13                 [186, 256]                [186, 256]                65,536
│    │    └─SumAggregation: 3-14         [368, 1, 256]             [186, 1, 256]             --
│    └─GATConv: 2-8                      [186, 256]                [186, 256]                768
│    │    └─Linear: 3-15                 [186, 256]                [186, 256]                65,536
│    │    └─SumAggregation: 3-16         [368, 1, 256]             [186, 1, 256]             --
├─SpatialAttentionLayer: 1-3             [186, 256]                [186, 256]                --
│    └─Linear: 2-9                       [186, 256]                [186, 256]                65,792
│    └─Linear: 2-10                      [186, 256]                [186, 256]                65,792
│    └─Linear: 2-11                      [186, 256]                [186, 256]                65,792
├─Linear: 1-4                            [186, 256]                [186, 5]                  1,285
===================================================================================================================
Total params: 860,165
Trainable params: 860,165
Non-trainable params: 0
Total mult-adds (Units.MEGABYTES): 159.23
===================================================================================================================
Input size (MB): 0.58
Forward/backward pass size (MB): 4.20
…
