Class counts: {'company': 530, 'date': 635, 'address': 1233, 'total': 1341, 'other': 24088}
Model summary:
===================================================================================================================
Layer (type:depth-idx)                   Input Shape               Output Shape              Param #
===================================================================================================================
ConfigurableGNN                          [198, 776]                [198, 5]                  --
├─ModuleList: 1-1                        --                        --                        --
│    └─GCNConv: 2-1                      [198, 776]                [198, 4096]               4,096
│    │    └─Linear: 3-1                  [198, 776]                [198, 4096]               3,178,496
│    │    └─SumAggregation: 3-2          [392, 4096]               [198, 4096]               --
│    └─GCNConv: 2-2                      [198, 4096]               [198, 4096]               4,096
│    │    └─Linear: 3-3                  [198, 4096]               [198, 4096]               16,777,216
│    │    └─SumAggregation: 3-4          [392, 4096]               [198, 4096]               --
│    └─GCNConv: 2-3                      [198, 4096]               [198, 4096]               4,096
│    │    └─Linear: 3-5                  [198, 4096]               [198, 4096]               16,777,216
│    │    └─SumAggregation: 3-6          [392, 4096]               [198, 4096]               --
│    └─GCNConv: 2-4                      [198, 4096]               [198, 4096]               4,096
│    │    └─Linear: 3-7                  [198, 4096]               [198, 4096]               16,777,216
│    │    └─SumAggregation: 3-8          [392, 4096]               [198, 4096]               --
├─ModuleList: 1-2                        --                        --                        --
│    └─GATConv: 2-5                      [198, 4096]               [198, 4096]               12,288
│    │    └─Linear: 3-9                  [198, 4096]               [198, 4096]               16,777,216
│    │    └─SumAggregation: 3-10         [392, 1, 4096]            [198, 1, 4096]            --
│    └─GATConv: 2-6                      [198, 4096]               [198, 4096]               12,288
│    │    └─Linear: 3-11                 [198, 4096]               [198, 4096]               16,777,216
│    │    └─SumAggregation: 3-12         [392, 1, 4096]            [198, 1, 4096]            --
│    └─GATConv: 2-7                      [198, 4096]               [198, 4096]               12,288
│    │    └─Linear: 3-13                 [198, 4096]               [198, 4096]               16,777,216
│    │    └─SumAggregation: 3-14         [392, 1, 4096]            [198, 1, 4096]            --
│    └─GATConv: 2-8                      [198, 4096]               [198, 4096]               12,288
│    │    └─Linear: 3-15                 [198, 4096]               [198, 4096]               16,777,216
│    │    └─SumAggregation: 3-16         [392, 1, 4096]            [198, 1, 4096]            --
├─Linear: 1-3                            [198, 4096]               [198, 5]                  20,485
===================================================================================================================
Total params: 120,705,029
Trainable params: 120,705,029
Non-trainable params: 0
Total mult-adds (Units.GIGABYTES): 23.89
===================================================================================================================
Input size (MB): 0.62
Forward/backward pass size (MB): 51.91
…
