Class counts: {'company': 530, 'date': 635, 'address': 1233, 'total': 1341, 'other': 24088}
Model summary:
===================================================================================================================
Layer (type:depth-idx)                   Input Shape               Output Shape              Param #
===================================================================================================================
ConfigurableGNN                          [234, 776]                [234, 5]                  --
├─ModuleList: 1-1                        --                        --                        --
│    └─GCNConv: 2-1                      [234, 776]                [234, 5000]               5,000
│    │    └─Linear: 3-1                  [234, 776]                [234, 5000]               3,880,000
│    │    └─SumAggregation: 3-2          [464, 5000]               [234, 5000]               --
│    └─GCNConv: 2-2                      [234, 5000]               [234, 5000]               5,000
│    │    └─Linear: 3-3                  [234, 5000]               [234, 5000]               25,000,000
│    │    └─SumAggregation: 3-4          [464, 5000]               [234, 5000]               --
│    └─GCNConv: 2-3                      [234, 5000]               [234, 5000]               5,000
│    │    └─Linear: 3-5                  [234, 5000]               [234, 5000]               25,000,000
│    │    └─SumAggregation: 3-6          [464, 5000]               [234, 5000]               --
├─ModuleList: 1-2                        --                        --                        --
│    └─GATConv: 2-4                      [234, 5000]               [234, 5000]               125,000
│    │    └─Linear: 3-7                  [234, 5000]               [234, 60000]              300,000,000
│    │    └─SumAggregation: 3-8          [464, 12, 5000]           [234, 12, 5000]           --
│    └─GATConv: 2-5                      [234, 5000]               [234, 5000]               125,000
│    │    └─Linear: 3-9                  [234, 5000]               [234, 60000]              300,000,000
│    │    └─SumAggregation: 3-10         [464, 12, 5000]           [234, 12, 5000]           --
│    └─GATConv: 2-6                      [234, 5000]               [234, 5000]               125,000
│    │    └─Linear: 3-11                 [234, 5000]               [234, 60000]              300,000,000
│    │    └─SumAggregation: 3-12         [464, 12, 5000]           [234, 12, 5000]           --
├─Linear: 1-3                            [234, 5000]               [234, 5]                  25,005
===================================================================================================================
Total params: 954,295,005
Trainable params: 954,295,005
Non-trainable params: 0
Total mult-adds (Units.GIGABYTES): 223.21
===================================================================================================================
Input size (MB): 0.73
Forward/backward pass size (MB): 365.05
…
