Class counts: {'company': 530, 'date': 635, 'address': 1233, 'total': 1341, 'other': 24088}
Model summary:
===================================================================================================================
Layer (type:depth-idx)                   Input Shape               Output Shape              Param #
===================================================================================================================
ConfigurableGNN                          [273, 776]                [273, 5]                  --
├─ModuleList: 1-1                        --                        --                        --
│    └─GCNConv: 2-1                      [273, 776]                [273, 7000]               7,000
│    │    └─Linear: 3-1                  [273, 776]                [273, 7000]               5,432,000
│    │    └─SumAggregation: 3-2          [542, 7000]               [273, 7000]               --
│    └─GCNConv: 2-2                      [273, 7000]               [273, 7000]               7,000
│    │    └─Linear: 3-3                  [273, 7000]               [273, 7000]               49,000,000
│    │    └─SumAggregation: 3-4          [542, 7000]               [273, 7000]               --
│    └─GCNConv: 2-3                      [273, 7000]               [273, 7000]               7,000
│    │    └─Linear: 3-5                  [273, 7000]               [273, 7000]               49,000,000
│    │    └─SumAggregation: 3-6          [542, 7000]               [273, 7000]               --
├─ModuleList: 1-2                        --                        --                        --
│    └─GATConv: 2-4                      [273, 7000]               [273, 7000]               21,000
│    │    └─Linear: 3-7                  [273, 7000]               [273, 7000]               49,000,000
│    │    └─SumAggregation: 3-8          [542, 1, 7000]            [273, 1, 7000]            --
│    └─GATConv: 2-5                      [273, 7000]               [273, 7000]               21,000
│    │    └─Linear: 3-9                  [273, 7000]               [273, 7000]               49,000,000
│    │    └─SumAggregation: 3-10         [542, 1, 7000]            [273, 1, 7000]            --
│    └─GATConv: 2-6                      [273, 7000]               [273, 7000]               21,000
│    │    └─Linear: 3-11                 [273, 7000]               [273, 7000]               49,000,000
│    │    └─SumAggregation: 3-12         [542, 1, 7000]            [273, 1, 7000]            --
├─SpatialAttentionLayer: 1-3             [273, 7000]               [273, 7000]               --
│    └─Linear: 2-7                       [273, 7000]               [273, 7000]               49,007,000
│    └─Linear: 2-8                       [273, 7000]               [273, 7000]               49,007,000
│    └─Linear: 2-9                       [273, 7000]               [273, 7000]               49,007,000
├─Linear: 1-4                            [273, 7000]               [273, 5]                  35,005
===================================================================================================================
Total params: 397,572,005
Trainable params: 397,572,005
Non-trainable params: 0
Total mult-adds (Units.GIGABYTES): 108.51
===================================================================================================================
Input size (MB): 0.85
Forward/backward pass size (MB): 137.60
…
