Class counts: {'company': 530, 'date': 635, 'address': 1233, 'total': 1341, 'other': 24088}
Model summary:
===================================================================================================================
Layer (type:depth-idx)                   Input Shape               Output Shape              Param #
===================================================================================================================
ConfigurableGNN                          [205, 776]                [205, 5]                  --
├─ModuleList: 1-1                        --                        --                        --
│    └─GCNConv: 2-1                      [205, 776]                [205, 4096]               4,096
│    │    └─Linear: 3-1                  [205, 776]                [205, 4096]               3,178,496
│    │    └─SumAggregation: 3-2          [406, 4096]               [205, 4096]               --
│    └─GCNConv: 2-2                      [205, 4096]               [205, 4096]               4,096
│    │    └─Linear: 3-3                  [205, 4096]               [205, 4096]               16,777,216
│    │    └─SumAggregation: 3-4          [406, 4096]               [205, 4096]               --
│    └─GCNConv: 2-3                      [205, 4096]               [205, 4096]               4,096
│    │    └─Linear: 3-5                  [205, 4096]               [205, 4096]               16,777,216
│    │    └─SumAggregation: 3-6          [406, 4096]               [205, 4096]               --
├─ModuleList: 1-2                        --                        --                        --
│    └─GATConv: 2-4                      [205, 4096]               [205, 4096]               12,288
│    │    └─Linear: 3-7                  [205, 4096]               [205, 4096]               16,777,216
│    │    └─SumAggregation: 3-8          [406, 1, 4096]            [205, 1, 4096]            --
│    └─GATConv: 2-5                      [205, 4096]               [205, 4096]               12,288
│    │    └─Linear: 3-9                  [205, 4096]               [205, 4096]               16,777,216
│    │    └─SumAggregation: 3-10         [406, 1, 4096]            [205, 1, 4096]            --
│    └─GATConv: 2-6                      [205, 4096]               [205, 4096]               12,288
│    │    └─Linear: 3-11                 [205, 4096]               [205, 4096]               16,777,216
│    │    └─SumAggregation: 3-12         [406, 1, 4096]            [205, 1, 4096]            --
├─SpatialAttentionLayer: 1-3             [205, 4096]               [205, 4096]               --
│    └─Linear: 2-7                       [205, 4096]               [205, 4096]               16,781,312
│    └─Linear: 2-8                       [205, 4096]               [205, 4096]               16,781,312
│    └─Linear: 2-9                       [205, 4096]               [205, 4096]               16,781,312
├─Linear: 1-4                            [205, 4096]               [205, 5]                  20,485
===================================================================================================================
Total params: 137,478,149
Trainable params: 137,478,149
Non-trainable params: 0
Total mult-adds (Units.GIGABYTES): 28.17
===================================================================================================================
Input size (MB): 0.64
Forward/backward pass size (MB): 60.47
…
