Class counts: {'company': 530, 'date': 635, 'address': 1233, 'total': 1341, 'other': 24088}
Model summary:
===================================================================================================================
Layer (type:depth-idx)                   Input Shape               Output Shape              Param #
===================================================================================================================
ConfigurableGNN                          [194, 776]                [194, 5]                  --
├─ModuleList: 1-1                        --                        --                        --
│    └─GCNConv: 2-1                      [194, 776]                [194, 5000]               5,000
│    │    └─Linear: 3-1                  [194, 776]                [194, 5000]               3,880,000
│    │    └─SumAggregation: 3-2          [384, 5000]               [194, 5000]               --
│    └─GCNConv: 2-2                      [194, 5000]               [194, 5000]               5,000
│    │    └─Linear: 3-3                  [194, 5000]               [194, 5000]               25,000,000
│    │    └─SumAggregation: 3-4          [384, 5000]               [194, 5000]               --
│    └─GCNConv: 2-3                      [194, 5000]               [194, 5000]               5,000
│    │    └─Linear: 3-5                  [194, 5000]               [194, 5000]               25,000,000
│    │    └─SumAggregation: 3-6          [384, 5000]               [194, 5000]               --
├─ModuleList: 1-2                        --                        --                        --
│    └─GATConv: 2-4                      [194, 5000]               [194, 5000]               65,000
│    │    └─Linear: 3-7                  [194, 5000]               [194, 30000]              150,000,000
│    │    └─SumAggregation: 3-8          [384, 6, 5000]            [194, 6, 5000]            --
│    └─GATConv: 2-5                      [194, 5000]               [194, 5000]               65,000
│    │    └─Linear: 3-9                  [194, 5000]               [194, 30000]              150,000,000
│    │    └─SumAggregation: 3-10         [384, 6, 5000]            [194, 6, 5000]            --
│    └─GATConv: 2-6                      [194, 5000]               [194, 5000]               65,000
│    │    └─Linear: 3-11                 [194, 5000]               [194, 30000]              150,000,000
│    │    └─SumAggregation: 3-12         [384, 6, 5000]            [194, 6, 5000]            --
├─Linear: 1-3                            [194, 5000]               [194, 5]                  25,005
===================================================================================================================
Total params: 504,115,005
Trainable params: 504,115,005
Non-trainable params: 0
Total mult-adds (Units.GIGABYTES): 97.76
===================================================================================================================
Input size (MB): 0.61
Forward/backward pass size (MB): 162.97
…
