Class counts: {'company': 530, 'date': 635, 'address': 1233, 'total': 1341, 'other': 24088}
Model summary:
===================================================================================================================
Layer (type:depth-idx)                   Input Shape               Output Shape              Param #
===================================================================================================================
ConfigurableGNN                          [242, 776]                [242, 5]                  --
├─ModuleList: 1-1                        --                        --                        --
│    └─GCNConv: 2-1                      [242, 776]                [242, 1000]               1,000
│    │    └─Linear: 3-1                  [242, 776]                [242, 1000]               776,000
│    │    └─SumAggregation: 3-2          [480, 1000]               [242, 1000]               --
│    └─GCNConv: 2-2                      [242, 1000]               [242, 1000]               1,000
│    │    └─Linear: 3-3                  [242, 1000]               [242, 1000]               1,000,000
│    │    └─SumAggregation: 3-4          [480, 1000]               [242, 1000]               --
│    └─GCNConv: 2-3                      [242, 1000]               [242, 1000]               1,000
│    │    └─Linear: 3-5                  [242, 1000]               [242, 1000]               1,000,000
│    │    └─SumAggregation: 3-6          [480, 1000]               [242, 1000]               --
│    └─GCNConv: 2-4                      [242, 1000]               [242, 1000]               1,000
│    │    └─Linear: 3-7                  [242, 1000]               [242, 1000]               1,000,000
│    │    └─SumAggregation: 3-8          [480, 1000]               [242, 1000]               --
│    └─GCNConv: 2-5                      [242, 1000]               [242, 1000]               1,000
│    │    └─Linear: 3-9                  [242, 1000]               [242, 1000]               1,000,000
│    │    └─SumAggregation: 3-10         [480, 1000]               [242, 1000]               --
├─ModuleList: 1-2                        --                        --                        --
│    └─GATConv: 2-6                      [242, 1000]               [242, 1000]               3,000
│    │    └─Linear: 3-11                 [242, 1000]               [242, 1000]               1,000,000
│    │    └─SumAggregation: 3-12         [480, 1, 1000]            [242, 1, 1000]            --
│    └─GATConv: 2-7                      [242, 1000]               [242, 1000]               3,000
│    │    └─Linear: 3-13                 [242, 1000]               [242, 1000]               1,000,000
│    │    └─SumAggregation: 3-14         [480, 1, 1000]            [242, 1, 1000]            --
│    └─GATConv: 2-8                      [242, 1000]               [242, 1000]               3,000
│    │    └─Linear: 3-15                 [242, 1000]               [242, 1000]               1,000,000
│    │    └─SumAggregation: 3-16         [480, 1, 1000]            [242, 1, 1000]            --
│    └─GATConv: 2-9                      [242, 1000]               [242, 1000]               3,000
│    │    └─Linear: 3-17                 [242, 1000]               [242, 1000]               1,000,000
│    │    └─SumAggregation: 3-18         [480, 1, 1000]            [242, 1, 1000]            --
│    └─GATConv: 2-10                     [242, 1000]               [242, 1000]               3,000
│    │    └─Linear: 3-19                 [242, 1000]               [242, 1000]               1,000,000
│    │    └─SumAggregation: 3-20         [480, 1, 1000]            [242, 1, 1000]            --
├─SpatialAttentionLayer: 1-3             [242, 1000]               [242, 1000]               --
│    └─Linear: 2-11                      [242, 1000]               [242, 1000]               1,001,000
│    └─Linear: 2-12                      [242, 1000]               [242, 1000]               1,001,000
│    └─Linear: 2-13                      [242, 1000]               [242, 1000]               1,001,000
├─Linear: 1-4                            [242, 1000]               [242, 5]                  5,005
===================================================================================================================
Total params: 12,804,005
Trainable params: 12,804,005
Non-trainable params: 0
Total mult-adds (Units.GIGABYTES): 3.09
===================================================================================================================
Input size (MB): 0.76
Forward/backward pass size (MB): 25.18
…
