Class counts: {'company': 648, 'date': 949, 'address': 449, 'total': 992, 'other': 12732}
Model summary:
===================================================================================================================
Layer (type:depth-idx)                   Input Shape               Output Shape              Param #
===================================================================================================================
ConfigurableGNN                          [198, 776]                [198, 5]                  --
├─ModuleList: 1-1                        --                        --                        --
│    └─GCNConv: 2-1                      [198, 776]                [198, 7000]               7,000
│    │    └─Linear: 3-1                  [198, 776]                [198, 7000]               5,432,000
│    │    └─SumAggregation: 3-2          [392, 7000]               [198, 7000]               --
│    └─GCNConv: 2-2                      [198, 7000]               [198, 7000]               7,000
│    │    └─Linear: 3-3                  [198, 7000]               [198, 7000]               49,000,000
│    │    └─SumAggregation: 3-4          [392, 7000]               [198, 7000]               --
│    └─GCNConv: 2-3                      [198, 7000]               [198, 7000]               7,000
│    │    └─Linear: 3-5                  [198, 7000]               [198, 7000]               49,000,000
│    │    └─SumAggregation: 3-6          [392, 7000]               [198, 7000]               --
├─ModuleList: 1-2                        --                        --                        --
│    └─GATConv: 2-4                      [198, 7000]               [198, 7000]               35,000
│    │    └─Linear: 3-7                  [198, 7000]               [198, 14000]              98,000,000
│    │    └─SumAggregation: 3-8          [392, 2, 7000]            [198, 2, 7000]            --
│    └─GATConv: 2-5                      [198, 7000]               [198, 7000]               35,000
│    │    └─Linear: 3-9                  [198, 7000]               [198, 14000]              98,000,000
│    │    └─SumAggregation: 3-10         [392, 2, 7000]            [198, 2, 7000]            --
│    └─GATConv: 2-6                      [198, 7000]               [198, 7000]               35,000
│    │    └─Linear: 3-11                 [198, 7000]               [198, 14000]              98,000,000
│    │    └─SumAggregation: 3-12         [392, 2, 7000]            [198, 2, 7000]            --
├─Linear: 1-3                            [198, 7000]               [198, 5]                  35,005
===================================================================================================================
Total params: 397,593,005
Trainable params: 397,593,005
Non-trainable params: 0
Total mult-adds (Units.GIGABYTES): 78.70
===================================================================================================================
Input size (MB): 0.62
Forward/backward pass size (MB): 99.80
…
