Class counts: {'company': 648, 'date': 949, 'address': 449, 'total': 992, 'other': 12732}
Model summary:
===================================================================================================================
Layer (type:depth-idx)                   Input Shape               Output Shape              Param #
===================================================================================================================
ConfigurableGNN                          [178, 776]                [178, 5]                  --
├─ModuleList: 1-1                        --                        --                        --
│    └─GCNConv: 2-1                      [178, 776]                [178, 5000]               5,000
│    │    └─Linear: 3-1                  [178, 776]                [178, 5000]               3,880,000
│    │    └─SumAggregation: 3-2          [352, 5000]               [178, 5000]               --
│    └─GCNConv: 2-2                      [178, 5000]               [178, 5000]               5,000
│    │    └─Linear: 3-3                  [178, 5000]               [178, 5000]               25,000,000
│    │    └─SumAggregation: 3-4          [352, 5000]               [178, 5000]               --
│    └─GCNConv: 2-3                      [178, 5000]               [178, 5000]               5,000
│    │    └─Linear: 3-5                  [178, 5000]               [178, 5000]               25,000,000
│    │    └─SumAggregation: 3-6          [352, 5000]               [178, 5000]               --
├─ModuleList: 1-2                        --                        --                        --
│    └─GATConv: 2-4                      [178, 5000]               [178, 5000]               45,000
│    │    └─Linear: 3-7                  [178, 5000]               [178, 20000]              100,000,000
│    │    └─SumAggregation: 3-8          [352, 4, 5000]            [178, 4, 5000]            --
│    └─GATConv: 2-5                      [178, 5000]               [178, 5000]               45,000
│    │    └─Linear: 3-9                  [178, 5000]               [178, 20000]              100,000,000
│    │    └─SumAggregation: 3-10         [352, 4, 5000]            [178, 4, 5000]            --
│    └─GATConv: 2-6                      [178, 5000]               [178, 5000]               45,000
│    │    └─Linear: 3-11                 [178, 5000]               [178, 20000]              100,000,000
│    │    └─SumAggregation: 3-12         [352, 4, 5000]            [178, 4, 5000]            --
├─SpatialAttentionLayer: 1-3             [178, 5000]               [178, 5000]               --
│    └─Linear: 2-7                       [178, 5000]               [178, 5000]               25,005,000
│    └─Linear: 2-8                       [178, 5000]               [178, 5000]               25,005,000
│    └─Linear: 2-9                       [178, 5000]               [178, 5000]               25,005,000
├─Linear: 1-4                            [178, 5000]               [178, 5]                  25,005
===================================================================================================================
Total params: 429,070,005
Trainable params: 429,070,005
Non-trainable params: 0
Total mult-adds (Units.GIGABYTES): 76.35
===================================================================================================================
Input size (MB): 0.56
Forward/backward pass size (MB): 128.17
…
