===================================================================================================================
Layer (type:depth-idx)                   Input Shape               Output Shape              Param #
===================================================================================================================
ConfigurableGNN                          [4, 776]                  [4, 5]                    --
├─ModuleList: 1-1                        --                        --                        --
│    └─GCNConv: 2-1                      [4, 776]                  [4, 512]                  512
│    │    └─Linear: 3-1                  [4, 776]                  [4, 512]                  397,312
│    │    └─SumAggregation: 3-2          [8, 512]                  [4, 512]                  --
│    └─GCNConv: 2-2                      [4, 512]                  [4, 512]                  512
│    │    └─Linear: 3-3                  [4, 512]                  [4, 512]                  262,144
│    │    └─SumAggregation: 3-4          [8, 512]                  [4, 512]                  --
│    └─GCNConv: 2-3                      [4, 512]                  [4, 512]                  512
│    │    └─Linear: 3-5                  [4, 512]                  [4, 512]                  262,144
│    │    └─SumAggregation: 3-6          [8, 512]                  [4, 512]                  --
│    └─GCNConv: 2-4                      [4, 512]                  [4, 512]                  512
│    │    └─Linear: 3-7                  [4, 512]                  [4, 512]                  262,144
│    │    └─SumAggregation: 3-8          [8, 512]                  [4, 512]                  --
├─ModuleList: 1-2                        --                        --                        --
│    └─GATConv: 2-5                      [4, 512]                  [4, 512]                  1,536
│    │    └─Linear: 3-9                  [4, 512]                  [4, 512]                  262,144
│    │    └─SumAggregation: 3-10         [8, 1, 512]               [4, 1, 512]               --
│    └─GATConv: 2-6                      [4, 512]                  [4, 512]                  1,536
│    │    └─Linear: 3-11                 [4, 512]                  [4, 512]                  262,144
│    │    └─SumAggregation: 3-12         [8, 1, 512]               [4, 1, 512]               --
│    └─GATConv: 2-7                      [4, 512]                  [4, 512]                  1,536
│    │    └─Linear: 3-13                 [4, 512]                  [4, 512]                  262,144
│    │    └─SumAggregation: 3-14         [8, 1, 512]               [4, 1, 512]               --
│    └─GATConv: 2-8                      [4, 512]                  [4, 512]                  1,536
│    │    └─Linear: 3-15                 [4, 512]                  [4, 512]                  262,144
│    │    └─SumAggregation: 3-16         [8, 1, 512]               [4, 1, 512]               --
├─SpatialAttentionLayer: 1-3             [4, 512]                  [4, 512]                  --
│    └─Linear: 2-9                       [4, 512]                  [4, 512]                  262,656
│    └─Linear: 2-10                      [4, 512]                  [4, 512]                  262,656
│    └─Linear: 2-11                      [4, 512]                  [4, 512]                  262,656
├─Linear: 1-4                            [4, 512]                  [4, 5]                    2,565
===================================================================================================================
Total params: 3,031,045
Trainable params: 3,031,045
Non-trainable params: 0
Total mult-adds (Units.MEGABYTES): 12.09
===================================================================================================================
Input size (MB): 0.01
Forward/backward pass size (MB): 0.18
…
