Class counts: {'company': 530, 'date': 635, 'address': 1233, 'total': 1341, 'other': 24088}
Model summary:
===================================================================================================================
Layer (type:depth-idx)                   Input Shape               Output Shape              Param #
===================================================================================================================
ConfigurableGNN                          [198, 776]                [198, 5]                  --
├─ModuleList: 1-1                        --                        --                        --
│    └─GCNConv: 2-1                      [198, 776]                [198, 512]                512
│    │    └─Linear: 3-1                  [198, 776]                [198, 512]                397,312
│    │    └─SumAggregation: 3-2          [392, 512]                [198, 512]                --
│    └─GCNConv: 2-2                      [198, 512]                [198, 512]                512
│    │    └─Linear: 3-3                  [198, 512]                [198, 512]                262,144
│    │    └─SumAggregation: 3-4          [392, 512]                [198, 512]                --
│    └─GCNConv: 2-3                      [198, 512]                [198, 512]                512
│    │    └─Linear: 3-5                  [198, 512]                [198, 512]                262,144
│    │    └─SumAggregation: 3-6          [392, 512]                [198, 512]                --
├─ModuleList: 1-2                        --                        --                        --
│    └─GATConv: 2-4                      [198, 512]                [198, 512]                1,536
│    │    └─Linear: 3-7                  [198, 512]                [198, 512]                262,144
│    │    └─SumAggregation: 3-8          [392, 1, 512]             [198, 1, 512]             --
│    └─GATConv: 2-5                      [198, 512]                [198, 512]                1,536
│    │    └─Linear: 3-9                  [198, 512]                [198, 512]                262,144
│    │    └─SumAggregation: 3-10         [392, 1, 512]             [198, 1, 512]             --
│    └─GATConv: 2-6                      [198, 512]                [198, 512]                1,536
│    │    └─Linear: 3-11                 [198, 512]                [198, 512]                262,144
│    │    └─SumAggregation: 3-12         [392, 1, 512]             [198, 1, 512]             --
├─SpatialAttentionLayer: 1-3             [198, 512]                [198, 512]                --
│    └─Linear: 2-7                       [198, 512]                [198, 512]                262,656
│    └─Linear: 2-8                       [198, 512]                [198, 512]                262,656
│    └─Linear: 2-9                       [198, 512]                [198, 512]                262,656
├─Linear: 1-4                            [198, 512]                [198, 5]                  2,565
===================================================================================================================
Total params: 2,504,709
Trainable params: 2,504,709
Non-trainable params: 0
Total mult-adds (Units.MEGABYTES): 494.72
===================================================================================================================
Input size (MB): 0.62
Forward/backward pass size (MB): 7.31
…
