Class counts: {'company': 648, 'date': 949, 'address': 449, 'total': 992, 'other': 12732}
Model summary:
===================================================================================================================
Layer (type:depth-idx)                   Input Shape               Output Shape              Param #
===================================================================================================================
ConfigurableGNN                          [207, 776]                [207, 5]                  --
├─ModuleList: 1-1                        --                        --                        --
│    └─GCNConv: 2-1                      [207, 776]                [207, 8000]               8,000
│    │    └─Linear: 3-1                  [207, 776]                [207, 8000]               6,208,000
│    │    └─SumAggregation: 3-2          [410, 8000]               [207, 8000]               --
│    └─GCNConv: 2-2                      [207, 8000]               [207, 8000]               8,000
│    │    └─Linear: 3-3                  [207, 8000]               [207, 8000]               64,000,000
│    │    └─SumAggregation: 3-4          [410, 8000]               [207, 8000]               --
│    └─GCNConv: 2-3                      [207, 8000]               [207, 8000]               8,000
│    │    └─Linear: 3-5                  [207, 8000]               [207, 8000]               64,000,000
│    │    └─SumAggregation: 3-6          [410, 8000]               [207, 8000]               --
├─ModuleList: 1-2                        --                        --                        --
│    └─GATConv: 2-4                      [207, 8000]               [207, 8000]               72,000
│    │    └─Linear: 3-7                  [207, 8000]               [207, 32000]              256,000,000
│    │    └─SumAggregation: 3-8          [410, 4, 8000]            [207, 4, 8000]            --
│    └─GATConv: 2-5                      [207, 8000]               [207, 8000]               72,000
│    │    └─Linear: 3-9                  [207, 8000]               [207, 32000]              256,000,000
│    │    └─SumAggregation: 3-10         [410, 4, 8000]            [207, 4, 8000]            --
│    └─GATConv: 2-6                      [207, 8000]               [207, 8000]               72,000
│    │    └─Linear: 3-11                 [207, 8000]               [207, 32000]              256,000,000
│    │    └─SumAggregation: 3-12         [410, 4, 8000]            [207, 4, 8000]            --
├─Linear: 1-3                            [207, 8000]               [207, 5]                  40,005
===================================================================================================================
Total params: 902,488,005
Trainable params: 902,488,005
Non-trainable params: 0
Total mult-adds (Units.GIGABYTES): 186.77
===================================================================================================================
Input size (MB): 0.65
Forward/backward pass size (MB): 198.73
…
