Class counts: {'company': 530, 'date': 635, 'address': 1233, 'total': 1341, 'other': 24088}
Model summary:
===================================================================================================================
Layer (type:depth-idx)                   Input Shape               Output Shape              Param #
===================================================================================================================
ConfigurableGNN                          [229, 776]                [229, 5]                  --
├─ModuleList: 1-1                        --                        --                        --
│    └─GCNConv: 2-1                      [229, 776]                [229, 5000]               5,000
│    │    └─Linear: 3-1                  [229, 776]                [229, 5000]               3,880,000
│    │    └─SumAggregation: 3-2          [454, 5000]               [229, 5000]               --
│    └─GCNConv: 2-2                      [229, 5000]               [229, 5000]               5,000
│    │    └─Linear: 3-3                  [229, 5000]               [229, 5000]               25,000,000
│    │    └─SumAggregation: 3-4          [454, 5000]               [229, 5000]               --
│    └─GCNConv: 2-3                      [229, 5000]               [229, 5000]               5,000
│    │    └─Linear: 3-5                  [229, 5000]               [229, 5000]               25,000,000
│    │    └─SumAggregation: 3-6          [454, 5000]               [229, 5000]               --
├─ModuleList: 1-2                        --                        --                        --
│    └─GATConv: 2-4                      [229, 5000]               [229, 5000]               85,000
│    │    └─Linear: 3-7                  [229, 5000]               [229, 40000]              200,000,000
│    │    └─SumAggregation: 3-8          [454, 8, 5000]            [229, 8, 5000]            --
│    └─GATConv: 2-5                      [229, 5000]               [229, 5000]               85,000
│    │    └─Linear: 3-9                  [229, 5000]               [229, 40000]              200,000,000
│    │    └─SumAggregation: 3-10         [454, 8, 5000]            [229, 8, 5000]            --
│    └─GATConv: 2-6                      [229, 5000]               [229, 5000]               85,000
│    │    └─Linear: 3-11                 [229, 5000]               [229, 40000]              200,000,000
│    │    └─SumAggregation: 3-12         [454, 8, 5000]            [229, 8, 5000]            --
├─Linear: 1-3                            [229, 5000]               [229, 5]                  25,005
===================================================================================================================
Total params: 654,175,005
Trainable params: 654,175,005
Non-trainable params: 0
Total mult-adds (Units.GIGABYTES): 149.74
===================================================================================================================
Input size (MB): 0.71
Forward/backward pass size (MB): 247.33
…
