Class counts: {'company': 648, 'date': 949, 'address': 449, 'total': 992, 'other': 12732}
Model summary:
===================================================================================================================
Layer (type:depth-idx)                   Input Shape               Output Shape              Param #
===================================================================================================================
ConfigurableGNN                          [143, 776]                [143, 5]                  --
├─ModuleList: 1-1                        --                        --                        --
│    └─GCNConv: 2-1                      [143, 776]                [143, 4000]               4,000
│    │    └─Linear: 3-1                  [143, 776]                [143, 4000]               3,104,000
│    │    └─SumAggregation: 3-2          [282, 4000]               [143, 4000]               --
│    └─GCNConv: 2-2                      [143, 4000]               [143, 4000]               4,000
│    │    └─Linear: 3-3                  [143, 4000]               [143, 4000]               16,000,000
│    │    └─SumAggregation: 3-4          [282, 4000]               [143, 4000]               --
│    └─GCNConv: 2-3                      [143, 4000]               [143, 4000]               4,000
│    │    └─Linear: 3-5                  [143, 4000]               [143, 4000]               16,000,000
│    │    └─SumAggregation: 3-6          [282, 4000]               [143, 4000]               --
│    └─GCNConv: 2-4                      [143, 4000]               [143, 4000]               4,000
│    │    └─Linear: 3-7                  [143, 4000]               [143, 4000]               16,000,000
│    │    └─SumAggregation: 3-8          [282, 4000]               [143, 4000]               --
├─ModuleList: 1-2                        --                        --                        --
│    └─GATConv: 2-5                      [143, 4000]               [143, 4000]               36,000
│    │    └─Linear: 3-9                  [143, 4000]               [143, 16000]              64,000,000
│    │    └─SumAggregation: 3-10         [282, 4, 4000]            [143, 4, 4000]            --
│    └─GATConv: 2-6                      [143, 4000]               [143, 4000]               36,000
│    │    └─Linear: 3-11                 [143, 4000]               [143, 16000]              64,000,000
│    │    └─SumAggregation: 3-12         [282, 4, 4000]            [143, 4, 4000]            --
│    └─GATConv: 2-7                      [143, 4000]               [143, 4000]               36,000
│    │    └─Linear: 3-13                 [143, 4000]               [143, 16000]              64,000,000
│    │    └─SumAggregation: 3-14         [282, 4, 4000]            [143, 4, 4000]            --
│    └─GATConv: 2-8                      [143, 4000]               [143, 4000]               36,000
│    │    └─Linear: 3-15                 [143, 4000]               [143, 16000]              64,000,000
│    │    └─SumAggregation: 3-16         [282, 4, 4000]            [143, 4, 4000]            --
├─Linear: 1-3                            [143, 4000]               [143, 5]                  20,005
===================================================================================================================
Total params: 307,284,005
Trainable params: 307,284,005
Non-trainable params: 0
Total mult-adds (Units.GIGABYTES): 43.92
===================================================================================================================
Input size (MB): 0.45
Forward/backward pass size (MB): 91.53
…
