Class counts: {'company': 648, 'date': 949, 'address': 449, 'total': 992, 'other': 12732}
Model summary:
===================================================================================================================
Layer (type:depth-idx)                   Input Shape               Output Shape              Param #
===================================================================================================================
ConfigurableGNN                          [183, 776]                [183, 5]                  --
├─ModuleList: 1-1                        --                        --                        --
│    └─GCNConv: 2-1                      [183, 776]                [183, 8000]               8,000
│    │    └─Linear: 3-1                  [183, 776]                [183, 8000]               6,208,000
│    │    └─SumAggregation: 3-2          [362, 8000]               [183, 8000]               --
│    └─GCNConv: 2-2                      [183, 8000]               [183, 8000]               8,000
│    │    └─Linear: 3-3                  [183, 8000]               [183, 8000]               64,000,000
│    │    └─SumAggregation: 3-4          [362, 8000]               [183, 8000]               --
│    └─GCNConv: 2-3                      [183, 8000]               [183, 8000]               8,000
│    │    └─Linear: 3-5                  [183, 8000]               [183, 8000]               64,000,000
│    │    └─SumAggregation: 3-6          [362, 8000]               [183, 8000]               --
├─ModuleList: 1-2                        --                        --                        --
│    └─GATConv: 2-4                      [183, 8000]               [183, 8000]               72,000
│    │    └─Linear: 3-7                  [183, 8000]               [183, 32000]              256,000,000
│    │    └─SumAggregation: 3-8          [362, 4, 8000]            [183, 4, 8000]            --
│    └─GATConv: 2-5                      [183, 8000]               [183, 8000]               72,000
│    │    └─Linear: 3-9                  [183, 8000]               [183, 32000]              256,000,000
│    │    └─SumAggregation: 3-10         [362, 4, 8000]            [183, 4, 8000]            --
│    └─GATConv: 2-6                      [183, 8000]               [183, 8000]               72,000
│    │    └─Linear: 3-11                 [183, 8000]               [183, 32000]              256,000,000
│    │    └─SumAggregation: 3-12         [362, 4, 8000]            [183, 4, 8000]            --
├─Linear: 1-3                            [183, 8000]               [183, 5]                  40,005
===================================================================================================================
Total params: 902,488,005
Trainable params: 902,488,005
Non-trainable params: 0
Total mult-adds (Units.GIGABYTES): 165.11
===================================================================================================================
Input size (MB): 0.57
Forward/backward pass size (MB): 175.69
…
