Class counts: {'company': 530, 'date': 635, 'address': 1233, 'total': 1341, 'other': 24088}
Model summary:
===================================================================================================================
Layer (type:depth-idx)                   Input Shape               Output Shape              Param #
===================================================================================================================
ConfigurableGNN                          [199, 776]                [199, 5]                  --
├─ModuleList: 1-1                        --                        --                        --
│    └─GCNConv: 2-1                      [199, 776]                [199, 4096]               4,096
│    │    └─Linear: 3-1                  [199, 776]                [199, 4096]               3,178,496
│    │    └─SumAggregation: 3-2          [394, 4096]               [199, 4096]               --
│    └─GCNConv: 2-2                      [199, 4096]               [199, 4096]               4,096
│    │    └─Linear: 3-3                  [199, 4096]               [199, 4096]               16,777,216
│    │    └─SumAggregation: 3-4          [394, 4096]               [199, 4096]               --
│    └─GCNConv: 2-3                      [199, 4096]               [199, 4096]               4,096
│    │    └─Linear: 3-5                  [199, 4096]               [199, 4096]               16,777,216
│    │    └─SumAggregation: 3-6          [394, 4096]               [199, 4096]               --
├─ModuleList: 1-2                        --                        --                        --
│    └─GATConv: 2-4                      [199, 4096]               [199, 4096]               102,400
│    │    └─Linear: 3-7                  [199, 4096]               [199, 49152]              201,326,592
│    │    └─SumAggregation: 3-8          [394, 12, 4096]           [199, 12, 4096]           --
│    └─GATConv: 2-5                      [199, 4096]               [199, 4096]               102,400
│    │    └─Linear: 3-9                  [199, 4096]               [199, 49152]              201,326,592
│    │    └─SumAggregation: 3-10         [394, 12, 4096]           [199, 12, 4096]           --
│    └─GATConv: 2-6                      [199, 4096]               [199, 4096]               102,400
│    │    └─Linear: 3-11                 [199, 4096]               [199, 49152]              201,326,592
│    │    └─SumAggregation: 3-12         [394, 12, 4096]           [199, 12, 4096]           --
├─Linear: 1-3                            [199, 4096]               [199, 5]                  20,485
===================================================================================================================
Total params: 641,052,677
Trainable params: 641,052,677
Non-trainable params: 0
Total mult-adds (Units.GIGABYTES): 127.51
===================================================================================================================
Input size (MB): 0.62
Forward/backward pass size (MB): 254.32
…
