Class counts: {'company': 648, 'date': 949, 'address': 449, 'total': 992, 'other': 12732}
Model summary:
===================================================================================================================
Layer (type:depth-idx)                   Input Shape               Output Shape              Param #
===================================================================================================================
ConfigurableGNN                          [182, 776]                [182, 5]                  --
├─ModuleList: 1-1                        --                        --                        --
│    └─GCNConv: 2-1                      [182, 776]                [182, 4096]               4,096
│    │    └─Linear: 3-1                  [182, 776]                [182, 4096]               3,178,496
│    │    └─SumAggregation: 3-2          [360, 4096]               [182, 4096]               --
│    └─GCNConv: 2-2                      [182, 4096]               [182, 4096]               4,096
│    │    └─Linear: 3-3                  [182, 4096]               [182, 4096]               16,777,216
│    │    └─SumAggregation: 3-4          [360, 4096]               [182, 4096]               --
│    └─GCNConv: 2-3                      [182, 4096]               [182, 4096]               4,096
│    │    └─Linear: 3-5                  [182, 4096]               [182, 4096]               16,777,216
│    │    └─SumAggregation: 3-6          [360, 4096]               [182, 4096]               --
├─ModuleList: 1-2                        --                        --                        --
│    └─GATConv: 2-4                      [182, 4096]               [182, 4096]               36,864
│    │    └─Linear: 3-7                  [182, 4096]               [182, 16384]              67,108,864
│    │    └─SumAggregation: 3-8          [360, 4, 4096]            [182, 4, 4096]            --
│    └─GATConv: 2-5                      [182, 4096]               [182, 4096]               36,864
│    │    └─Linear: 3-9                  [182, 4096]               [182, 16384]              67,108,864
│    │    └─SumAggregation: 3-10         [360, 4, 4096]            [182, 4, 4096]            --
│    └─GATConv: 2-6                      [182, 4096]               [182, 4096]               36,864
│    │    └─Linear: 3-11                 [182, 4096]               [182, 16384]              67,108,864
│    │    └─SumAggregation: 3-12         [360, 4, 4096]            [182, 4, 4096]            --
├─Linear: 1-3                            [182, 4096]               [182, 5]                  20,485
===================================================================================================================
Total params: 238,202,885
Trainable params: 238,202,885
Non-trainable params: 0
Total mult-adds (Units.GIGABYTES): 43.33
===================================================================================================================
Input size (MB): 0.57
Forward/backward pass size (MB): 89.46
…
