Class counts: {'company': 530, 'date': 635, 'address': 1233, 'total': 1341, 'other': 24088}
Model summary:
===================================================================================================================
Layer (type:depth-idx)                   Input Shape               Output Shape              Param #
===================================================================================================================
ConfigurableGNN                          [227, 776]                [227, 5]                  --
├─ModuleList: 1-1                        --                        --                        --
│    └─GCNConv: 2-1                      [227, 776]                [227, 512]                512
│    │    └─Linear: 3-1                  [227, 776]                [227, 512]                397,312
│    │    └─SumAggregation: 3-2          [450, 512]                [227, 512]                --
│    └─GCNConv: 2-2                      [227, 512]                [227, 512]                512
│    │    └─Linear: 3-3                  [227, 512]                [227, 512]                262,144
│    │    └─SumAggregation: 3-4          [450, 512]                [227, 512]                --
│    └─GCNConv: 2-3                      [227, 512]                [227, 512]                512
│    │    └─Linear: 3-5                  [227, 512]                [227, 512]                262,144
│    │    └─SumAggregation: 3-6          [450, 512]                [227, 512]                --
├─ModuleList: 1-2                        --                        --                        --
│    └─GATConv: 2-4                      [227, 512]                [227, 512]                1,536
│    │    └─Linear: 3-7                  [227, 512]                [227, 512]                262,144
│    │    └─SumAggregation: 3-8          [450, 1, 512]             [227, 1, 512]             --
│    └─GATConv: 2-5                      [227, 512]                [227, 512]                1,536
│    │    └─Linear: 3-9                  [227, 512]                [227, 512]                262,144
│    │    └─SumAggregation: 3-10         [450, 1, 512]             [227, 1, 512]             --
│    └─GATConv: 2-6                      [227, 512]                [227, 512]                1,536
│    │    └─Linear: 3-11                 [227, 512]                [227, 512]                262,144
│    │    └─SumAggregation: 3-12         [450, 1, 512]             [227, 1, 512]             --
├─SpatialAttentionLayer: 1-3             [227, 512]                [227, 512]                --
│    └─Linear: 2-7                       [227, 512]                [227, 512]                262,656
│    └─Linear: 2-8                       [227, 512]                [227, 512]                262,656
│    └─Linear: 2-9                       [227, 512]                [227, 512]                262,656
├─Linear: 1-4                            [227, 512]                [227, 5]                  2,565
===================================================================================================================
Total params: 2,504,709
Trainable params: 2,504,709
Non-trainable params: 0
Total mult-adds (Units.MEGABYTES): 567.17
===================================================================================================================
Input size (MB): 0.71
Forward/backward pass size (MB): 8.38
…
