Class counts: {'company': 530, 'date': 635, 'address': 1233, 'total': 1341, 'other': 24088}
Model summary:
===================================================================================================================
Layer (type:depth-idx)                   Input Shape               Output Shape              Param #
===================================================================================================================
ConfigurableGNN                          [368, 776]                [368, 5]                  --
├─ModuleList: 1-1                        --                        --                        --
│    └─GCNConv: 2-1                      [368, 776]                [368, 4096]               4,096
│    │    └─Linear: 3-1                  [368, 776]                [368, 4096]               3,178,496
│    │    └─SumAggregation: 3-2          [728, 4096]               [368, 4096]               --
│    └─GCNConv: 2-2                      [368, 4096]               [368, 4096]               4,096
│    │    └─Linear: 3-3                  [368, 4096]               [368, 4096]               16,777,216
│    │    └─SumAggregation: 3-4          [728, 4096]               [368, 4096]               --
│    └─GCNConv: 2-3                      [368, 4096]               [368, 4096]               4,096
│    │    └─Linear: 3-5                  [368, 4096]               [368, 4096]               16,777,216
│    │    └─SumAggregation: 3-6          [728, 4096]               [368, 4096]               --
├─ModuleList: 1-2                        --                        --                        --
│    └─GATConv: 2-4                      [368, 4096]               [368, 4096]               12,288
│    │    └─Linear: 3-7                  [368, 4096]               [368, 4096]               16,777,216
│    │    └─SumAggregation: 3-8          [728, 1, 4096]            [368, 1, 4096]            --
│    └─GATConv: 2-5                      [368, 4096]               [368, 4096]               12,288
│    │    └─Linear: 3-9                  [368, 4096]               [368, 4096]               16,777,216
│    │    └─SumAggregation: 3-10         [728, 1, 4096]            [368, 1, 4096]            --
│    └─GATConv: 2-6                      [368, 4096]               [368, 4096]               12,288
│    │    └─Linear: 3-11                 [368, 4096]               [368, 4096]               16,777,216
│    │    └─SumAggregation: 3-12         [728, 1, 4096]            [368, 1, 4096]            --
├─SpatialAttentionLayer: 1-3             [368, 4096]               [368, 4096]               --
│    └─Linear: 2-7                       [368, 4096]               [368, 4096]               16,781,312
│    └─Linear: 2-8                       [368, 4096]               [368, 4096]               16,781,312
│    └─Linear: 2-9                       [368, 4096]               [368, 4096]               16,781,312
├─Linear: 1-4                            [368, 4096]               [368, 5]                  20,485
===================================================================================================================
Total params: 137,478,149
Trainable params: 137,478,149
Non-trainable params: 0
Total mult-adds (Units.GIGABYTES): 50.57
===================================================================================================================
Input size (MB): 1.15
Forward/backward pass size (MB): 108.54
…
