Class counts: {'company': 530, 'date': 635, 'address': 1233, 'total': 1341, 'other': 24088}
Model summary:
===================================================================================================================
Layer (type:depth-idx)                   Input Shape               Output Shape              Param #
===================================================================================================================
ConfigurableGNN                          [369, 776]                [369, 5]                  --
├─ModuleList: 1-1                        --                        --                        --
│    └─GCNConv: 2-1                      [369, 776]                [369, 5000]               5,000
│    │    └─Linear: 3-1                  [369, 776]                [369, 5000]               3,880,000
│    │    └─SumAggregation: 3-2          [730, 5000]               [369, 5000]               --
│    └─GCNConv: 2-2                      [369, 5000]               [369, 5000]               5,000
│    │    └─Linear: 3-3                  [369, 5000]               [369, 5000]               25,000,000
│    │    └─SumAggregation: 3-4          [730, 5000]               [369, 5000]               --
│    └─GCNConv: 2-3                      [369, 5000]               [369, 5000]               5,000
│    │    └─Linear: 3-5                  [369, 5000]               [369, 5000]               25,000,000
│    │    └─SumAggregation: 3-6          [730, 5000]               [369, 5000]               --
│    └─GCNConv: 2-4                      [369, 5000]               [369, 5000]               5,000
│    │    └─Linear: 3-7                  [369, 5000]               [369, 5000]               25,000,000
│    │    └─SumAggregation: 3-8          [730, 5000]               [369, 5000]               --
├─ModuleList: 1-2                        --                        --                        --
│    └─GATConv: 2-5                      [369, 5000]               [369, 5000]               15,000
│    │    └─Linear: 3-9                  [369, 5000]               [369, 5000]               25,000,000
│    │    └─SumAggregation: 3-10         [730, 1, 5000]            [369, 1, 5000]            --
│    └─GATConv: 2-6                      [369, 5000]               [369, 5000]               15,000
│    │    └─Linear: 3-11                 [369, 5000]               [369, 5000]               25,000,000
│    │    └─SumAggregation: 3-12         [730, 1, 5000]            [369, 1, 5000]            --
│    └─GATConv: 2-7                      [369, 5000]               [369, 5000]               15,000
│    │    └─Linear: 3-13                 [369, 5000]               [369, 5000]               25,000,000
│    │    └─SumAggregation: 3-14         [730, 1, 5000]            [369, 1, 5000]            --
│    └─GATConv: 2-8                      [369, 5000]               [369, 5000]               15,000
│    │    └─Linear: 3-15                 [369, 5000]               [369, 5000]               25,000,000
│    │    └─SumAggregation: 3-16         [730, 1, 5000]            [369, 1, 5000]            --
├─SpatialAttentionLayer: 1-3             [369, 5000]               [369, 5000]               --
│    └─Linear: 2-9                       [369, 5000]               [369, 5000]               25,005,000
│    └─Linear: 2-10                      [369, 5000]               [369, 5000]               25,005,000
│    └─Linear: 2-11                      [369, 5000]               [369, 5000]               25,005,000
├─Linear: 1-4                            [369, 5000]               [369, 5]                  25,005
===================================================================================================================
Total params: 254,000,005
Trainable params: 254,000,005
Non-trainable params: 0
Total mult-adds (Units.GIGABYTES): 93.70
===================================================================================================================
Input size (MB): 1.15
Forward/backward pass size (MB): 162.37
…
