Class counts: {'company': 648, 'date': 949, 'address': 449, 'total': 992, 'other': 12732}
Model summary:
===================================================================================================================
Layer (type:depth-idx)                   Input Shape               Output Shape              Param #
===================================================================================================================
ConfigurableGNN                          [146, 776]                [146, 5]                  --
├─ModuleList: 1-1                        --                        --                        --
│    └─GCNConv: 2-1                      [146, 776]                [146, 4096]               4,096
│    │    └─Linear: 3-1                  [146, 776]                [146, 4096]               3,178,496
│    │    └─SumAggregation: 3-2          [288, 4096]               [146, 4096]               --
│    └─GCNConv: 2-2                      [146, 4096]               [146, 4096]               4,096
│    │    └─Linear: 3-3                  [146, 4096]               [146, 4096]               16,777,216
│    │    └─SumAggregation: 3-4          [288, 4096]               [146, 4096]               --
│    └─GCNConv: 2-3                      [146, 4096]               [146, 4096]               4,096
│    │    └─Linear: 3-5                  [146, 4096]               [146, 4096]               16,777,216
│    │    └─SumAggregation: 3-6          [288, 4096]               [146, 4096]               --
├─ModuleList: 1-2                        --                        --                        --
│    └─GATConv: 2-4                      [146, 4096]               [146, 4096]               36,864
│    │    └─Linear: 3-7                  [146, 4096]               [146, 16384]              67,108,864
│    │    └─SumAggregation: 3-8          [288, 4, 4096]            [146, 4, 4096]            --
│    └─GATConv: 2-5                      [146, 4096]               [146, 4096]               36,864
│    │    └─Linear: 3-9                  [146, 4096]               [146, 16384]              67,108,864
│    │    └─SumAggregation: 3-10         [288, 4, 4096]            [146, 4, 4096]            --
│    └─GATConv: 2-6                      [146, 4096]               [146, 4096]               36,864
│    │    └─Linear: 3-11                 [146, 4096]               [146, 16384]              67,108,864
│    │    └─SumAggregation: 3-12         [288, 4, 4096]            [146, 4, 4096]            --
├─SpatialAttentionLayer: 1-3             [146, 4096]               [146, 4096]               --
│    └─Linear: 2-7                       [146, 4096]               [146, 4096]               16,781,312
│    └─Linear: 2-8                       [146, 4096]               [146, 4096]               16,781,312
│    └─Linear: 2-9                       [146, 4096]               [146, 4096]               16,781,312
├─Linear: 1-4                            [146, 4096]               [146, 5]                  20,485
===================================================================================================================
Total params: 288,546,821
Trainable params: 288,546,821
Non-trainable params: 0
Total mult-adds (Units.GIGABYTES): 42.11
===================================================================================================================
Input size (MB): 0.46
Forward/backward pass size (MB): 86.12
…
