Class counts: {'company': 681, 'date': 956, 'address': 460, 'total': 1018, 'other': 12655}
Model summary:
===================================================================================================================
Layer (type:depth-idx)                   Input Shape               Output Shape              Param #
===================================================================================================================
ConfigurableGNN                          [295, 776]                [295, 5]                  --
├─ModuleList: 1-1                        --                        --                        --
│    └─GCNConv: 2-1                      [295, 776]                [295, 5000]               5,000
│    │    └─Linear: 3-1                  [295, 776]                [295, 5000]               3,880,000
│    │    └─SumAggregation: 3-2          [586, 5000]               [295, 5000]               --
│    └─GCNConv: 2-2                      [295, 5000]               [295, 5000]               5,000
│    │    └─Linear: 3-3                  [295, 5000]               [295, 5000]               25,000,000
│    │    └─SumAggregation: 3-4          [586, 5000]               [295, 5000]               --
│    └─GCNConv: 2-3                      [295, 5000]               [295, 5000]               5,000
│    │    └─Linear: 3-5                  [295, 5000]               [295, 5000]               25,000,000
│    │    └─SumAggregation: 3-6          [586, 5000]               [295, 5000]               --
├─ModuleList: 1-2                        --                        --                        --
│    └─GATConv: 2-4                      [295, 5000]               [295, 5000]               45,000
│    │    └─Linear: 3-7                  [295, 5000]               [295, 20000]              100,000,000
│    │    └─SumAggregation: 3-8          [586, 4, 5000]            [295, 4, 5000]            --
│    └─GATConv: 2-5                      [295, 5000]               [295, 5000]               45,000
│    │    └─Linear: 3-9                  [295, 5000]               [295, 20000]              100,000,000
│    │    └─SumAggregation: 3-10         [586, 4, 5000]            [295, 4, 5000]            --
│    └─GATConv: 2-6                      [295, 5000]               [295, 5000]               45,000
│    │    └─Linear: 3-11                 [295, 5000]               [295, 20000]              100,000,000
│    │    └─SumAggregation: 3-12         [586, 4, 5000]            [295, 4, 5000]            --
├─Linear: 1-3                            [295, 5000]               [295, 5]                  25,005
===================================================================================================================
Total params: 354,055,005
Trainable params: 354,055,005
Non-trainable params: 0
Total mult-adds (Units.GIGABYTES): 104.40
===================================================================================================================
Input size (MB): 0.92
Forward/backward pass size (MB): 177.01
…
