Class counts: {'company': 530, 'date': 635, 'address': 1233, 'total': 1341, 'other': 24088}
Model summary:
===================================================================================================================
Layer (type:depth-idx)                   Input Shape               Output Shape              Param #
===================================================================================================================
ConfigurableGNN                          [275, 776]                [275, 5]                  --
├─ModuleList: 1-1                        --                        --                        --
│    └─GCNConv: 2-1                      [275, 776]                [275, 5000]               5,000
│    │    └─Linear: 3-1                  [275, 776]                [275, 5000]               3,880,000
│    │    └─SumAggregation: 3-2          [546, 5000]               [275, 5000]               --
│    └─GCNConv: 2-2                      [275, 5000]               [275, 5000]               5,000
│    │    └─Linear: 3-3                  [275, 5000]               [275, 5000]               25,000,000
│    │    └─SumAggregation: 3-4          [546, 5000]               [275, 5000]               --
│    └─GCNConv: 2-3                      [275, 5000]               [275, 5000]               5,000
│    │    └─Linear: 3-5                  [275, 5000]               [275, 5000]               25,000,000
│    │    └─SumAggregation: 3-6          [546, 5000]               [275, 5000]               --
│    └─GCNConv: 2-4                      [275, 5000]               [275, 5000]               5,000
│    │    └─Linear: 3-7                  [275, 5000]               [275, 5000]               25,000,000
│    │    └─SumAggregation: 3-8          [546, 5000]               [275, 5000]               --
├─ModuleList: 1-2                        --                        --                        --
│    └─GATConv: 2-5                      [275, 5000]               [275, 5000]               45,000
│    │    └─Linear: 3-9                  [275, 5000]               [275, 20000]              100,000,000
│    │    └─SumAggregation: 3-10         [546, 4, 5000]            [275, 4, 5000]            --
│    └─GATConv: 2-6                      [275, 5000]               [275, 5000]               45,000
│    │    └─Linear: 3-11                 [275, 5000]               [275, 20000]              100,000,000
│    │    └─SumAggregation: 3-12         [546, 4, 5000]            [275, 4, 5000]            --
│    └─GATConv: 2-7                      [275, 5000]               [275, 5000]               45,000
│    │    └─Linear: 3-13                 [275, 5000]               [275, 20000]              100,000,000
│    │    └─SumAggregation: 3-14         [546, 4, 5000]            [275, 4, 5000]            --
│    └─GATConv: 2-8                      [275, 5000]               [275, 5000]               45,000
│    │    └─Linear: 3-15                 [275, 5000]               [275, 20000]              100,000,000
│    │    └─SumAggregation: 3-16         [546, 4, 5000]            [275, 4, 5000]            --
├─Linear: 1-3                            [275, 5000]               [275, 5]                  25,005
===================================================================================================================
Total params: 479,105,005
Trainable params: 479,105,005
Non-trainable params: 0
Total mult-adds (Units.GIGABYTES): 131.70
===================================================================================================================
Input size (MB): 0.86
Forward/backward pass size (MB): 220.01
…
