Class counts: {'company': 530, 'date': 635, 'address': 1233, 'total': 1341, 'other': 24088}
Model summary:
===================================================================================================================
Layer (type:depth-idx)                   Input Shape               Output Shape              Param #
===================================================================================================================
ConfigurableGNN                          [212, 776]                [212, 5]                  --
├─ModuleList: 1-1                        --                        --                        --
│    └─GCNConv: 2-1                      [212, 776]                [212, 7000]               7,000
│    │    └─Linear: 3-1                  [212, 776]                [212, 7000]               5,432,000
│    │    └─SumAggregation: 3-2          [420, 7000]               [212, 7000]               --
│    └─GCNConv: 2-2                      [212, 7000]               [212, 7000]               7,000
│    │    └─Linear: 3-3                  [212, 7000]               [212, 7000]               49,000,000
│    │    └─SumAggregation: 3-4          [420, 7000]               [212, 7000]               --
│    └─GCNConv: 2-3                      [212, 7000]               [212, 7000]               7,000
│    │    └─Linear: 3-5                  [212, 7000]               [212, 7000]               49,000,000
│    │    └─SumAggregation: 3-6          [420, 7000]               [212, 7000]               --
├─ModuleList: 1-2                        --                        --                        --
│    └─GATConv: 2-4                      [212, 7000]               [212, 7000]               21,000
│    │    └─Linear: 3-7                  [212, 7000]               [212, 7000]               49,000,000
│    │    └─SumAggregation: 3-8          [420, 1, 7000]            [212, 1, 7000]            --
│    └─GATConv: 2-5                      [212, 7000]               [212, 7000]               21,000
│    │    └─Linear: 3-9                  [212, 7000]               [212, 7000]               49,000,000
│    │    └─SumAggregation: 3-10         [420, 1, 7000]            [212, 1, 7000]            --
│    └─GATConv: 2-6                      [212, 7000]               [212, 7000]               21,000
│    │    └─Linear: 3-11                 [212, 7000]               [212, 7000]               49,000,000
│    │    └─SumAggregation: 3-12         [420, 1, 7000]            [212, 1, 7000]            --
├─SpatialAttentionLayer: 1-3             [212, 7000]               [212, 7000]               --
│    └─Linear: 2-7                       [212, 7000]               [212, 7000]               49,007,000
│    └─Linear: 2-8                       [212, 7000]               [212, 7000]               49,007,000
│    └─Linear: 2-9                       [212, 7000]               [212, 7000]               49,007,000
├─Linear: 1-4                            [212, 7000]               [212, 5]                  35,005
===================================================================================================================
Total params: 397,572,005
Trainable params: 397,572,005
Non-trainable params: 0
Total mult-adds (Units.GIGABYTES): 84.27
===================================================================================================================
Input size (MB): 0.66
Forward/backward pass size (MB): 106.86
…
