Loaded model from best_checkpoint/invoice_gnn.pth
Class counts: {'company': 74, 'date': 64, 'address': 194, 'total': 113, 'other': 2296}
Model summary:
===================================================================================================================
Layer (type:depth-idx)                   Input Shape               Output Shape              Param #
===================================================================================================================
ConfigurableGNN                          [137, 776]                [137, 5]                  --
├─ModuleList: 1-1                        --                        --                        --
│    └─GCNConv: 2-1                      [137, 776]                [137, 4096]               4,096
│    │    └─Linear: 3-1                  [137, 776]                [137, 4096]               3,178,496
│    │    └─SumAggregation: 3-2          [270, 4096]               [137, 4096]               --
│    └─GCNConv: 2-2                      [137, 4096]               [137, 4096]               4,096
│    │    └─Linear: 3-3                  [137, 4096]               [137, 4096]               16,777,216
│    │    └─SumAggregation: 3-4          [270, 4096]               [137, 4096]               --
│    └─GCNConv: 2-3                      [137, 4096]               [137, 4096]               4,096
│    │    └─Linear: 3-5                  [137, 4096]               [137, 4096]               16,777,216
│    │    └─SumAggregation: 3-6          [270, 4096]               [137, 4096]               --
├─ModuleList: 1-2                        --                        --                        --
│    └─GATConv: 2-4                      [137, 4096]               [137, 4096]               12,288
│    │    └─Linear: 3-7                  [137, 4096]               [137, 4096]               16,777,216
│    │    └─SumAggregation: 3-8          [270, 1, 4096]            [137, 1, 4096]            --
│    └─GATConv: 2-5                      [137, 4096]               [137, 4096]               12,288
│    │    └─Linear: 3-9                  [137, 4096]               [137, 4096]               16,777,216
│    │    └─SumAggregation: 3-10         [270, 1, 4096]            [137, 1, 4096]            --
│    └─GATConv: 2-6                      [137, 4096]               [137, 4096]               12,288
│    │    └─Linear: 3-11                 [137, 4096]               [137, 4096]               16,777,216
│    │    └─SumAggregation: 3-12         [270, 1, 4096]            [137, 1, 4096]            --
├─SpatialAttentionLayer: 1-3             [137, 4096]               [137, 4096]               --
│    └─Linear: 2-7                       [137, 4096]               [137, 4096]               16,781,312
│    └─Linear: 2-8                       [137, 4096]               [137, 4096]               16,781,312
│    └─Linear: 2-9                       [137, 4096]               [137, 4096]               16,781,312
├─Linear: 1-4                            [137, 4096]               [137, 5]                  20,485
===================================================================================================================
Total params: 137,478,149
Trainable params: 137,478,149
Non-trainable params: 0
Total mult-adds (Units.GIGABYTES): 18.83
===================================================================================================================
Input size (MB): 0.43
Forward/backward pass size (MB): 40.41
…
