Class counts: {'company': 648, 'date': 949, 'address': 449, 'total': 992, 'other': 12732}
Model summary:
===================================================================================================================
Layer (type:depth-idx)                   Input Shape               Output Shape              Param #
===================================================================================================================
ConfigurableGNN                          [121, 776]                [121, 5]                  --
├─ModuleList: 1-1                        --                        --                        --
│    └─GCNConv: 2-1                      [121, 776]                [121, 5000]               5,000
│    │    └─Linear: 3-1                  [121, 776]                [121, 5000]               3,880,000
│    │    └─SumAggregation: 3-2          [238, 5000]               [121, 5000]               --
│    └─GCNConv: 2-2                      [121, 5000]               [121, 5000]               5,000
│    │    └─Linear: 3-3                  [121, 5000]               [121, 5000]               25,000,000
│    │    └─SumAggregation: 3-4          [238, 5000]               [121, 5000]               --
│    └─GCNConv: 2-3                      [121, 5000]               [121, 5000]               5,000
│    │    └─Linear: 3-5                  [121, 5000]               [121, 5000]               25,000,000
│    │    └─SumAggregation: 3-6          [238, 5000]               [121, 5000]               --
├─ModuleList: 1-2                        --                        --                        --
│    └─GATConv: 2-4                      [121, 5000]               [121, 5000]               45,000
│    │    └─Linear: 3-7                  [121, 5000]               [121, 20000]              100,000,000
│    │    └─SumAggregation: 3-8          [238, 4, 5000]            [121, 4, 5000]            --
│    └─GATConv: 2-5                      [121, 5000]               [121, 5000]               45,000
│    │    └─Linear: 3-9                  [121, 5000]               [121, 20000]              100,000,000
│    │    └─SumAggregation: 3-10         [238, 4, 5000]            [121, 4, 5000]            --
│    └─GATConv: 2-6                      [121, 5000]               [121, 5000]               45,000
│    │    └─Linear: 3-11                 [121, 5000]               [121, 20000]              100,000,000
│    │    └─SumAggregation: 3-12         [238, 4, 5000]            [121, 4, 5000]            --
├─Linear: 1-3                            [121, 5000]               [121, 5]                  25,005
===================================================================================================================
Total params: 354,055,005
Trainable params: 354,055,005
Non-trainable params: 0
Total mult-adds (Units.GIGABYTES): 42.82
===================================================================================================================
Input size (MB): 0.38
Forward/backward pass size (MB): 72.60
…
