Class counts: {'company': 530, 'date': 635, 'address': 1233, 'total': 1341, 'other': 24088}
Model summary:
===================================================================================================================
Layer (type:depth-idx)                   Input Shape               Output Shape              Param #
===================================================================================================================
ConfigurableGNN                          [205, 776]                [205, 5]                  --
├─ModuleList: 1-1                        --                        --                        --
│    └─GCNConv: 2-1                      [205, 776]                [205, 64]                 64
│    │    └─Linear: 3-1                  [205, 776]                [205, 64]                 49,664
│    │    └─SumAggregation: 3-2          [406, 64]                 [205, 64]                 --
│    └─GCNConv: 2-2                      [205, 64]                 [205, 64]                 64
│    │    └─Linear: 3-3                  [205, 64]                 [205, 64]                 4,096
│    │    └─SumAggregation: 3-4          [406, 64]                 [205, 64]                 --
│    └─GCNConv: 2-3                      [205, 64]                 [205, 64]                 64
│    │    └─Linear: 3-5                  [205, 64]                 [205, 64]                 4,096
│    │    └─SumAggregation: 3-6          [406, 64]                 [205, 64]                 --
│    └─GCNConv: 2-4                      [205, 64]                 [205, 64]                 64
│    │    └─Linear: 3-7                  [205, 64]                 [205, 64]                 4,096
│    │    └─SumAggregation: 3-8          [406, 64]                 [205, 64]                 --
├─ModuleList: 1-2                        --                        --                        --
│    └─GATConv: 2-5                      [205, 64]                 [205, 64]                 192
│    │    └─Linear: 3-9                  [205, 64]                 [205, 64]                 4,096
│    │    └─SumAggregation: 3-10         [406, 1, 64]              [205, 1, 64]              --
├─Linear: 1-3                            [205, 64]                 [205, 5]                  325
===================================================================================================================
Total params: 66,821
Trainable params: 66,821
Non-trainable params: 0
Total mult-adds (Units.MEGABYTES): 13.61
===================================================================================================================
Input size (MB): 0.64
Forward/backward pass size (MB): 0.53
…
