Class counts: {'company': 648, 'date': 949, 'address': 449, 'total': 992, 'other': 12732}
Model summary:
===================================================================================================================
Layer (type:depth-idx)                   Input Shape               Output Shape              Param #
===================================================================================================================
ConfigurableGNN                          [189, 776]                [189, 5]                  --
├─ModuleList: 1-1                        --                        --                        --
│    └─GCNConv: 2-1                      [189, 776]                [189, 5000]               5,000
│    │    └─Linear: 3-1                  [189, 776]                [189, 5000]               3,880,000
│    │    └─SumAggregation: 3-2          [374, 5000]               [189, 5000]               --
│    └─GCNConv: 2-2                      [189, 5000]               [189, 5000]               5,000
│    │    └─Linear: 3-3                  [189, 5000]               [189, 5000]               25,000,000
│    │    └─SumAggregation: 3-4          [374, 5000]               [189, 5000]               --
│    └─GCNConv: 2-3                      [189, 5000]               [189, 5000]               5,000
│    │    └─Linear: 3-5                  [189, 5000]               [189, 5000]               25,000,000
│    │    └─SumAggregation: 3-6          [374, 5000]               [189, 5000]               --
│    └─GCNConv: 2-4                      [189, 5000]               [189, 5000]               5,000
│    │    └─Linear: 3-7                  [189, 5000]               [189, 5000]               25,000,000
│    │    └─SumAggregation: 3-8          [374, 5000]               [189, 5000]               --
├─ModuleList: 1-2                        --                        --                        --
│    └─GATConv: 2-5                      [189, 5000]               [189, 5000]               45,000
│    │    └─Linear: 3-9                  [189, 5000]               [189, 20000]              100,000,000
│    │    └─SumAggregation: 3-10         [374, 4, 5000]            [189, 4, 5000]            --
│    └─GATConv: 2-6                      [189, 5000]               [189, 5000]               45,000
│    │    └─Linear: 3-11                 [189, 5000]               [189, 20000]              100,000,000
│    │    └─SumAggregation: 3-12         [374, 4, 5000]            [189, 4, 5000]            --
│    └─GATConv: 2-7                      [189, 5000]               [189, 5000]               45,000
│    │    └─Linear: 3-13                 [189, 5000]               [189, 20000]              100,000,000
│    │    └─SumAggregation: 3-14         [374, 4, 5000]            [189, 4, 5000]            --
│    └─GATConv: 2-8                      [189, 5000]               [189, 5000]               45,000
│    │    └─Linear: 3-15                 [189, 5000]               [189, 20000]              100,000,000
│    │    └─SumAggregation: 3-16         [374, 4, 5000]            [189, 4, 5000]            --
├─Linear: 1-3                            [189, 5000]               [189, 5]                  25,005
===================================================================================================================
Total params: 479,105,005
Trainable params: 479,105,005
Non-trainable params: 0
Total mult-adds (Units.GIGABYTES): 90.51
===================================================================================================================
Input size (MB): 0.59
Forward/backward pass size (MB): 151.21
…
