Class counts: {'company': 530, 'date': 635, 'address': 1233, 'total': 1341, 'other': 24088}
Model summary:
===================================================================================================================
Layer (type:depth-idx)                   Input Shape               Output Shape              Param #
===================================================================================================================
ConfigurableGNN                          [205, 776]                [205, 5]                  --
├─ModuleList: 1-1                        --                        --                        --
│    └─GCNConv: 2-1                      [205, 776]                [205, 7000]               7,000
│    │    └─Linear: 3-1                  [205, 776]                [205, 7000]               5,432,000
│    │    └─SumAggregation: 3-2          [406, 7000]               [205, 7000]               --
│    └─GCNConv: 2-2                      [205, 7000]               [205, 7000]               7,000
│    │    └─Linear: 3-3                  [205, 7000]               [205, 7000]               49,000,000
│    │    └─SumAggregation: 3-4          [406, 7000]               [205, 7000]               --
│    └─GCNConv: 2-3                      [205, 7000]               [205, 7000]               7,000
│    │    └─Linear: 3-5                  [205, 7000]               [205, 7000]               49,000,000
│    │    └─SumAggregation: 3-6          [406, 7000]               [205, 7000]               --
├─ModuleList: 1-2                        --                        --                        --
│    └─GATConv: 2-4                      [205, 7000]               [205, 7000]               21,000
│    │    └─Linear: 3-7                  [205, 7000]               [205, 7000]               49,000,000
│    │    └─SumAggregation: 3-8          [406, 1, 7000]            [205, 1, 7000]            --
│    └─GATConv: 2-5                      [205, 7000]               [205, 7000]               21,000
│    │    └─Linear: 3-9                  [205, 7000]               [205, 7000]               49,000,000
│    │    └─SumAggregation: 3-10         [406, 1, 7000]            [205, 1, 7000]            --
│    └─GATConv: 2-6                      [205, 7000]               [205, 7000]               21,000
│    │    └─Linear: 3-11                 [205, 7000]               [205, 7000]               49,000,000
│    │    └─SumAggregation: 3-12         [406, 1, 7000]            [205, 1, 7000]            --
├─SpatialAttentionLayer: 1-3             [205, 7000]               [205, 7000]               --
│    └─Linear: 2-7                       [205, 7000]               [205, 7000]               49,007,000
│    └─Linear: 2-8                       [205, 7000]               [205, 7000]               49,007,000
│    └─Linear: 2-9                       [205, 7000]               [205, 7000]               49,007,000
├─Linear: 1-4                            [205, 7000]               [205, 5]                  35,005
===================================================================================================================
Total params: 397,572,005
Trainable params: 397,572,005
Non-trainable params: 0
Total mult-adds (Units.GIGABYTES): 81.49
===================================================================================================================
Input size (MB): 0.64
Forward/backward pass size (MB): 103.33
…
