Class counts: {'company': 530, 'date': 635, 'address': 1233, 'total': 1341, 'other': 24088}
Model summary:
===================================================================================================================
Layer (type:depth-idx)                   Input Shape               Output Shape              Param #
===================================================================================================================
ConfigurableGNN                          [209, 776]                [209, 5]                  --
├─ModuleList: 1-1                        --                        --                        --
│    └─GCNConv: 2-1                      [209, 776]                [209, 512]                512
│    │    └─Linear: 3-1                  [209, 776]                [209, 512]                397,312
│    │    └─SumAggregation: 3-2          [414, 512]                [209, 512]                --
│    └─GCNConv: 2-2                      [209, 512]                [209, 512]                512
│    │    └─Linear: 3-3                  [209, 512]                [209, 512]                262,144
│    │    └─SumAggregation: 3-4          [414, 512]                [209, 512]                --
│    └─GCNConv: 2-3                      [209, 512]                [209, 512]                512
│    │    └─Linear: 3-5                  [209, 512]                [209, 512]                262,144
│    │    └─SumAggregation: 3-6          [414, 512]                [209, 512]                --
├─ModuleList: 1-2                        --                        --                        --
│    └─GATConv: 2-4                      [209, 512]                [209, 512]                1,536
│    │    └─Linear: 3-7                  [209, 512]                [209, 512]                262,144
│    │    └─SumAggregation: 3-8          [414, 1, 512]             [209, 1, 512]             --
│    └─GATConv: 2-5                      [209, 512]                [209, 512]                1,536
│    │    └─Linear: 3-9                  [209, 512]                [209, 512]                262,144
│    │    └─SumAggregation: 3-10         [414, 1, 512]             [209, 1, 512]             --
│    └─GATConv: 2-6                      [209, 512]                [209, 512]                1,536
│    │    └─Linear: 3-11                 [209, 512]                [209, 512]                262,144
│    │    └─SumAggregation: 3-12         [414, 1, 512]             [209, 1, 512]             --
├─SpatialAttentionLayer: 1-3             [209, 512]                [209, 512]                --
│    └─Linear: 2-7                       [209, 512]                [209, 512]                262,656
│    └─Linear: 2-8                       [209, 512]                [209, 512]                262,656
│    └─Linear: 2-9                       [209, 512]                [209, 512]                262,656
├─Linear: 1-4                            [209, 512]                [209, 5]                  2,565
===================================================================================================================
Total params: 2,504,709
Trainable params: 2,504,709
Non-trainable params: 0
Total mult-adds (Units.MEGABYTES): 522.20
===================================================================================================================
Input size (MB): 0.65
Forward/backward pass size (MB): 7.71
…
