Class counts: {'company': 530, 'date': 635, 'address': 1233, 'total': 1341, 'other': 24088}
Model summary:
===================================================================================================================
Layer (type:depth-idx)                   Input Shape               Output Shape              Param #
===================================================================================================================
ConfigurableGNN                          [208, 776]                [208, 5]                  --
├─ModuleList: 1-1                        --                        --                        --
│    └─GCNConv: 2-1                      [208, 776]                [208, 512]                512
│    │    └─Linear: 3-1                  [208, 776]                [208, 512]                397,312
│    │    └─SumAggregation: 3-2          [412, 512]                [208, 512]                --
│    └─GCNConv: 2-2                      [208, 512]                [208, 512]                512
│    │    └─Linear: 3-3                  [208, 512]                [208, 512]                262,144
│    │    └─SumAggregation: 3-4          [412, 512]                [208, 512]                --
│    └─GCNConv: 2-3                      [208, 512]                [208, 512]                512
│    │    └─Linear: 3-5                  [208, 512]                [208, 512]                262,144
│    │    └─SumAggregation: 3-6          [412, 512]                [208, 512]                --
├─ModuleList: 1-2                        --                        --                        --
│    └─GATConv: 2-4                      [208, 512]                [208, 512]                1,536
│    │    └─Linear: 3-7                  [208, 512]                [208, 512]                262,144
│    │    └─SumAggregation: 3-8          [412, 1, 512]             [208, 1, 512]             --
│    └─GATConv: 2-5                      [208, 512]                [208, 512]                1,536
│    │    └─Linear: 3-9                  [208, 512]                [208, 512]                262,144
│    │    └─SumAggregation: 3-10         [412, 1, 512]             [208, 1, 512]             --
│    └─GATConv: 2-6                      [208, 512]                [208, 512]                1,536
│    │    └─Linear: 3-11                 [208, 512]                [208, 512]                262,144
│    │    └─SumAggregation: 3-12         [412, 1, 512]             [208, 1, 512]             --
├─SpatialAttentionLayer: 1-3             [208, 512]                [208, 512]                --
│    └─Linear: 2-7                       [208, 512]                [208, 512]                262,656
│    └─Linear: 2-8                       [208, 512]                [208, 512]                262,656
│    └─Linear: 2-9                       [208, 512]                [208, 512]                262,656
├─Linear: 1-4                            [208, 512]                [208, 5]                  2,565
===================================================================================================================
Total params: 2,504,709
Trainable params: 2,504,709
Non-trainable params: 0
Total mult-adds (Units.MEGABYTES): 519.70
===================================================================================================================
Input size (MB): 0.65
Forward/backward pass size (MB): 7.68
…
