Class counts: {'company': 648, 'date': 949, 'address': 449, 'total': 992, 'other': 12732}
Model summary:
===================================================================================================================
Layer (type:depth-idx)                   Input Shape               Output Shape              Param #
===================================================================================================================
ConfigurableGNN                          [213, 776]                [213, 5]                  --
├─ModuleList: 1-1                        --                        --                        --
│    └─GCNConv: 2-1                      [213, 776]                [213, 5000]               5,000
│    │    └─Linear: 3-1                  [213, 776]                [213, 5000]               3,880,000
│    │    └─SumAggregation: 3-2          [422, 5000]               [213, 5000]               --
│    └─GCNConv: 2-2                      [213, 5000]               [213, 5000]               5,000
│    │    └─Linear: 3-3                  [213, 5000]               [213, 5000]               25,000,000
│    │    └─SumAggregation: 3-4          [422, 5000]               [213, 5000]               --
│    └─GCNConv: 2-3                      [213, 5000]               [213, 5000]               5,000
│    │    └─Linear: 3-5                  [213, 5000]               [213, 5000]               25,000,000
│    │    └─SumAggregation: 3-6          [422, 5000]               [213, 5000]               --
│    └─GCNConv: 2-4                      [213, 5000]               [213, 5000]               5,000
│    │    └─Linear: 3-7                  [213, 5000]               [213, 5000]               25,000,000
│    │    └─SumAggregation: 3-8          [422, 5000]               [213, 5000]               --
├─ModuleList: 1-2                        --                        --                        --
│    └─GATConv: 2-5                      [213, 5000]               [213, 5000]               45,000
│    │    └─Linear: 3-9                  [213, 5000]               [213, 20000]              100,000,000
│    │    └─SumAggregation: 3-10         [422, 4, 5000]            [213, 4, 5000]            --
│    └─GATConv: 2-6                      [213, 5000]               [213, 5000]               45,000
│    │    └─Linear: 3-11                 [213, 5000]               [213, 20000]              100,000,000
│    │    └─SumAggregation: 3-12         [422, 4, 5000]            [213, 4, 5000]            --
│    └─GATConv: 2-7                      [213, 5000]               [213, 5000]               45,000
│    │    └─Linear: 3-13                 [213, 5000]               [213, 20000]              100,000,000
│    │    └─SumAggregation: 3-14         [422, 4, 5000]            [213, 4, 5000]            --
│    └─GATConv: 2-8                      [213, 5000]               [213, 5000]               45,000
│    │    └─Linear: 3-15                 [213, 5000]               [213, 20000]              100,000,000
│    │    └─SumAggregation: 3-16         [422, 4, 5000]            [213, 4, 5000]            --
├─Linear: 1-3                            [213, 5000]               [213, 5]                  25,005
===================================================================================================================
Total params: 479,105,005
Trainable params: 479,105,005
Non-trainable params: 0
Total mult-adds (Units.GIGABYTES): 102.01
===================================================================================================================
Input size (MB): 0.66
Forward/backward pass size (MB): 170.41
…
