Class counts: {'company': 530, 'date': 635, 'address': 1233, 'total': 1341, 'other': 24088}
Model summary:
===================================================================================================================
Layer (type:depth-idx)                   Input Shape               Output Shape              Param #
===================================================================================================================
ConfigurableGNN                          [201, 776]                [201, 5]                  --
├─ModuleList: 1-1                        --                        --                        --
│    └─GCNConv: 2-1                      [201, 776]                [201, 4500]               4,500
│    │    └─Linear: 3-1                  [201, 776]                [201, 4500]               3,492,000
│    │    └─SumAggregation: 3-2          [398, 4500]               [201, 4500]               --
│    └─GCNConv: 2-2                      [201, 4500]               [201, 4500]               4,500
│    │    └─Linear: 3-3                  [201, 4500]               [201, 4500]               20,250,000
│    │    └─SumAggregation: 3-4          [398, 4500]               [201, 4500]               --
│    └─GCNConv: 2-3                      [201, 4500]               [201, 4500]               4,500
│    │    └─Linear: 3-5                  [201, 4500]               [201, 4500]               20,250,000
│    │    └─SumAggregation: 3-6          [398, 4500]               [201, 4500]               --
├─ModuleList: 1-2                        --                        --                        --
│    └─GATConv: 2-4                      [201, 4500]               [201, 4500]               76,500
│    │    └─Linear: 3-7                  [201, 4500]               [201, 36000]              162,000,000
│    │    └─SumAggregation: 3-8          [398, 8, 4500]            [201, 8, 4500]            --
│    └─GATConv: 2-5                      [201, 4500]               [201, 4500]               76,500
│    │    └─Linear: 3-9                  [201, 4500]               [201, 36000]              162,000,000
│    │    └─SumAggregation: 3-10         [398, 8, 4500]            [201, 8, 4500]            --
│    └─GATConv: 2-6                      [201, 4500]               [201, 4500]               76,500
│    │    └─Linear: 3-11                 [201, 4500]               [201, 36000]              162,000,000
│    │    └─SumAggregation: 3-12         [398, 8, 4500]            [201, 8, 4500]            --
├─Linear: 1-3                            [201, 4500]               [201, 5]                  22,505
===================================================================================================================
Total params: 530,257,505
Trainable params: 530,257,505
Non-trainable params: 0
Total mult-adds (Units.GIGABYTES): 106.53
===================================================================================================================
Input size (MB): 0.63
Forward/backward pass size (MB): 195.38
…
