Class counts: {'company': 648, 'date': 949, 'address': 449, 'total': 992, 'other': 12732}
Model summary:
===================================================================================================================
Layer (type:depth-idx)                   Input Shape               Output Shape              Param #
===================================================================================================================
ConfigurableGNN                          [177, 776]                [177, 5]                  --
├─ModuleList: 1-1                        --                        --                        --
│    └─GCNConv: 2-1                      [177, 776]                [177, 5000]               5,000
│    │    └─Linear: 3-1                  [177, 776]                [177, 5000]               3,880,000
│    │    └─SumAggregation: 3-2          [350, 5000]               [177, 5000]               --
│    └─GCNConv: 2-2                      [177, 5000]               [177, 5000]               5,000
│    │    └─Linear: 3-3                  [177, 5000]               [177, 5000]               25,000,000
│    │    └─SumAggregation: 3-4          [350, 5000]               [177, 5000]               --
│    └─GCNConv: 2-3                      [177, 5000]               [177, 5000]               5,000
│    │    └─Linear: 3-5                  [177, 5000]               [177, 5000]               25,000,000
│    │    └─SumAggregation: 3-6          [350, 5000]               [177, 5000]               --
├─ModuleList: 1-2                        --                        --                        --
│    └─GATConv: 2-4                      [177, 5000]               [177, 5000]               45,000
│    │    └─Linear: 3-7                  [177, 5000]               [177, 20000]              100,000,000
│    │    └─SumAggregation: 3-8          [350, 4, 5000]            [177, 4, 5000]            --
│    └─GATConv: 2-5                      [177, 5000]               [177, 5000]               45,000
│    │    └─Linear: 3-9                  [177, 5000]               [177, 20000]              100,000,000
│    │    └─SumAggregation: 3-10         [350, 4, 5000]            [177, 4, 5000]            --
│    └─GATConv: 2-6                      [177, 5000]               [177, 5000]               45,000
│    │    └─Linear: 3-11                 [177, 5000]               [177, 20000]              100,000,000
│    │    └─SumAggregation: 3-12         [350, 4, 5000]            [177, 4, 5000]            --
├─SpatialAttentionLayer: 1-3             [177, 5000]               [177, 5000]               --
│    └─Linear: 2-7                       [177, 5000]               [177, 5000]               25,005,000
│    └─Linear: 2-8                       [177, 5000]               [177, 5000]               25,005,000
│    └─Linear: 2-9                       [177, 5000]               [177, 5000]               25,005,000
├─Linear: 1-4                            [177, 5000]               [177, 5]                  25,005
===================================================================================================================
Total params: 429,070,005
Trainable params: 429,070,005
Non-trainable params: 0
Total mult-adds (Units.GIGABYTES): 75.92
===================================================================================================================
Input size (MB): 0.55
Forward/backward pass size (MB): 127.45
…
