Class counts: {'company': 530, 'date': 635, 'address': 1233, 'total': 1341, 'other': 24088}
Model summary:
===================================================================================================================
Layer (type:depth-idx)                   Input Shape               Output Shape              Param #
===================================================================================================================
ConfigurableGNN                          [191, 776]                [191, 5]                  --
├─ModuleList: 1-1                        --                        --                        --
│    └─GCNConv: 2-1                      [191, 776]                [191, 512]                512
│    │    └─Linear: 3-1                  [191, 776]                [191, 512]                397,312
│    │    └─SumAggregation: 3-2          [378, 512]                [191, 512]                --
│    └─GCNConv: 2-2                      [191, 512]                [191, 512]                512
│    │    └─Linear: 3-3                  [191, 512]                [191, 512]                262,144
│    │    └─SumAggregation: 3-4          [378, 512]                [191, 512]                --
│    └─GCNConv: 2-3                      [191, 512]                [191, 512]                512
│    │    └─Linear: 3-5                  [191, 512]                [191, 512]                262,144
│    │    └─SumAggregation: 3-6          [378, 512]                [191, 512]                --
│    └─GCNConv: 2-4                      [191, 512]                [191, 512]                512
│    │    └─Linear: 3-7                  [191, 512]                [191, 512]                262,144
│    │    └─SumAggregation: 3-8          [378, 512]                [191, 512]                --
├─ModuleList: 1-2                        --                        --                        --
│    └─GATConv: 2-5                      [191, 512]                [191, 512]                1,536
│    │    └─Linear: 3-9                  [191, 512]                [191, 512]                262,144
│    │    └─SumAggregation: 3-10         [378, 1, 512]             [191, 1, 512]             --
│    └─GATConv: 2-6                      [191, 512]                [191, 512]                1,536
│    │    └─Linear: 3-11                 [191, 512]                [191, 512]                262,144
│    │    └─SumAggregation: 3-12         [378, 1, 512]             [191, 1, 512]             --
│    └─GATConv: 2-7                      [191, 512]                [191, 512]                1,536
│    │    └─Linear: 3-13                 [191, 512]                [191, 512]                262,144
│    │    └─SumAggregation: 3-14         [378, 1, 512]             [191, 1, 512]             --
│    └─GATConv: 2-8                      [191, 512]                [191, 512]                1,536
│    │    └─Linear: 3-15                 [191, 512]                [191, 512]                262,144
│    │    └─SumAggregation: 3-16         [378, 1, 512]             [191, 1, 512]             --
├─SpatialAttentionLayer: 1-3             [191, 512]                [191, 512]                --
│    └─Linear: 2-9                       [191, 512]                [191, 512]                262,656
│    └─Linear: 2-10                      [191, 512]                [191, 512]                262,656
│    └─Linear: 2-11                      [191, 512]                [191, 512]                262,656
├─Linear: 1-4                            [191, 512]                [191, 5]                  2,565
===================================================================================================================
Total params: 3,031,045
Trainable params: 3,031,045
Non-trainable params: 0
Total mult-adds (Units.MEGABYTES): 577.36
===================================================================================================================
Input size (MB): 0.60
Forward/backward pass size (MB): 8.61
…
