Class counts: {'company': 530, 'date': 635, 'address': 1233, 'total': 1341, 'other': 24088}
Model summary:
===================================================================================================================
Layer (type:depth-idx)                   Input Shape               Output Shape              Param #
===================================================================================================================
ConfigurableGNN                          [161, 776]                [161, 5]                  --
├─ModuleList: 1-1                        --                        --                        --
│    └─GCNConv: 2-1                      [161, 776]                [161, 5000]               5,000
│    │    └─Linear: 3-1                  [161, 776]                [161, 5000]               3,880,000
│    │    └─SumAggregation: 3-2          [318, 5000]               [161, 5000]               --
│    └─GCNConv: 2-2                      [161, 5000]               [161, 5000]               5,000
│    │    └─Linear: 3-3                  [161, 5000]               [161, 5000]               25,000,000
│    │    └─SumAggregation: 3-4          [318, 5000]               [161, 5000]               --
│    └─GCNConv: 2-3                      [161, 5000]               [161, 5000]               5,000
│    │    └─Linear: 3-5                  [161, 5000]               [161, 5000]               25,000,000
│    │    └─SumAggregation: 3-6          [318, 5000]               [161, 5000]               --
├─ModuleList: 1-2                        --                        --                        --
│    └─GATConv: 2-4                      [161, 5000]               [161, 5000]               85,000
│    │    └─Linear: 3-7                  [161, 5000]               [161, 40000]              200,000,000
│    │    └─SumAggregation: 3-8          [318, 8, 5000]            [161, 8, 5000]            --
│    └─GATConv: 2-5                      [161, 5000]               [161, 5000]               85,000
│    │    └─Linear: 3-9                  [161, 5000]               [161, 40000]              200,000,000
│    │    └─SumAggregation: 3-10         [318, 8, 5000]            [161, 8, 5000]            --
│    └─GATConv: 2-6                      [161, 5000]               [161, 5000]               85,000
│    │    └─Linear: 3-11                 [161, 5000]               [161, 40000]              200,000,000
│    │    └─SumAggregation: 3-12         [318, 8, 5000]            [161, 8, 5000]            --
├─Linear: 1-3                            [161, 5000]               [161, 5]                  25,005
===================================================================================================================
Total params: 654,175,005
Trainable params: 654,175,005
Non-trainable params: 0
Total mult-adds (Units.GIGABYTES): 105.28
===================================================================================================================
Input size (MB): 0.50
Forward/backward pass size (MB): 173.89
…
