Class counts: {'company': 530, 'date': 635, 'address': 1233, 'total': 1341, 'other': 24088}
Model summary:
===================================================================================================================
Layer (type:depth-idx)                   Input Shape               Output Shape              Param #
===================================================================================================================
ConfigurableGNN                          [212, 776]                [212, 5]                  --
├─ModuleList: 1-1                        --                        --                        --
│    └─GCNConv: 2-1                      [212, 776]                [212, 4096]               4,096
│    │    └─Linear: 3-1                  [212, 776]                [212, 4096]               3,178,496
│    │    └─SumAggregation: 3-2          [420, 4096]               [212, 4096]               --
│    └─GCNConv: 2-2                      [212, 4096]               [212, 4096]               4,096
│    │    └─Linear: 3-3                  [212, 4096]               [212, 4096]               16,777,216
│    │    └─SumAggregation: 3-4          [420, 4096]               [212, 4096]               --
│    └─GCNConv: 2-3                      [212, 4096]               [212, 4096]               4,096
│    │    └─Linear: 3-5                  [212, 4096]               [212, 4096]               16,777,216
│    │    └─SumAggregation: 3-6          [420, 4096]               [212, 4096]               --
├─ModuleList: 1-2                        --                        --                        --
│    └─GATConv: 2-4                      [212, 4096]               [212, 4096]               36,864
│    │    └─Linear: 3-7                  [212, 4096]               [212, 16384]              67,108,864
│    │    └─SumAggregation: 3-8          [420, 4, 4096]            [212, 4, 4096]            --
│    └─GATConv: 2-5                      [212, 4096]               [212, 4096]               36,864
│    │    └─Linear: 3-9                  [212, 4096]               [212, 16384]              67,108,864
│    │    └─SumAggregation: 3-10         [420, 4, 4096]            [212, 4, 4096]            --
│    └─GATConv: 2-6                      [212, 4096]               [212, 4096]               36,864
│    │    └─Linear: 3-11                 [212, 4096]               [212, 16384]              67,108,864
│    │    └─SumAggregation: 3-12         [420, 4, 4096]            [212, 4, 4096]            --
├─Linear: 1-3                            [212, 4096]               [212, 5]                  20,485
===================================================================================================================
Total params: 238,202,885
Trainable params: 238,202,885
Non-trainable params: 0
Total mult-adds (Units.GIGABYTES): 50.47
===================================================================================================================
Input size (MB): 0.66
Forward/backward pass size (MB): 104.21
…
