Class counts: {'company': 530, 'date': 635, 'address': 1233, 'total': 1341, 'other': 24088}
Model summary:
===================================================================================================================
Layer (type:depth-idx)                   Input Shape               Output Shape              Param #
===================================================================================================================
ConfigurableGNN                          [189, 776]                [189, 5]                  --
├─ModuleList: 1-1                        --                        --                        --
│    └─GCNConv: 2-1                      [189, 776]                [189, 4096]               4,096
│    │    └─Linear: 3-1                  [189, 776]                [189, 4096]               3,178,496
│    │    └─SumAggregation: 3-2          [374, 4096]               [189, 4096]               --
│    └─GCNConv: 2-2                      [189, 4096]               [189, 4096]               4,096
│    │    └─Linear: 3-3                  [189, 4096]               [189, 4096]               16,777,216
│    │    └─SumAggregation: 3-4          [374, 4096]               [189, 4096]               --
│    └─GCNConv: 2-3                      [189, 4096]               [189, 4096]               4,096
│    │    └─Linear: 3-5                  [189, 4096]               [189, 4096]               16,777,216
│    │    └─SumAggregation: 3-6          [374, 4096]               [189, 4096]               --
├─ModuleList: 1-2                        --                        --                        --
│    └─GATConv: 2-4                      [189, 4096]               [189, 4096]               12,288
│    │    └─Linear: 3-7                  [189, 4096]               [189, 4096]               16,777,216
│    │    └─SumAggregation: 3-8          [374, 1, 4096]            [189, 1, 4096]            --
│    └─GATConv: 2-5                      [189, 4096]               [189, 4096]               12,288
│    │    └─Linear: 3-9                  [189, 4096]               [189, 4096]               16,777,216
│    │    └─SumAggregation: 3-10         [374, 1, 4096]            [189, 1, 4096]            --
│    └─GATConv: 2-6                      [189, 4096]               [189, 4096]               12,288
│    │    └─Linear: 3-11                 [189, 4096]               [189, 4096]               16,777,216
│    │    └─SumAggregation: 3-12         [374, 1, 4096]            [189, 1, 4096]            --
├─SpatialAttentionLayer: 1-3             [189, 4096]               [189, 4096]               --
│    └─Linear: 2-7                       [189, 4096]               [189, 4096]               16,781,312
│    └─Linear: 2-8                       [189, 4096]               [189, 4096]               16,781,312
│    └─Linear: 2-9                       [189, 4096]               [189, 4096]               16,781,312
├─Linear: 1-4                            [189, 4096]               [189, 5]                  20,485
===================================================================================================================
Total params: 137,478,149
Trainable params: 137,478,149
Non-trainable params: 0
Total mult-adds (Units.GIGABYTES): 25.97
===================================================================================================================
Input size (MB): 0.59
Forward/backward pass size (MB): 55.75
…
