Class counts: {'company': 530, 'date': 635, 'address': 1233, 'total': 1341, 'other': 24088}
Model summary:
===================================================================================================================
Layer (type:depth-idx)                   Input Shape               Output Shape              Param #
===================================================================================================================
ConfigurableGNN                          [230, 776]                [230, 5]                  --
├─ModuleList: 1-1                        --                        --                        --
│    └─GCNConv: 2-1                      [230, 776]                [230, 512]                512
│    │    └─Linear: 3-1                  [230, 776]                [230, 512]                397,312
│    │    └─SumAggregation: 3-2          [456, 512]                [230, 512]                --
│    └─GCNConv: 2-2                      [230, 512]                [230, 512]                512
│    │    └─Linear: 3-3                  [230, 512]                [230, 512]                262,144
│    │    └─SumAggregation: 3-4          [456, 512]                [230, 512]                --
│    └─GCNConv: 2-3                      [230, 512]                [230, 512]                512
│    │    └─Linear: 3-5                  [230, 512]                [230, 512]                262,144
│    │    └─SumAggregation: 3-6          [456, 512]                [230, 512]                --
├─ModuleList: 1-2                        --                        --                        --
│    └─GATConv: 2-4                      [230, 512]                [230, 512]                1,536
│    │    └─Linear: 3-7                  [230, 512]                [230, 512]                262,144
│    │    └─SumAggregation: 3-8          [456, 1, 512]             [230, 1, 512]             --
│    └─GATConv: 2-5                      [230, 512]                [230, 512]                1,536
│    │    └─Linear: 3-9                  [230, 512]                [230, 512]                262,144
│    │    └─SumAggregation: 3-10         [456, 1, 512]             [230, 1, 512]             --
│    └─GATConv: 2-6                      [230, 512]                [230, 512]                1,536
│    │    └─Linear: 3-11                 [230, 512]                [230, 512]                262,144
│    │    └─SumAggregation: 3-12         [456, 1, 512]             [230, 1, 512]             --
├─SpatialAttentionLayer: 1-3             [230, 512]                [230, 512]                --
│    └─Linear: 2-7                       [230, 512]                [230, 512]                262,656
│    └─Linear: 2-8                       [230, 512]                [230, 512]                262,656
│    └─Linear: 2-9                       [230, 512]                [230, 512]                262,656
├─Linear: 1-4                            [230, 512]                [230, 5]                  2,565
===================================================================================================================
Total params: 2,504,709
Trainable params: 2,504,709
Non-trainable params: 0
Total mult-adds (Units.MEGABYTES): 574.67
===================================================================================================================
Input size (MB): 0.72
Forward/backward pass size (MB): 8.49
…
