Class counts: {'company': 530, 'date': 635, 'address': 1233, 'total': 1341, 'other': 24088}
Model summary:
===================================================================================================================
Layer (type:depth-idx)                   Input Shape               Output Shape              Param #
===================================================================================================================
ConfigurableGNN                          [191, 776]                [191, 5]                  --
├─ModuleList: 1-1                        --                        --                        --
│    └─GCNConv: 2-1                      [191, 776]                [191, 4096]               4,096
│    │    └─Linear: 3-1                  [191, 776]                [191, 4096]               3,178,496
│    │    └─SumAggregation: 3-2          [378, 4096]               [191, 4096]               --
│    └─GCNConv: 2-2                      [191, 4096]               [191, 4096]               4,096
│    │    └─Linear: 3-3                  [191, 4096]               [191, 4096]               16,777,216
│    │    └─SumAggregation: 3-4          [378, 4096]               [191, 4096]               --
│    └─GCNConv: 2-3                      [191, 4096]               [191, 4096]               4,096
│    │    └─Linear: 3-5                  [191, 4096]               [191, 4096]               16,777,216
│    │    └─SumAggregation: 3-6          [378, 4096]               [191, 4096]               --
├─ModuleList: 1-2                        --                        --                        --
│    └─GATConv: 2-4                      [191, 4096]               [191, 4096]               36,864
│    │    └─Linear: 3-7                  [191, 4096]               [191, 16384]              67,108,864
│    │    └─SumAggregation: 3-8          [378, 4, 4096]            [191, 4, 4096]            --
│    └─GATConv: 2-5                      [191, 4096]               [191, 4096]               36,864
│    │    └─Linear: 3-9                  [191, 4096]               [191, 16384]              67,108,864
│    │    └─SumAggregation: 3-10         [378, 4, 4096]            [191, 4, 4096]            --
│    └─GATConv: 2-6                      [191, 4096]               [191, 4096]               36,864
│    │    └─Linear: 3-11                 [191, 4096]               [191, 16384]              67,108,864
│    │    └─SumAggregation: 3-12         [378, 4, 4096]            [191, 4, 4096]            --
├─Linear: 1-3                            [191, 4096]               [191, 5]                  20,485
===================================================================================================================
Total params: 238,202,885
Trainable params: 238,202,885
Non-trainable params: 0
Total mult-adds (Units.GIGABYTES): 45.47
===================================================================================================================
Input size (MB): 0.60
Forward/backward pass size (MB): 93.89
…
