Class counts: {'company': 530, 'date': 635, 'address': 1233, 'total': 1341, 'other': 24088}
Model summary:
===================================================================================================================
Layer (type:depth-idx)                   Input Shape               Output Shape              Param #
===================================================================================================================
ConfigurableGNN                          [268, 776]                [268, 5]                  --
├─ModuleList: 1-1                        --                        --                        --
│    └─GCNConv: 2-1                      [268, 776]                [268, 7000]               7,000
│    │    └─Linear: 3-1                  [268, 776]                [268, 7000]               5,432,000
│    │    └─SumAggregation: 3-2          [532, 7000]               [268, 7000]               --
│    └─GCNConv: 2-2                      [268, 7000]               [268, 7000]               7,000
│    │    └─Linear: 3-3                  [268, 7000]               [268, 7000]               49,000,000
│    │    └─SumAggregation: 3-4          [532, 7000]               [268, 7000]               --
│    └─GCNConv: 2-3                      [268, 7000]               [268, 7000]               7,000
│    │    └─Linear: 3-5                  [268, 7000]               [268, 7000]               49,000,000
│    │    └─SumAggregation: 3-6          [532, 7000]               [268, 7000]               --
├─ModuleList: 1-2                        --                        --                        --
│    └─GATConv: 2-4                      [268, 7000]               [268, 7000]               21,000
│    │    └─Linear: 3-7                  [268, 7000]               [268, 7000]               49,000,000
│    │    └─SumAggregation: 3-8          [532, 1, 7000]            [268, 1, 7000]            --
│    └─GATConv: 2-5                      [268, 7000]               [268, 7000]               21,000
│    │    └─Linear: 3-9                  [268, 7000]               [268, 7000]               49,000,000
│    │    └─SumAggregation: 3-10         [532, 1, 7000]            [268, 1, 7000]            --
│    └─GATConv: 2-6                      [268, 7000]               [268, 7000]               21,000
│    │    └─Linear: 3-11                 [268, 7000]               [268, 7000]               49,000,000
│    │    └─SumAggregation: 3-12         [532, 1, 7000]            [268, 1, 7000]            --
├─SpatialAttentionLayer: 1-3             [268, 7000]               [268, 7000]               --
│    └─Linear: 2-7                       [268, 7000]               [268, 7000]               49,007,000
│    └─Linear: 2-8                       [268, 7000]               [268, 7000]               49,007,000
│    └─Linear: 2-9                       [268, 7000]               [268, 7000]               49,007,000
├─Linear: 1-4                            [268, 7000]               [268, 5]                  35,005
===================================================================================================================
Total params: 397,572,005
Trainable params: 397,572,005
Non-trainable params: 0
Total mult-adds (Units.GIGABYTES): 106.53
===================================================================================================================
Input size (MB): 0.84
Forward/backward pass size (MB): 135.08
…
