Class counts: {'company': 648, 'date': 949, 'address': 449, 'total': 992, 'other': 12732}
Model summary:
===================================================================================================================
Layer (type:depth-idx)                   Input Shape               Output Shape              Param #
===================================================================================================================
ConfigurableGNN                          [104, 776]                [104, 5]                  --
├─ModuleList: 1-1                        --                        --                        --
│    └─GCNConv: 2-1                      [104, 776]                [104, 8000]               8,000
│    │    └─Linear: 3-1                  [104, 776]                [104, 8000]               6,208,000
│    │    └─SumAggregation: 3-2          [206, 8000]               [104, 8000]               --
│    └─GCNConv: 2-2                      [104, 8000]               [104, 8000]               8,000
│    │    └─Linear: 3-3                  [104, 8000]               [104, 8000]               64,000,000
│    │    └─SumAggregation: 3-4          [206, 8000]               [104, 8000]               --
│    └─GCNConv: 2-3                      [104, 8000]               [104, 8000]               8,000
│    │    └─Linear: 3-5                  [104, 8000]               [104, 8000]               64,000,000
│    │    └─SumAggregation: 3-6          [206, 8000]               [104, 8000]               --
├─ModuleList: 1-2                        --                        --                        --
│    └─GATConv: 2-4                      [104, 8000]               [104, 8000]               72,000
│    │    └─Linear: 3-7                  [104, 8000]               [104, 32000]              256,000,000
│    │    └─SumAggregation: 3-8          [206, 4, 8000]            [104, 4, 8000]            --
│    └─GATConv: 2-5                      [104, 8000]               [104, 8000]               72,000
│    │    └─Linear: 3-9                  [104, 8000]               [104, 32000]              256,000,000
│    │    └─SumAggregation: 3-10         [206, 4, 8000]            [104, 4, 8000]            --
│    └─GATConv: 2-6                      [104, 8000]               [104, 8000]               72,000
│    │    └─Linear: 3-11                 [104, 8000]               [104, 32000]              256,000,000
│    │    └─SumAggregation: 3-12         [206, 4, 8000]            [104, 4, 8000]            --
├─Linear: 1-3                            [104, 8000]               [104, 5]                  40,005
===================================================================================================================
Total params: 902,488,005
Trainable params: 902,488,005
Non-trainable params: 0
Total mult-adds (Units.GIGABYTES): 93.83
===================================================================================================================
Input size (MB): 0.32
Forward/backward pass size (MB): 99.84
…
