Class counts: {'company': 530, 'date': 635, 'address': 1233, 'total': 1341, 'other': 24088}
Model summary:
===================================================================================================================
Layer (type:depth-idx)                   Input Shape               Output Shape              Param #
===================================================================================================================
ConfigurableGNN                          [461, 776]                [461, 5]                  --
├─ModuleList: 1-1                        --                        --                        --
│    └─GCNConv: 2-1                      [461, 776]                [461, 5000]               5,000
│    │    └─Linear: 3-1                  [461, 776]                [461, 5000]               3,880,000
│    │    └─SumAggregation: 3-2          [914, 5000]               [461, 5000]               --
│    └─GCNConv: 2-2                      [461, 5000]               [461, 5000]               5,000
│    │    └─Linear: 3-3                  [461, 5000]               [461, 5000]               25,000,000
│    │    └─SumAggregation: 3-4          [914, 5000]               [461, 5000]               --
│    └─GCNConv: 2-3                      [461, 5000]               [461, 5000]               5,000
│    │    └─Linear: 3-5                  [461, 5000]               [461, 5000]               25,000,000
│    │    └─SumAggregation: 3-6          [914, 5000]               [461, 5000]               --
│    └─GCNConv: 2-4                      [461, 5000]               [461, 5000]               5,000
│    │    └─Linear: 3-7                  [461, 5000]               [461, 5000]               25,000,000
│    │    └─SumAggregation: 3-8          [914, 5000]               [461, 5000]               --
├─ModuleList: 1-2                        --                        --                        --
│    └─GATConv: 2-5                      [461, 5000]               [461, 5000]               15,000
│    │    └─Linear: 3-9                  [461, 5000]               [461, 5000]               25,000,000
│    │    └─SumAggregation: 3-10         [914, 1, 5000]            [461, 1, 5000]            --
│    └─GATConv: 2-6                      [461, 5000]               [461, 5000]               15,000
│    │    └─Linear: 3-11                 [461, 5000]               [461, 5000]               25,000,000
│    │    └─SumAggregation: 3-12         [914, 1, 5000]            [461, 1, 5000]            --
│    └─GATConv: 2-7                      [461, 5000]               [461, 5000]               15,000
│    │    └─Linear: 3-13                 [461, 5000]               [461, 5000]               25,000,000
│    │    └─SumAggregation: 3-14         [914, 1, 5000]            [461, 1, 5000]            --
│    └─GATConv: 2-8                      [461, 5000]               [461, 5000]               15,000
│    │    └─Linear: 3-15                 [461, 5000]               [461, 5000]               25,000,000
│    │    └─SumAggregation: 3-16         [914, 1, 5000]            [461, 1, 5000]            --
├─SpatialAttentionLayer: 1-3             [461, 5000]               [461, 5000]               --
│    └─Linear: 2-9                       [461, 5000]               [461, 5000]               25,005,000
│    └─Linear: 2-10                      [461, 5000]               [461, 5000]               25,005,000
│    └─Linear: 2-11                      [461, 5000]               [461, 5000]               25,005,000
├─Linear: 1-4                            [461, 5000]               [461, 5]                  25,005
===================================================================================================================
Total params: 254,000,005
Trainable params: 254,000,005
Non-trainable params: 0
Total mult-adds (Units.GIGABYTES): 117.06
===================================================================================================================
Input size (MB): 1.44
Forward/backward pass size (MB): 202.86
…
