Class counts: {'company': 530, 'date': 635, 'address': 1233, 'total': 1341, 'other': 24088}
Model summary:
===================================================================================================================
Layer (type:depth-idx)                   Input Shape               Output Shape              Param #
===================================================================================================================
ConfigurableGNN                          [170, 776]                [170, 5]                  --
├─ModuleList: 1-1                        --                        --                        --
│    └─GCNConv: 2-1                      [170, 776]                [170, 5000]               5,000
│    │    └─Linear: 3-1                  [170, 776]                [170, 5000]               3,880,000
│    │    └─SumAggregation: 3-2          [336, 5000]               [170, 5000]               --
│    └─GCNConv: 2-2                      [170, 5000]               [170, 5000]               5,000
│    │    └─Linear: 3-3                  [170, 5000]               [170, 5000]               25,000,000
│    │    └─SumAggregation: 3-4          [336, 5000]               [170, 5000]               --
│    └─GCNConv: 2-3                      [170, 5000]               [170, 5000]               5,000
│    │    └─Linear: 3-5                  [170, 5000]               [170, 5000]               25,000,000
│    │    └─SumAggregation: 3-6          [336, 5000]               [170, 5000]               --
├─ModuleList: 1-2                        --                        --                        --
│    └─GATConv: 2-4                      [170, 5000]               [170, 5000]               125,000
│    │    └─Linear: 3-7                  [170, 5000]               [170, 60000]              300,000,000
│    │    └─SumAggregation: 3-8          [336, 12, 5000]           [170, 12, 5000]           --
│    └─GATConv: 2-5                      [170, 5000]               [170, 5000]               125,000
│    │    └─Linear: 3-9                  [170, 5000]               [170, 60000]              300,000,000
│    │    └─SumAggregation: 3-10         [336, 12, 5000]           [170, 12, 5000]           --
│    └─GATConv: 2-6                      [170, 5000]               [170, 5000]               125,000
│    │    └─Linear: 3-11                 [170, 5000]               [170, 60000]              300,000,000
│    │    └─SumAggregation: 3-12         [336, 12, 5000]           [170, 12, 5000]           --
├─Linear: 1-3                            [170, 5000]               [170, 5]                  25,005
===================================================================================================================
Total params: 954,295,005
Trainable params: 954,295,005
Non-trainable params: 0
Total mult-adds (Units.GIGABYTES): 162.16
===================================================================================================================
Input size (MB): 0.53
Forward/backward pass size (MB): 265.21
…
