Class counts: {'company': 648, 'date': 949, 'address': 449, 'total': 992, 'other': 12732}
Model summary:
===================================================================================================================
Layer (type:depth-idx)                   Input Shape               Output Shape              Param #
===================================================================================================================
ConfigurableGNN                          [218, 776]                [218, 5]                  --
├─ModuleList: 1-1                        --                        --                        --
│    └─GCNConv: 2-1                      [218, 776]                [218, 4096]               4,096
│    │    └─Linear: 3-1                  [218, 776]                [218, 4096]               3,178,496
│    │    └─SumAggregation: 3-2          [432, 4096]               [218, 4096]               --
│    └─GCNConv: 2-2                      [218, 4096]               [218, 4096]               4,096
│    │    └─Linear: 3-3                  [218, 4096]               [218, 4096]               16,777,216
│    │    └─SumAggregation: 3-4          [432, 4096]               [218, 4096]               --
│    └─GCNConv: 2-3                      [218, 4096]               [218, 4096]               4,096
│    │    └─Linear: 3-5                  [218, 4096]               [218, 4096]               16,777,216
│    │    └─SumAggregation: 3-6          [432, 4096]               [218, 4096]               --
├─ModuleList: 1-2                        --                        --                        --
│    └─GATConv: 2-4                      [218, 4096]               [218, 4096]               36,864
│    │    └─Linear: 3-7                  [218, 4096]               [218, 16384]              67,108,864
│    │    └─SumAggregation: 3-8          [432, 4, 4096]            [218, 4, 4096]            --
│    └─GATConv: 2-5                      [218, 4096]               [218, 4096]               36,864
│    │    └─Linear: 3-9                  [218, 4096]               [218, 16384]              67,108,864
│    │    └─SumAggregation: 3-10         [432, 4, 4096]            [218, 4, 4096]            --
│    └─GATConv: 2-6                      [218, 4096]               [218, 4096]               36,864
│    │    └─Linear: 3-11                 [218, 4096]               [218, 16384]              67,108,864
│    │    └─SumAggregation: 3-12         [432, 4, 4096]            [218, 4, 4096]            --
├─Linear: 1-3                            [218, 4096]               [218, 5]                  20,485
===================================================================================================================
Total params: 238,202,885
Trainable params: 238,202,885
Non-trainable params: 0
Total mult-adds (Units.GIGABYTES): 51.90
===================================================================================================================
Input size (MB): 0.68
Forward/backward pass size (MB): 107.16
…
