Class counts: {'company': 530, 'date': 635, 'address': 1233, 'total': 1341, 'other': 24088}
Model summary:
===================================================================================================================
Layer (type:depth-idx)                   Input Shape               Output Shape              Param #
===================================================================================================================
ConfigurableGNN                          [270, 776]                [270, 5]                  --
├─ModuleList: 1-1                        --                        --                        --
│    └─GCNConv: 2-1                      [270, 776]                [270, 4096]               4,096
│    │    └─Linear: 3-1                  [270, 776]                [270, 4096]               3,178,496
│    │    └─SumAggregation: 3-2          [536, 4096]               [270, 4096]               --
│    └─GCNConv: 2-2                      [270, 4096]               [270, 4096]               4,096
│    │    └─Linear: 3-3                  [270, 4096]               [270, 4096]               16,777,216
│    │    └─SumAggregation: 3-4          [536, 4096]               [270, 4096]               --
│    └─GCNConv: 2-3                      [270, 4096]               [270, 4096]               4,096
│    │    └─Linear: 3-5                  [270, 4096]               [270, 4096]               16,777,216
│    │    └─SumAggregation: 3-6          [536, 4096]               [270, 4096]               --
├─ModuleList: 1-2                        --                        --                        --
│    └─GATConv: 2-4                      [270, 4096]               [270, 4096]               12,288
│    │    └─Linear: 3-7                  [270, 4096]               [270, 4096]               16,777,216
│    │    └─SumAggregation: 3-8          [536, 1, 4096]            [270, 1, 4096]            --
│    └─GATConv: 2-5                      [270, 4096]               [270, 4096]               12,288
│    │    └─Linear: 3-9                  [270, 4096]               [270, 4096]               16,777,216
│    │    └─SumAggregation: 3-10         [536, 1, 4096]            [270, 1, 4096]            --
│    └─GATConv: 2-6                      [270, 4096]               [270, 4096]               12,288
│    │    └─Linear: 3-11                 [270, 4096]               [270, 4096]               16,777,216
│    │    └─SumAggregation: 3-12         [536, 1, 4096]            [270, 1, 4096]            --
├─SpatialAttentionLayer: 1-3             [270, 4096]               [270, 4096]               --
│    └─Linear: 2-7                       [270, 4096]               [270, 4096]               16,781,312
│    └─Linear: 2-8                       [270, 4096]               [270, 4096]               16,781,312
│    └─Linear: 2-9                       [270, 4096]               [270, 4096]               16,781,312
├─Linear: 1-4                            [270, 4096]               [270, 5]                  20,485
===================================================================================================================
Total params: 137,478,149
Trainable params: 137,478,149
Non-trainable params: 0
Total mult-adds (Units.GIGABYTES): 37.11
===================================================================================================================
Input size (MB): 0.84
Forward/backward pass size (MB): 79.64
…
