Class counts: {'company': 530, 'date': 635, 'address': 1233, 'total': 1341, 'other': 24088}
Model summary:
===================================================================================================================
Layer (type:depth-idx)                   Input Shape               Output Shape              Param #
===================================================================================================================
ConfigurableGNN                          [352, 776]                [352, 5]                  --
├─ModuleList: 1-1                        --                        --                        --
│    └─GCNConv: 2-1                      [352, 776]                [352, 5000]               5,000
│    │    └─Linear: 3-1                  [352, 776]                [352, 5000]               3,880,000
│    │    └─SumAggregation: 3-2          [696, 5000]               [352, 5000]               --
│    └─GCNConv: 2-2                      [352, 5000]               [352, 5000]               5,000
│    │    └─Linear: 3-3                  [352, 5000]               [352, 5000]               25,000,000
│    │    └─SumAggregation: 3-4          [696, 5000]               [352, 5000]               --
│    └─GCNConv: 2-3                      [352, 5000]               [352, 5000]               5,000
│    │    └─Linear: 3-5                  [352, 5000]               [352, 5000]               25,000,000
│    │    └─SumAggregation: 3-6          [696, 5000]               [352, 5000]               --
│    └─GCNConv: 2-4                      [352, 5000]               [352, 5000]               5,000
│    │    └─Linear: 3-7                  [352, 5000]               [352, 5000]               25,000,000
│    │    └─SumAggregation: 3-8          [696, 5000]               [352, 5000]               --
│    └─GCNConv: 2-5                      [352, 5000]               [352, 5000]               5,000
│    │    └─Linear: 3-9                  [352, 5000]               [352, 5000]               25,000,000
│    │    └─SumAggregation: 3-10         [696, 5000]               [352, 5000]               --
├─ModuleList: 1-2                        --                        --                        --
│    └─GATConv: 2-6                      [352, 5000]               [352, 5000]               15,000
│    │    └─Linear: 3-11                 [352, 5000]               [352, 5000]               25,000,000
│    │    └─SumAggregation: 3-12         [696, 1, 5000]            [352, 1, 5000]            --
│    └─GATConv: 2-7                      [352, 5000]               [352, 5000]               15,000
│    │    └─Linear: 3-13                 [352, 5000]               [352, 5000]               25,000,000
│    │    └─SumAggregation: 3-14         [696, 1, 5000]            [352, 1, 5000]            --
│    └─GATConv: 2-8                      [352, 5000]               [352, 5000]               15,000
│    │    └─Linear: 3-15                 [352, 5000]               [352, 5000]               25,000,000
│    │    └─SumAggregation: 3-16         [696, 1, 5000]            [352, 1, 5000]            --
│    └─GATConv: 2-9                      [352, 5000]               [352, 5000]               15,000
│    │    └─Linear: 3-17                 [352, 5000]               [352, 5000]               25,000,000
│    │    └─SumAggregation: 3-18         [696, 1, 5000]            [352, 1, 5000]            --
│    └─GATConv: 2-10                     [352, 5000]               [352, 5000]               15,000
│    │    └─Linear: 3-19                 [352, 5000]               [352, 5000]               25,000,000
│    │    └─SumAggregation: 3-20         [696, 1, 5000]            [352, 1, 5000]            --
├─SpatialAttentionLayer: 1-3             [352, 5000]               [352, 5000]               --
│    └─Linear: 2-11                      [352, 5000]               [352, 5000]               25,005,000
│    └─Linear: 2-12                      [352, 5000]               [352, 5000]               25,005,000
│    └─Linear: 2-13                      [352, 5000]               [352, 5000]               25,005,000
├─Linear: 1-4                            [352, 5000]               [352, 5]                  25,005
===================================================================================================================
Total params: 304,020,005
Trainable params: 304,020,005
Non-trainable params: 0
Total mult-adds (Units.GIGABYTES): 106.98
===================================================================================================================
Input size (MB): 1.10
Forward/backward pass size (MB): 183.05
…
