Class counts: {'company': 648, 'date': 949, 'address': 449, 'total': 992, 'other': 12732}
Model summary:
===================================================================================================================
Layer (type:depth-idx)                   Input Shape               Output Shape              Param #
===================================================================================================================
ConfigurableGNN                          [158, 776]                [158, 5]                  --
├─ModuleList: 1-1                        --                        --                        --
│    └─GCNConv: 2-1                      [158, 776]                [158, 6000]               6,000
│    │    └─Linear: 3-1                  [158, 776]                [158, 6000]               4,656,000
│    │    └─SumAggregation: 3-2          [312, 6000]               [158, 6000]               --
│    └─GCNConv: 2-2                      [158, 6000]               [158, 6000]               6,000
│    │    └─Linear: 3-3                  [158, 6000]               [158, 6000]               36,000,000
│    │    └─SumAggregation: 3-4          [312, 6000]               [158, 6000]               --
│    └─GCNConv: 2-3                      [158, 6000]               [158, 6000]               6,000
│    │    └─Linear: 3-5                  [158, 6000]               [158, 6000]               36,000,000
│    │    └─SumAggregation: 3-6          [312, 6000]               [158, 6000]               --
├─ModuleList: 1-2                        --                        --                        --
│    └─GATConv: 2-4                      [158, 6000]               [158, 6000]               30,000
│    │    └─Linear: 3-7                  [158, 6000]               [158, 12000]              72,000,000
│    │    └─SumAggregation: 3-8          [312, 2, 6000]            [158, 2, 6000]            --
│    └─GATConv: 2-5                      [158, 6000]               [158, 6000]               30,000
│    │    └─Linear: 3-9                  [158, 6000]               [158, 12000]              72,000,000
│    │    └─SumAggregation: 3-10         [312, 2, 6000]            [158, 2, 6000]            --
│    └─GATConv: 2-6                      [158, 6000]               [158, 6000]               30,000
│    │    └─Linear: 3-11                 [158, 6000]               [158, 12000]              72,000,000
│    │    └─SumAggregation: 3-12         [312, 2, 6000]            [158, 2, 6000]            --
├─Linear: 1-3                            [158, 6000]               [158, 5]                  30,005
===================================================================================================================
Total params: 292,794,005
Trainable params: 292,794,005
Non-trainable params: 0
Total mult-adds (Units.GIGABYTES): 46.24
===================================================================================================================
Input size (MB): 0.49
Forward/backward pass size (MB): 68.26
…
