Class counts: {'company': 530, 'date': 635, 'address': 1233, 'total': 1341, 'other': 24088}
Model summary:
===================================================================================================================
Layer (type:depth-idx)                   Input Shape               Output Shape              Param #
===================================================================================================================
ConfigurableGNN                          [229, 776]                [229, 5]                  --
├─ModuleList: 1-1                        --                        --                        --
│    └─GCNConv: 2-1                      [229, 776]                [229, 768]                768
│    │    └─Linear: 3-1                  [229, 776]                [229, 768]                595,968
│    │    └─SumAggregation: 3-2          [454, 768]                [229, 768]                --
│    └─GCNConv: 2-2                      [229, 768]                [229, 768]                768
│    │    └─Linear: 3-3                  [229, 768]                [229, 768]                589,824
│    │    └─SumAggregation: 3-4          [454, 768]                [229, 768]                --
│    └─GCNConv: 2-3                      [229, 768]                [229, 768]                768
│    │    └─Linear: 3-5                  [229, 768]                [229, 768]                589,824
│    │    └─SumAggregation: 3-6          [454, 768]                [229, 768]                --
├─ModuleList: 1-2                        --                        --                        --
│    └─GATConv: 2-4                      [229, 768]                [229, 768]                2,304
│    │    └─Linear: 3-7                  [229, 768]                [229, 768]                589,824
│    │    └─SumAggregation: 3-8          [454, 1, 768]             [229, 1, 768]             --
│    └─GATConv: 2-5                      [229, 768]                [229, 768]                2,304
│    │    └─Linear: 3-9                  [229, 768]                [229, 768]                589,824
│    │    └─SumAggregation: 3-10         [454, 1, 768]             [229, 1, 768]             --
│    └─GATConv: 2-6                      [229, 768]                [229, 768]                2,304
│    │    └─Linear: 3-11                 [229, 768]                [229, 768]                589,824
│    │    └─SumAggregation: 3-12         [454, 1, 768]             [229, 1, 768]             --
├─SpatialAttentionLayer: 1-3             [229, 768]                [229, 768]                --
│    └─Linear: 2-7                       [229, 768]                [229, 768]                590,592
│    └─Linear: 2-8                       [229, 768]                [229, 768]                590,592
│    └─Linear: 2-9                       [229, 768]                [229, 768]                590,592
├─Linear: 1-4                            [229, 768]                [229, 5]                  3,845
===================================================================================================================
Total params: 5,329,925
Trainable params: 5,329,925
Non-trainable params: 0
Total mult-adds (Units.GIGABYTES): 1.22
===================================================================================================================
Input size (MB): 0.71
Forward/backward pass size (MB): 12.67
…
