Class counts: {'company': 681, 'date': 956, 'address': 460, 'total': 1018, 'other': 12655}
Model summary:
===================================================================================================================
Layer (type:depth-idx)                   Input Shape               Output Shape              Param #
===================================================================================================================
ConfigurableGNN                          [203, 776]                [203, 5]                  --
├─ModuleList: 1-1                        --                        --                        --
│    └─GCNConv: 2-1                      [203, 776]                [203, 5000]               5,000
│    │    └─Linear: 3-1                  [203, 776]                [203, 5000]               3,880,000
│    │    └─SumAggregation: 3-2          [402, 5000]               [203, 5000]               --
│    └─GCNConv: 2-2                      [203, 5000]               [203, 5000]               5,000
│    │    └─Linear: 3-3                  [203, 5000]               [203, 5000]               25,000,000
│    │    └─SumAggregation: 3-4          [402, 5000]               [203, 5000]               --
│    └─GCNConv: 2-3                      [203, 5000]               [203, 5000]               5,000
│    │    └─Linear: 3-5                  [203, 5000]               [203, 5000]               25,000,000
│    │    └─SumAggregation: 3-6          [402, 5000]               [203, 5000]               --
│    └─GCNConv: 2-4                      [203, 5000]               [203, 5000]               5,000
│    │    └─Linear: 3-7                  [203, 5000]               [203, 5000]               25,000,000
│    │    └─SumAggregation: 3-8          [402, 5000]               [203, 5000]               --
├─ModuleList: 1-2                        --                        --                        --
│    └─GATConv: 2-5                      [203, 5000]               [203, 5000]               45,000
│    │    └─Linear: 3-9                  [203, 5000]               [203, 20000]              100,000,000
│    │    └─SumAggregation: 3-10         [402, 4, 5000]            [203, 4, 5000]            --
│    └─GATConv: 2-6                      [203, 5000]               [203, 5000]               45,000
│    │    └─Linear: 3-11                 [203, 5000]               [203, 20000]              100,000,000
│    │    └─SumAggregation: 3-12         [402, 4, 5000]            [203, 4, 5000]            --
│    └─GATConv: 2-7                      [203, 5000]               [203, 5000]               45,000
│    │    └─Linear: 3-13                 [203, 5000]               [203, 20000]              100,000,000
│    │    └─SumAggregation: 3-14         [402, 4, 5000]            [203, 4, 5000]            --
│    └─GATConv: 2-8                      [203, 5000]               [203, 5000]               45,000
│    │    └─Linear: 3-15                 [203, 5000]               [203, 20000]              100,000,000
│    │    └─SumAggregation: 3-16         [402, 4, 5000]            [203, 4, 5000]            --
├─Linear: 1-3                            [203, 5000]               [203, 5]                  25,005
===================================================================================================================
Total params: 479,105,005
Trainable params: 479,105,005
Non-trainable params: 0
Total mult-adds (Units.GIGABYTES): 97.22
===================================================================================================================
Input size (MB): 0.63
Forward/backward pass size (MB): 162.41
…
