Class counts: {'company': 648, 'date': 949, 'address': 449, 'total': 992, 'other': 12732}
Model summary:
===================================================================================================================
Layer (type:depth-idx)                   Input Shape               Output Shape              Param #
===================================================================================================================
ConfigurableGNN                          [163, 776]                [163, 5]                  --
├─ModuleList: 1-1                        --                        --                        --
│    └─GCNConv: 2-1                      [163, 776]                [163, 5000]               5,000
│    │    └─Linear: 3-1                  [163, 776]                [163, 5000]               3,880,000
│    │    └─SumAggregation: 3-2          [322, 5000]               [163, 5000]               --
│    └─GCNConv: 2-2                      [163, 5000]               [163, 5000]               5,000
│    │    └─Linear: 3-3                  [163, 5000]               [163, 5000]               25,000,000
│    │    └─SumAggregation: 3-4          [322, 5000]               [163, 5000]               --
│    └─GCNConv: 2-3                      [163, 5000]               [163, 5000]               5,000
│    │    └─Linear: 3-5                  [163, 5000]               [163, 5000]               25,000,000
│    │    └─SumAggregation: 3-6          [322, 5000]               [163, 5000]               --
├─ModuleList: 1-2                        --                        --                        --
│    └─GATConv: 2-4                      [163, 5000]               [163, 5000]               45,000
│    │    └─Linear: 3-7                  [163, 5000]               [163, 20000]              100,000,000
│    │    └─SumAggregation: 3-8          [322, 4, 5000]            [163, 4, 5000]            --
│    └─GATConv: 2-5                      [163, 5000]               [163, 5000]               45,000
│    │    └─Linear: 3-9                  [163, 5000]               [163, 20000]              100,000,000
│    │    └─SumAggregation: 3-10         [322, 4, 5000]            [163, 4, 5000]            --
│    └─GATConv: 2-6                      [163, 5000]               [163, 5000]               45,000
│    │    └─Linear: 3-11                 [163, 5000]               [163, 20000]              100,000,000
│    │    └─SumAggregation: 3-12         [322, 4, 5000]            [163, 4, 5000]            --
├─SpatialAttentionLayer: 1-3             [163, 5000]               [163, 5000]               --
│    └─Linear: 2-7                       [163, 5000]               [163, 5000]               25,005,000
│    └─Linear: 2-8                       [163, 5000]               [163, 5000]               25,005,000
│    └─Linear: 2-9                       [163, 5000]               [163, 5000]               25,005,000
├─Linear: 1-4                            [163, 5000]               [163, 5]                  25,005
===================================================================================================================
Total params: 429,070,005
Trainable params: 429,070,005
Non-trainable params: 0
Total mult-adds (Units.GIGABYTES): 69.91
===================================================================================================================
Input size (MB): 0.51
Forward/backward pass size (MB): 117.37
…
