Class counts: {'company': 530, 'date': 635, 'address': 1233, 'total': 1341, 'other': 24088}
Model summary:
===================================================================================================================
Layer (type:depth-idx)                   Input Shape               Output Shape              Param #
===================================================================================================================
ConfigurableGNN                          [286, 776]                [286, 5]                  --
├─ModuleList: 1-1                        --                        --                        --
│    └─GCNConv: 2-1                      [286, 776]                [286, 256]                256
│    │    └─Linear: 3-1                  [286, 776]                [286, 256]                198,656
│    │    └─SumAggregation: 3-2          [568, 256]                [286, 256]                --
│    └─GCNConv: 2-2                      [286, 256]                [286, 256]                256
│    │    └─Linear: 3-3                  [286, 256]                [286, 256]                65,536
│    │    └─SumAggregation: 3-4          [568, 256]                [286, 256]                --
│    └─GCNConv: 2-3                      [286, 256]                [286, 256]                256
│    │    └─Linear: 3-5                  [286, 256]                [286, 256]                65,536
│    │    └─SumAggregation: 3-6          [568, 256]                [286, 256]                --
│    └─GCNConv: 2-4                      [286, 256]                [286, 256]                256
│    │    └─Linear: 3-7                  [286, 256]                [286, 256]                65,536
│    │    └─SumAggregation: 3-8          [568, 256]                [286, 256]                --
├─ModuleList: 1-2                        --                        --                        --
│    └─GATConv: 2-5                      [286, 256]                [286, 256]                768
│    │    └─Linear: 3-9                  [286, 256]                [286, 256]                65,536
│    │    └─SumAggregation: 3-10         [568, 1, 256]             [286, 1, 256]             --
│    └─GATConv: 2-6                      [286, 256]                [286, 256]                768
│    │    └─Linear: 3-11                 [286, 256]                [286, 256]                65,536
│    │    └─SumAggregation: 3-12         [568, 1, 256]             [286, 1, 256]             --
│    └─GATConv: 2-7                      [286, 256]                [286, 256]                768
│    │    └─Linear: 3-13                 [286, 256]                [286, 256]                65,536
│    │    └─SumAggregation: 3-14         [568, 1, 256]             [286, 1, 256]             --
│    └─GATConv: 2-8                      [286, 256]                [286, 256]                768
│    │    └─Linear: 3-15                 [286, 256]                [286, 256]                65,536
│    │    └─SumAggregation: 3-16         [568, 1, 256]             [286, 1, 256]             --
├─SpatialAttentionLayer: 1-3             [286, 256]                [286, 256]                --
│    └─Linear: 2-9                       [286, 256]                [286, 256]                65,792
│    └─Linear: 2-10                      [286, 256]                [286, 256]                65,792
│    └─Linear: 2-11                      [286, 256]                [286, 256]                65,792
├─Linear: 1-4                            [286, 256]                [286, 5]                  1,285
===================================================================================================================
Total params: 860,165
Trainable params: 860,165
Non-trainable params: 0
Total mult-adds (Units.MEGABYTES): 244.84
===================================================================================================================
Input size (MB): 0.89
Forward/backward pass size (MB): 6.45
…
