Class counts: {'company': 530, 'date': 635, 'address': 1233, 'total': 1341, 'other': 24088}
Model summary:
===================================================================================================================
Layer (type:depth-idx)                   Input Shape               Output Shape              Param #
===================================================================================================================
ConfigurableGNN                          [166, 776]                [166, 5]                  --
├─ModuleList: 1-1                        --                        --                        --
│    └─GCNConv: 2-1                      [166, 776]                [166, 512]                512
│    │    └─Linear: 3-1                  [166, 776]                [166, 512]                397,312
│    │    └─SumAggregation: 3-2          [328, 512]                [166, 512]                --
│    └─GCNConv: 2-2                      [166, 512]                [166, 512]                512
│    │    └─Linear: 3-3                  [166, 512]                [166, 512]                262,144
│    │    └─SumAggregation: 3-4          [328, 512]                [166, 512]                --
│    └─GCNConv: 2-3                      [166, 512]                [166, 512]                512
│    │    └─Linear: 3-5                  [166, 512]                [166, 512]                262,144
│    │    └─SumAggregation: 3-6          [328, 512]                [166, 512]                --
├─ModuleList: 1-2                        --                        --                        --
│    └─GATConv: 2-4                      [166, 512]                [166, 512]                1,536
│    │    └─Linear: 3-7                  [166, 512]                [166, 512]                262,144
│    │    └─SumAggregation: 3-8          [328, 1, 512]             [166, 1, 512]             --
│    └─GATConv: 2-5                      [166, 512]                [166, 512]                1,536
│    │    └─Linear: 3-9                  [166, 512]                [166, 512]                262,144
│    │    └─SumAggregation: 3-10         [328, 1, 512]             [166, 1, 512]             --
│    └─GATConv: 2-6                      [166, 512]                [166, 512]                1,536
│    │    └─Linear: 3-11                 [166, 512]                [166, 512]                262,144
│    │    └─SumAggregation: 3-12         [328, 1, 512]             [166, 1, 512]             --
├─SpatialAttentionLayer: 1-3             [166, 512]                [166, 512]                --
│    └─Linear: 2-7                       [166, 512]                [166, 512]                262,656
│    └─Linear: 2-8                       [166, 512]                [166, 512]                262,656
│    └─Linear: 2-9                       [166, 512]                [166, 512]                262,656
├─Linear: 1-4                            [166, 512]                [166, 5]                  2,565
===================================================================================================================
Total params: 2,504,709
Trainable params: 2,504,709
Non-trainable params: 0
Total mult-adds (Units.MEGABYTES): 414.76
===================================================================================================================
Input size (MB): 0.52
Forward/backward pass size (MB): 6.13
…
