Class counts: {'company': 530, 'date': 635, 'address': 1233, 'total': 1341, 'other': 24088}
Model summary:
===================================================================================================================
Layer (type:depth-idx)                   Input Shape               Output Shape              Param #
===================================================================================================================
ConfigurableGNN                          [222, 776]                [222, 5]                  --
├─ModuleList: 1-1                        --                        --                        --
│    └─GCNConv: 2-1                      [222, 776]                [222, 4096]               4,096
│    │    └─Linear: 3-1                  [222, 776]                [222, 4096]               3,178,496
│    │    └─SumAggregation: 3-2          [440, 4096]               [222, 4096]               --
│    └─GCNConv: 2-2                      [222, 4096]               [222, 4096]               4,096
│    │    └─Linear: 3-3                  [222, 4096]               [222, 4096]               16,777,216
│    │    └─SumAggregation: 3-4          [440, 4096]               [222, 4096]               --
│    └─GCNConv: 2-3                      [222, 4096]               [222, 4096]               4,096
│    │    └─Linear: 3-5                  [222, 4096]               [222, 4096]               16,777,216
│    │    └─SumAggregation: 3-6          [440, 4096]               [222, 4096]               --
├─ModuleList: 1-2                        --                        --                        --
│    └─GATConv: 2-4                      [222, 4096]               [222, 4096]               69,632
│    │    └─Linear: 3-7                  [222, 4096]               [222, 32768]              134,217,728
│    │    └─SumAggregation: 3-8          [440, 8, 4096]            [222, 8, 4096]            --
│    └─GATConv: 2-5                      [222, 4096]               [222, 4096]               69,632
│    │    └─Linear: 3-9                  [222, 4096]               [222, 32768]              134,217,728
│    │    └─SumAggregation: 3-10         [440, 8, 4096]            [222, 8, 4096]            --
│    └─GATConv: 2-6                      [222, 4096]               [222, 4096]               69,632
│    │    └─Linear: 3-11                 [222, 4096]               [222, 32768]              134,217,728
│    │    └─SumAggregation: 3-12         [440, 8, 4096]            [222, 8, 4096]            --
├─Linear: 1-3                            [222, 4096]               [222, 5]                  20,485
===================================================================================================================
Total params: 439,627,781
Trainable params: 439,627,781
Non-trainable params: 0
Total mult-adds (Units.GIGABYTES): 97.55
===================================================================================================================
Input size (MB): 0.69
Forward/backward pass size (MB): 196.42
…
