Class counts: {'company': 530, 'date': 635, 'address': 1233, 'total': 1341, 'other': 24088}
Model summary:
===================================================================================================================
Layer (type:depth-idx)                   Input Shape               Output Shape              Param #
===================================================================================================================
ConfigurableGNN                          [219, 776]                [219, 5]                  --
├─ModuleList: 1-1                        --                        --                        --
│    └─GCNConv: 2-1                      [219, 776]                [219, 4096]               4,096
│    │    └─Linear: 3-1                  [219, 776]                [219, 4096]               3,178,496
│    │    └─SumAggregation: 3-2          [434, 4096]               [219, 4096]               --
│    └─GCNConv: 2-2                      [219, 4096]               [219, 4096]               4,096
│    │    └─Linear: 3-3                  [219, 4096]               [219, 4096]               16,777,216
│    │    └─SumAggregation: 3-4          [434, 4096]               [219, 4096]               --
│    └─GCNConv: 2-3                      [219, 4096]               [219, 4096]               4,096
│    │    └─Linear: 3-5                  [219, 4096]               [219, 4096]               16,777,216
│    │    └─SumAggregation: 3-6          [434, 4096]               [219, 4096]               --
│    └─GCNConv: 2-4                      [219, 4096]               [219, 4096]               4,096
│    │    └─Linear: 3-7                  [219, 4096]               [219, 4096]               16,777,216
│    │    └─SumAggregation: 3-8          [434, 4096]               [219, 4096]               --
├─ModuleList: 1-2                        --                        --                        --
│    └─GATConv: 2-5                      [219, 4096]               [219, 4096]               12,288
│    │    └─Linear: 3-9                  [219, 4096]               [219, 4096]               16,777,216
│    │    └─SumAggregation: 3-10         [434, 1, 4096]            [219, 1, 4096]            --
│    └─GATConv: 2-6                      [219, 4096]               [219, 4096]               12,288
│    │    └─Linear: 3-11                 [219, 4096]               [219, 4096]               16,777,216
│    │    └─SumAggregation: 3-12         [434, 1, 4096]            [219, 1, 4096]            --
│    └─GATConv: 2-7                      [219, 4096]               [219, 4096]               12,288
│    │    └─Linear: 3-13                 [219, 4096]               [219, 4096]               16,777,216
│    │    └─SumAggregation: 3-14         [434, 1, 4096]            [219, 1, 4096]            --
│    └─GATConv: 2-8                      [219, 4096]               [219, 4096]               12,288
│    │    └─Linear: 3-15                 [219, 4096]               [219, 4096]               16,777,216
│    │    └─SumAggregation: 3-16         [434, 1, 4096]            [219, 1, 4096]            --
├─SpatialAttentionLayer: 1-3             [219, 4096]               [219, 4096]               --
│    └─Linear: 2-9                       [219, 4096]               [219, 4096]               16,781,312
│    └─Linear: 2-10                      [219, 4096]               [219, 4096]               16,781,312
│    └─Linear: 2-11                      [219, 4096]               [219, 4096]               16,781,312
├─Linear: 1-4                            [219, 4096]               [219, 5]                  20,485
===================================================================================================================
Total params: 171,048,965
Trainable params: 171,048,965
Non-trainable params: 0
Total mult-adds (Units.GIGABYTES): 37.45
===================================================================================================================
Input size (MB): 0.68
Forward/backward pass size (MB): 78.95
…
