Class counts: {'company': 648, 'date': 949, 'address': 449, 'total': 992, 'other': 12732}
Model summary:
===================================================================================================================
Layer (type:depth-idx)                   Input Shape               Output Shape              Param #
===================================================================================================================
ConfigurableGNN                          [248, 776]                [248, 5]                  --
├─ModuleList: 1-1                        --                        --                        --
│    └─GCNConv: 2-1                      [248, 776]                [248, 5000]               5,000
│    │    └─Linear: 3-1                  [248, 776]                [248, 5000]               3,880,000
│    │    └─SumAggregation: 3-2          [492, 5000]               [248, 5000]               --
│    └─GCNConv: 2-2                      [248, 5000]               [248, 5000]               5,000
│    │    └─Linear: 3-3                  [248, 5000]               [248, 5000]               25,000,000
│    │    └─SumAggregation: 3-4          [492, 5000]               [248, 5000]               --
│    └─GCNConv: 2-3                      [248, 5000]               [248, 5000]               5,000
│    │    └─Linear: 3-5                  [248, 5000]               [248, 5000]               25,000,000
│    │    └─SumAggregation: 3-6          [492, 5000]               [248, 5000]               --
├─ModuleList: 1-2                        --                        --                        --
│    └─GATConv: 2-4                      [248, 5000]               [248, 5000]               45,000
│    │    └─Linear: 3-7                  [248, 5000]               [248, 20000]              100,000,000
│    │    └─SumAggregation: 3-8          [492, 4, 5000]            [248, 4, 5000]            --
│    └─GATConv: 2-5                      [248, 5000]               [248, 5000]               45,000
│    │    └─Linear: 3-9                  [248, 5000]               [248, 20000]              100,000,000
│    │    └─SumAggregation: 3-10         [492, 4, 5000]            [248, 4, 5000]            --
│    └─GATConv: 2-6                      [248, 5000]               [248, 5000]               45,000
│    │    └─Linear: 3-11                 [248, 5000]               [248, 20000]              100,000,000
│    │    └─SumAggregation: 3-12         [492, 4, 5000]            [248, 4, 5000]            --
├─Linear: 1-3                            [248, 5000]               [248, 5]                  25,005
===================================================================================================================
Total params: 354,055,005
Trainable params: 354,055,005
Non-trainable params: 0
Total mult-adds (Units.GIGABYTES): 87.77
===================================================================================================================
Input size (MB): 0.77
Forward/backward pass size (MB): 148.81
…
