Class counts: {'company': 648, 'date': 949, 'address': 449, 'total': 992, 'other': 12732}
Model summary:
===================================================================================================================
Layer (type:depth-idx)                   Input Shape               Output Shape              Param #
===================================================================================================================
ConfigurableGNN                          [174, 776]                [174, 5]                  --
├─ModuleList: 1-1                        --                        --                        --
│    └─GCNConv: 2-1                      [174, 776]                [174, 4000]               4,000
│    │    └─Linear: 3-1                  [174, 776]                [174, 4000]               3,104,000
│    │    └─SumAggregation: 3-2          [344, 4000]               [174, 4000]               --
│    └─GCNConv: 2-2                      [174, 4000]               [174, 4000]               4,000
│    │    └─Linear: 3-3                  [174, 4000]               [174, 4000]               16,000,000
│    │    └─SumAggregation: 3-4          [344, 4000]               [174, 4000]               --
│    └─GCNConv: 2-3                      [174, 4000]               [174, 4000]               4,000
│    │    └─Linear: 3-5                  [174, 4000]               [174, 4000]               16,000,000
│    │    └─SumAggregation: 3-6          [344, 4000]               [174, 4000]               --
│    └─GCNConv: 2-4                      [174, 4000]               [174, 4000]               4,000
│    │    └─Linear: 3-7                  [174, 4000]               [174, 4000]               16,000,000
│    │    └─SumAggregation: 3-8          [344, 4000]               [174, 4000]               --
├─ModuleList: 1-2                        --                        --                        --
│    └─GATConv: 2-5                      [174, 4000]               [174, 4000]               36,000
│    │    └─Linear: 3-9                  [174, 4000]               [174, 16000]              64,000,000
│    │    └─SumAggregation: 3-10         [344, 4, 4000]            [174, 4, 4000]            --
│    └─GATConv: 2-6                      [174, 4000]               [174, 4000]               36,000
│    │    └─Linear: 3-11                 [174, 4000]               [174, 16000]              64,000,000
│    │    └─SumAggregation: 3-12         [344, 4, 4000]            [174, 4, 4000]            --
│    └─GATConv: 2-7                      [174, 4000]               [174, 4000]               36,000
│    │    └─Linear: 3-13                 [174, 4000]               [174, 16000]              64,000,000
│    │    └─SumAggregation: 3-14         [344, 4, 4000]            [174, 4, 4000]            --
│    └─GATConv: 2-8                      [174, 4000]               [174, 4000]               36,000
│    │    └─Linear: 3-15                 [174, 4000]               [174, 16000]              64,000,000
│    │    └─SumAggregation: 3-16         [344, 4, 4000]            [174, 4, 4000]            --
├─Linear: 1-3                            [174, 4000]               [174, 5]                  20,005
===================================================================================================================
Total params: 307,284,005
Trainable params: 307,284,005
Non-trainable params: 0
Total mult-adds (Units.GIGABYTES): 53.44
===================================================================================================================
Input size (MB): 0.54
Forward/backward pass size (MB): 111.37
…
