Class counts: {'company': 530, 'date': 635, 'address': 1233, 'total': 1341, 'other': 24088}
Model summary:
===================================================================================================================
Layer (type:depth-idx)                   Input Shape               Output Shape              Param #
===================================================================================================================
ConfigurableGNN                          [274, 776]                [274, 5]                  --
├─ModuleList: 1-1                        --                        --                        --
│    └─GCNConv: 2-1                      [274, 776]                [274, 5000]               5,000
│    │    └─Linear: 3-1                  [274, 776]                [274, 5000]               3,880,000
│    │    └─SumAggregation: 3-2          [544, 5000]               [274, 5000]               --
│    └─GCNConv: 2-2                      [274, 5000]               [274, 5000]               5,000
│    │    └─Linear: 3-3                  [274, 5000]               [274, 5000]               25,000,000
│    │    └─SumAggregation: 3-4          [544, 5000]               [274, 5000]               --
│    └─GCNConv: 2-3                      [274, 5000]               [274, 5000]               5,000
│    │    └─Linear: 3-5                  [274, 5000]               [274, 5000]               25,000,000
│    │    └─SumAggregation: 3-6          [544, 5000]               [274, 5000]               --
├─ModuleList: 1-2                        --                        --                        --
│    └─GATConv: 2-4                      [274, 5000]               [274, 5000]               85,000
│    │    └─Linear: 3-7                  [274, 5000]               [274, 40000]              200,000,000
│    │    └─SumAggregation: 3-8          [544, 8, 5000]            [274, 8, 5000]            --
│    └─GATConv: 2-5                      [274, 5000]               [274, 5000]               85,000
│    │    └─Linear: 3-9                  [274, 5000]               [274, 40000]              200,000,000
│    │    └─SumAggregation: 3-10         [544, 8, 5000]            [274, 8, 5000]            --
│    └─GATConv: 2-6                      [274, 5000]               [274, 5000]               85,000
│    │    └─Linear: 3-11                 [274, 5000]               [274, 40000]              200,000,000
│    │    └─SumAggregation: 3-12         [544, 8, 5000]            [274, 8, 5000]            --
├─Linear: 1-3                            [274, 5000]               [274, 5]                  25,005
===================================================================================================================
Total params: 654,175,005
Trainable params: 654,175,005
Non-trainable params: 0
Total mult-adds (Units.GIGABYTES): 179.17
===================================================================================================================
Input size (MB): 0.85
Forward/backward pass size (MB): 295.93
…
