Class counts: {'company': 648, 'date': 949, 'address': 449, 'total': 992, 'other': 12732}
Model summary:
===================================================================================================================
Layer (type:depth-idx)                   Input Shape               Output Shape              Param #
===================================================================================================================
ConfigurableGNN                          [166, 776]                [166, 5]                  --
├─ModuleList: 1-1                        --                        --                        --
│    └─GCNConv: 2-1                      [166, 776]                [166, 5000]               5,000
│    │    └─Linear: 3-1                  [166, 776]                [166, 5000]               3,880,000
│    │    └─SumAggregation: 3-2          [328, 5000]               [166, 5000]               --
│    └─GCNConv: 2-2                      [166, 5000]               [166, 5000]               5,000
│    │    └─Linear: 3-3                  [166, 5000]               [166, 5000]               25,000,000
│    │    └─SumAggregation: 3-4          [328, 5000]               [166, 5000]               --
│    └─GCNConv: 2-3                      [166, 5000]               [166, 5000]               5,000
│    │    └─Linear: 3-5                  [166, 5000]               [166, 5000]               25,000,000
│    │    └─SumAggregation: 3-6          [328, 5000]               [166, 5000]               --
│    └─GCNConv: 2-4                      [166, 5000]               [166, 5000]               5,000
│    │    └─Linear: 3-7                  [166, 5000]               [166, 5000]               25,000,000
│    │    └─SumAggregation: 3-8          [328, 5000]               [166, 5000]               --
├─ModuleList: 1-2                        --                        --                        --
│    └─GATConv: 2-5                      [166, 5000]               [166, 5000]               45,000
│    │    └─Linear: 3-9                  [166, 5000]               [166, 20000]              100,000,000
│    │    └─SumAggregation: 3-10         [328, 4, 5000]            [166, 4, 5000]            --
│    └─GATConv: 2-6                      [166, 5000]               [166, 5000]               45,000
│    │    └─Linear: 3-11                 [166, 5000]               [166, 20000]              100,000,000
│    │    └─SumAggregation: 3-12         [328, 4, 5000]            [166, 4, 5000]            --
│    └─GATConv: 2-7                      [166, 5000]               [166, 5000]               45,000
│    │    └─Linear: 3-13                 [166, 5000]               [166, 20000]              100,000,000
│    │    └─SumAggregation: 3-14         [328, 4, 5000]            [166, 4, 5000]            --
│    └─GATConv: 2-8                      [166, 5000]               [166, 5000]               45,000
│    │    └─Linear: 3-15                 [166, 5000]               [166, 20000]              100,000,000
│    │    └─SumAggregation: 3-16         [328, 4, 5000]            [166, 4, 5000]            --
├─Linear: 1-3                            [166, 5000]               [166, 5]                  25,005
===================================================================================================================
Total params: 479,105,005
Trainable params: 479,105,005
Non-trainable params: 0
Total mult-adds (Units.GIGABYTES): 79.50
===================================================================================================================
Input size (MB): 0.52
Forward/backward pass size (MB): 132.81
…
