Class counts: {'company': 648, 'date': 949, 'address': 449, 'total': 992, 'other': 12732}
Model summary:
===================================================================================================================
Layer (type:depth-idx)                   Input Shape               Output Shape              Param #
===================================================================================================================
ConfigurableGNN                          [147, 776]                [147, 5]                  --
├─ModuleList: 1-1                        --                        --                        --
│    └─GCNConv: 2-1                      [147, 776]                [147, 4096]               4,096
│    │    └─Linear: 3-1                  [147, 776]                [147, 4096]               3,178,496
│    │    └─SumAggregation: 3-2          [290, 4096]               [147, 4096]               --
│    └─GCNConv: 2-2                      [147, 4096]               [147, 4096]               4,096
│    │    └─Linear: 3-3                  [147, 4096]               [147, 4096]               16,777,216
│    │    └─SumAggregation: 3-4          [290, 4096]               [147, 4096]               --
│    └─GCNConv: 2-3                      [147, 4096]               [147, 4096]               4,096
│    │    └─Linear: 3-5                  [147, 4096]               [147, 4096]               16,777,216
│    │    └─SumAggregation: 3-6          [290, 4096]               [147, 4096]               --
├─ModuleList: 1-2                        --                        --                        --
│    └─GATConv: 2-4                      [147, 4096]               [147, 4096]               36,864
│    │    └─Linear: 3-7                  [147, 4096]               [147, 16384]              67,108,864
│    │    └─SumAggregation: 3-8          [290, 4, 4096]            [147, 4, 4096]            --
│    └─GATConv: 2-5                      [147, 4096]               [147, 4096]               36,864
│    │    └─Linear: 3-9                  [147, 4096]               [147, 16384]              67,108,864
│    │    └─SumAggregation: 3-10         [290, 4, 4096]            [147, 4, 4096]            --
│    └─GATConv: 2-6                      [147, 4096]               [147, 4096]               36,864
│    │    └─Linear: 3-11                 [147, 4096]               [147, 16384]              67,108,864
│    │    └─SumAggregation: 3-12         [290, 4, 4096]            [147, 4, 4096]            --
├─SpatialAttentionLayer: 1-3             [147, 4096]               [147, 4096]               --
│    └─Linear: 2-7                       [147, 4096]               [147, 4096]               16,781,312
│    └─Linear: 2-8                       [147, 4096]               [147, 4096]               16,781,312
│    └─Linear: 2-9                       [147, 4096]               [147, 4096]               16,781,312
├─Linear: 1-4                            [147, 4096]               [147, 5]                  20,485
===================================================================================================================
Total params: 288,546,821
Trainable params: 288,546,821
Non-trainable params: 0
Total mult-adds (Units.GIGABYTES): 42.40
===================================================================================================================
Input size (MB): 0.46
Forward/backward pass size (MB): 86.71
…
