Class counts: {'company': 648, 'date': 949, 'address': 449, 'total': 992, 'other': 12732}
Model summary:
===================================================================================================================
Layer (type:depth-idx)                   Input Shape               Output Shape              Param #
===================================================================================================================
ConfigurableGNN                          [127, 776]                [127, 5]                  --
├─ModuleList: 1-1                        --                        --                        --
│    └─GCNConv: 2-1                      [127, 776]                [127, 5000]               5,000
│    │    └─Linear: 3-1                  [127, 776]                [127, 5000]               3,880,000
│    │    └─SumAggregation: 3-2          [250, 5000]               [127, 5000]               --
│    └─GCNConv: 2-2                      [127, 5000]               [127, 5000]               5,000
│    │    └─Linear: 3-3                  [127, 5000]               [127, 5000]               25,000,000
│    │    └─SumAggregation: 3-4          [250, 5000]               [127, 5000]               --
│    └─GCNConv: 2-3                      [127, 5000]               [127, 5000]               5,000
│    │    └─Linear: 3-5                  [127, 5000]               [127, 5000]               25,000,000
│    │    └─SumAggregation: 3-6          [250, 5000]               [127, 5000]               --
├─ModuleList: 1-2                        --                        --                        --
│    └─GATConv: 2-4                      [127, 5000]               [127, 5000]               45,000
│    │    └─Linear: 3-7                  [127, 5000]               [127, 20000]              100,000,000
│    │    └─SumAggregation: 3-8          [250, 4, 5000]            [127, 4, 5000]            --
│    └─GATConv: 2-5                      [127, 5000]               [127, 5000]               45,000
│    │    └─Linear: 3-9                  [127, 5000]               [127, 20000]              100,000,000
│    │    └─SumAggregation: 3-10         [250, 4, 5000]            [127, 4, 5000]            --
│    └─GATConv: 2-6                      [127, 5000]               [127, 5000]               45,000
│    │    └─Linear: 3-11                 [127, 5000]               [127, 20000]              100,000,000
│    │    └─SumAggregation: 3-12         [250, 4, 5000]            [127, 4, 5000]            --
├─Linear: 1-3                            [127, 5000]               [127, 5]                  25,005
===================================================================================================================
Total params: 354,055,005
Trainable params: 354,055,005
Non-trainable params: 0
Total mult-adds (Units.GIGABYTES): 44.95
===================================================================================================================
Input size (MB): 0.40
Forward/backward pass size (MB): 76.21
…
