Class counts: {'company': 530, 'date': 635, 'address': 1233, 'total': 1341, 'other': 24088}
Model summary:
===================================================================================================================
Layer (type:depth-idx)                   Input Shape               Output Shape              Param #
===================================================================================================================
ConfigurableGNN                          [213, 776]                [213, 5]                  --
├─ModuleList: 1-1                        --                        --                        --
│    └─GCNConv: 2-1                      [213, 776]                [213, 768]                768
│    │    └─Linear: 3-1                  [213, 776]                [213, 768]                595,968
│    │    └─SumAggregation: 3-2          [422, 768]                [213, 768]                --
│    └─GCNConv: 2-2                      [213, 768]                [213, 768]                768
│    │    └─Linear: 3-3                  [213, 768]                [213, 768]                589,824
│    │    └─SumAggregation: 3-4          [422, 768]                [213, 768]                --
│    └─GCNConv: 2-3                      [213, 768]                [213, 768]                768
│    │    └─Linear: 3-5                  [213, 768]                [213, 768]                589,824
│    │    └─SumAggregation: 3-6          [422, 768]                [213, 768]                --
├─ModuleList: 1-2                        --                        --                        --
│    └─GATConv: 2-4                      [213, 768]                [213, 768]                2,304
│    │    └─Linear: 3-7                  [213, 768]                [213, 768]                589,824
│    │    └─SumAggregation: 3-8          [422, 1, 768]             [213, 1, 768]             --
│    └─GATConv: 2-5                      [213, 768]                [213, 768]                2,304
│    │    └─Linear: 3-9                  [213, 768]                [213, 768]                589,824
│    │    └─SumAggregation: 3-10         [422, 1, 768]             [213, 1, 768]             --
│    └─GATConv: 2-6                      [213, 768]                [213, 768]                2,304
│    │    └─Linear: 3-11                 [213, 768]                [213, 768]                589,824
│    │    └─SumAggregation: 3-12         [422, 1, 768]             [213, 1, 768]             --
├─SpatialAttentionLayer: 1-3             [213, 768]                [213, 768]                --
│    └─Linear: 2-7                       [213, 768]                [213, 768]                590,592
│    └─Linear: 2-8                       [213, 768]                [213, 768]                590,592
│    └─Linear: 2-9                       [213, 768]                [213, 768]                590,592
├─Linear: 1-4                            [213, 768]                [213, 5]                  3,845
===================================================================================================================
Total params: 5,329,925
Trainable params: 5,329,925
Non-trainable params: 0
Total mult-adds (Units.GIGABYTES): 1.13
===================================================================================================================
Input size (MB): 0.66
Forward/backward pass size (MB): 11.79
…
