Class counts: {'company': 530, 'date': 635, 'address': 1233, 'total': 1341, 'other': 24088}
Model summary:
===================================================================================================================
Layer (type:depth-idx)                   Input Shape               Output Shape              Param #
===================================================================================================================
ConfigurableGNN                          [177, 776]                [177, 5]                  --
├─ModuleList: 1-1                        --                        --                        --
│    └─GCNConv: 2-1                      [177, 776]                [177, 64]                 64
│    │    └─Linear: 3-1                  [177, 776]                [177, 64]                 49,664
│    │    └─SumAggregation: 3-2          [350, 64]                 [177, 64]                 --
│    └─GCNConv: 2-2                      [177, 64]                 [177, 64]                 64
│    │    └─Linear: 3-3                  [177, 64]                 [177, 64]                 4,096
│    │    └─SumAggregation: 3-4          [350, 64]                 [177, 64]                 --
│    └─GCNConv: 2-3                      [177, 64]                 [177, 64]                 64
│    │    └─Linear: 3-5                  [177, 64]                 [177, 64]                 4,096
│    │    └─SumAggregation: 3-6          [350, 64]                 [177, 64]                 --
│    └─GCNConv: 2-4                      [177, 64]                 [177, 64]                 64
│    │    └─Linear: 3-7                  [177, 64]                 [177, 64]                 4,096
│    │    └─SumAggregation: 3-8          [350, 64]                 [177, 64]                 --
├─ModuleList: 1-2                        --                        --                        --
│    └─GATConv: 2-5                      [177, 64]                 [177, 64]                 192
│    │    └─Linear: 3-9                  [177, 64]                 [177, 64]                 4,096
│    │    └─SumAggregation: 3-10         [350, 1, 64]              [177, 1, 64]              --
│    └─GATConv: 2-6                      [177, 64]                 [177, 64]                 192
│    │    └─Linear: 3-11                 [177, 64]                 [177, 64]                 4,096
│    │    └─SumAggregation: 3-12         [350, 1, 64]              [177, 1, 64]              --
│    └─GATConv: 2-7                      [177, 64]                 [177, 64]                 192
│    │    └─Linear: 3-13                 [177, 64]                 [177, 64]                 4,096
│    │    └─SumAggregation: 3-14         [350, 1, 64]              [177, 1, 64]              --
│    └─GATConv: 2-8                      [177, 64]                 [177, 64]                 192
│    │    └─Linear: 3-15                 [177, 64]                 [177, 64]                 4,096
│    │    └─SumAggregation: 3-16         [350, 1, 64]              [177, 1, 64]              --
├─SpatialAttentionLayer: 1-3             [177, 64]                 [177, 64]                 --
│    └─Linear: 2-9                       [177, 64]                 [177, 64]                 4,160
│    └─Linear: 2-10                      [177, 64]                 [177, 64]                 4,160
│    └─Linear: 2-11                      [177, 64]                 [177, 64]                 4,160
├─Linear: 1-4                            [177, 64]                 [177, 5]                  325
===================================================================================================================
Total params: 92,165
Trainable params: 92,165
Non-trainable params: 0
Total mult-adds (Units.MEGABYTES): 16.13
===================================================================================================================
Input size (MB): 0.55
Forward/backward pass size (MB): 1.00
…
