Class counts: {'company': 530, 'date': 635, 'address': 1233, 'total': 1341, 'other': 24088}
Model summary:
===================================================================================================================
Layer (type:depth-idx)                   Input Shape               Output Shape              Param #
===================================================================================================================
ConfigurableGNN                          [155, 776]                [155, 5]                  --
├─ModuleList: 1-1                        --                        --                        --
│    └─GCNConv: 2-1                      [155, 776]                [155, 4096]               4,096
│    │    └─Linear: 3-1                  [155, 776]                [155, 4096]               3,178,496
│    │    └─SumAggregation: 3-2          [306, 4096]               [155, 4096]               --
│    └─GCNConv: 2-2                      [155, 4096]               [155, 4096]               4,096
│    │    └─Linear: 3-3                  [155, 4096]               [155, 4096]               16,777,216
│    │    └─SumAggregation: 3-4          [306, 4096]               [155, 4096]               --
│    └─GCNConv: 2-3                      [155, 4096]               [155, 4096]               4,096
│    │    └─Linear: 3-5                  [155, 4096]               [155, 4096]               16,777,216
│    │    └─SumAggregation: 3-6          [306, 4096]               [155, 4096]               --
├─ModuleList: 1-2                        --                        --                        --
│    └─GATConv: 2-4                      [155, 4096]               [155, 4096]               36,864
│    │    └─Linear: 3-7                  [155, 4096]               [155, 16384]              67,108,864
│    │    └─SumAggregation: 3-8          [306, 4, 4096]            [155, 4, 4096]            --
│    └─GATConv: 2-5                      [155, 4096]               [155, 4096]               36,864
│    │    └─Linear: 3-9                  [155, 4096]               [155, 16384]              67,108,864
│    │    └─SumAggregation: 3-10         [306, 4, 4096]            [155, 4, 4096]            --
│    └─GATConv: 2-6                      [155, 4096]               [155, 4096]               36,864
│    │    └─Linear: 3-11                 [155, 4096]               [155, 16384]              67,108,864
│    │    └─SumAggregation: 3-12         [306, 4, 4096]            [155, 4, 4096]            --
├─Linear: 1-3                            [155, 4096]               [155, 5]                  20,485
===================================================================================================================
Total params: 238,202,885
Trainable params: 238,202,885
Non-trainable params: 0
Total mult-adds (Units.GIGABYTES): 36.90
===================================================================================================================
Input size (MB): 0.48
Forward/backward pass size (MB): 76.19
…
