Class counts: {'company': 530, 'date': 635, 'address': 1233, 'total': 1341, 'other': 24088}
Model summary:
===================================================================================================================
Layer (type:depth-idx)                   Input Shape               Output Shape              Param #
===================================================================================================================
ConfigurableGNN                          [175, 776]                [175, 5]                  --
├─ModuleList: 1-1                        --                        --                        --
│    └─GCNConv: 2-1                      [175, 776]                [175, 2048]               2,048
│    │    └─Linear: 3-1                  [175, 776]                [175, 2048]               1,589,248
│    │    └─SumAggregation: 3-2          [346, 2048]               [175, 2048]               --
│    └─GCNConv: 2-2                      [175, 2048]               [175, 2048]               2,048
│    │    └─Linear: 3-3                  [175, 2048]               [175, 2048]               4,194,304
│    │    └─SumAggregation: 3-4          [346, 2048]               [175, 2048]               --
│    └─GCNConv: 2-3                      [175, 2048]               [175, 2048]               2,048
│    │    └─Linear: 3-5                  [175, 2048]               [175, 2048]               4,194,304
│    │    └─SumAggregation: 3-6          [346, 2048]               [175, 2048]               --
├─ModuleList: 1-2                        --                        --                        --
│    └─GATConv: 2-4                      [175, 2048]               [175, 2048]               6,144
│    │    └─Linear: 3-7                  [175, 2048]               [175, 2048]               4,194,304
│    │    └─SumAggregation: 3-8          [346, 1, 2048]            [175, 1, 2048]            --
│    └─GATConv: 2-5                      [175, 2048]               [175, 2048]               6,144
│    │    └─Linear: 3-9                  [175, 2048]               [175, 2048]               4,194,304
│    │    └─SumAggregation: 3-10         [346, 1, 2048]            [175, 1, 2048]            --
│    └─GATConv: 2-6                      [175, 2048]               [175, 2048]               6,144
│    │    └─Linear: 3-11                 [175, 2048]               [175, 2048]               4,194,304
│    │    └─SumAggregation: 3-12         [346, 1, 2048]            [175, 1, 2048]            --
├─SpatialAttentionLayer: 1-3             [175, 2048]               [175, 2048]               --
│    └─Linear: 2-7                       [175, 2048]               [175, 2048]               4,196,352
│    └─Linear: 2-8                       [175, 2048]               [175, 2048]               4,196,352
│    └─Linear: 2-9                       [175, 2048]               [175, 2048]               4,196,352
├─Linear: 1-4                            [175, 2048]               [175, 5]                  10,245
===================================================================================================================
Total params: 35,184,645
Trainable params: 35,184,645
Non-trainable params: 0
Total mult-adds (Units.GIGABYTES): 6.15
===================================================================================================================
Input size (MB): 0.55
Forward/backward pass size (MB): 25.81
…
