Class counts: {'company': 530, 'date': 635, 'address': 1233, 'total': 1341, 'other': 24088}
Model summary:
===================================================================================================================
Layer (type:depth-idx)                   Input Shape               Output Shape              Param #
===================================================================================================================
ConfigurableGNN                          [234, 776]                [234, 5]                  --
├─ModuleList: 1-1                        --                        --                        --
│    └─GCNConv: 2-1                      [234, 776]                [234, 7000]               7,000
│    │    └─Linear: 3-1                  [234, 776]                [234, 7000]               5,432,000
│    │    └─SumAggregation: 3-2          [464, 7000]               [234, 7000]               --
│    └─GCNConv: 2-2                      [234, 7000]               [234, 7000]               7,000
│    │    └─Linear: 3-3                  [234, 7000]               [234, 7000]               49,000,000
│    │    └─SumAggregation: 3-4          [464, 7000]               [234, 7000]               --
│    └─GCNConv: 2-3                      [234, 7000]               [234, 7000]               7,000
│    │    └─Linear: 3-5                  [234, 7000]               [234, 7000]               49,000,000
│    │    └─SumAggregation: 3-6          [464, 7000]               [234, 7000]               --
├─ModuleList: 1-2                        --                        --                        --
│    └─GATConv: 2-4                      [234, 7000]               [234, 7000]               21,000
│    │    └─Linear: 3-7                  [234, 7000]               [234, 7000]               49,000,000
│    │    └─SumAggregation: 3-8          [464, 1, 7000]            [234, 1, 7000]            --
│    └─GATConv: 2-5                      [234, 7000]               [234, 7000]               21,000
│    │    └─Linear: 3-9                  [234, 7000]               [234, 7000]               49,000,000
│    │    └─SumAggregation: 3-10         [464, 1, 7000]            [234, 1, 7000]            --
│    └─GATConv: 2-6                      [234, 7000]               [234, 7000]               21,000
│    │    └─Linear: 3-11                 [234, 7000]               [234, 7000]               49,000,000
│    │    └─SumAggregation: 3-12         [464, 1, 7000]            [234, 1, 7000]            --
├─SpatialAttentionLayer: 1-3             [234, 7000]               [234, 7000]               --
│    └─Linear: 2-7                       [234, 7000]               [234, 7000]               49,007,000
│    └─Linear: 2-8                       [234, 7000]               [234, 7000]               49,007,000
│    └─Linear: 2-9                       [234, 7000]               [234, 7000]               49,007,000
├─Linear: 1-4                            [234, 7000]               [234, 5]                  35,005
===================================================================================================================
Total params: 397,572,005
Trainable params: 397,572,005
Non-trainable params: 0
Total mult-adds (Units.GIGABYTES): 93.01
===================================================================================================================
Input size (MB): 0.73
Forward/backward pass size (MB): 117.95
…
