Class counts: {'company': 648, 'date': 949, 'address': 449, 'total': 992, 'other': 12732}
Model summary:
===================================================================================================================
Layer (type:depth-idx)                   Input Shape               Output Shape              Param #
===================================================================================================================
ConfigurableGNN                          [150, 776]                [150, 5]                  --
├─ModuleList: 1-1                        --                        --                        --
│    └─GCNConv: 2-1                      [150, 776]                [150, 7000]               7,000
│    │    └─Linear: 3-1                  [150, 776]                [150, 7000]               5,432,000
│    │    └─SumAggregation: 3-2          [296, 7000]               [150, 7000]               --
│    └─GCNConv: 2-2                      [150, 7000]               [150, 7000]               7,000
│    │    └─Linear: 3-3                  [150, 7000]               [150, 7000]               49,000,000
│    │    └─SumAggregation: 3-4          [296, 7000]               [150, 7000]               --
│    └─GCNConv: 2-3                      [150, 7000]               [150, 7000]               7,000
│    │    └─Linear: 3-5                  [150, 7000]               [150, 7000]               49,000,000
│    │    └─SumAggregation: 3-6          [296, 7000]               [150, 7000]               --
├─ModuleList: 1-2                        --                        --                        --
│    └─GATConv: 2-4                      [150, 7000]               [150, 7000]               63,000
│    │    └─Linear: 3-7                  [150, 7000]               [150, 28000]              196,000,000
│    │    └─SumAggregation: 3-8          [296, 4, 7000]            [150, 4, 7000]            --
│    └─GATConv: 2-5                      [150, 7000]               [150, 7000]               63,000
│    │    └─Linear: 3-9                  [150, 7000]               [150, 28000]              196,000,000
│    │    └─SumAggregation: 3-10         [296, 4, 7000]            [150, 4, 7000]            --
│    └─GATConv: 2-6                      [150, 7000]               [150, 7000]               63,000
│    │    └─Linear: 3-11                 [150, 7000]               [150, 28000]              196,000,000
│    │    └─SumAggregation: 3-12         [296, 4, 7000]            [150, 4, 7000]            --
├─Linear: 1-3                            [150, 7000]               [150, 5]                  35,005
===================================================================================================================
Total params: 691,677,005
Trainable params: 691,677,005
Non-trainable params: 0
Total mult-adds (Units.GIGABYTES): 103.72
===================================================================================================================
Input size (MB): 0.47
Forward/backward pass size (MB): 126.01
…
