Class counts: {'company': 530, 'date': 635, 'address': 1233, 'total': 1341, 'other': 24088}
Model summary:
===================================================================================================================
Layer (type:depth-idx)                   Input Shape               Output Shape              Param #
===================================================================================================================
ConfigurableGNN                          [167, 776]                [167, 5]                  --
├─ModuleList: 1-1                        --                        --                        --
│    └─GCNConv: 2-1                      [167, 776]                [167, 768]                768
│    │    └─Linear: 3-1                  [167, 776]                [167, 768]                595,968
│    │    └─SumAggregation: 3-2          [330, 768]                [167, 768]                --
│    └─GCNConv: 2-2                      [167, 768]                [167, 768]                768
│    │    └─Linear: 3-3                  [167, 768]                [167, 768]                589,824
│    │    └─SumAggregation: 3-4          [330, 768]                [167, 768]                --
│    └─GCNConv: 2-3                      [167, 768]                [167, 768]                768
│    │    └─Linear: 3-5                  [167, 768]                [167, 768]                589,824
│    │    └─SumAggregation: 3-6          [330, 768]                [167, 768]                --
├─ModuleList: 1-2                        --                        --                        --
│    └─GATConv: 2-4                      [167, 768]                [167, 768]                2,304
│    │    └─Linear: 3-7                  [167, 768]                [167, 768]                589,824
│    │    └─SumAggregation: 3-8          [330, 1, 768]             [167, 1, 768]             --
│    └─GATConv: 2-5                      [167, 768]                [167, 768]                2,304
│    │    └─Linear: 3-9                  [167, 768]                [167, 768]                589,824
│    │    └─SumAggregation: 3-10         [330, 1, 768]             [167, 1, 768]             --
│    └─GATConv: 2-6                      [167, 768]                [167, 768]                2,304
│    │    └─Linear: 3-11                 [167, 768]                [167, 768]                589,824
│    │    └─SumAggregation: 3-12         [330, 1, 768]             [167, 1, 768]             --
├─SpatialAttentionLayer: 1-3             [167, 768]                [167, 768]                --
│    └─Linear: 2-7                       [167, 768]                [167, 768]                590,592
│    └─Linear: 2-8                       [167, 768]                [167, 768]                590,592
│    └─Linear: 2-9                       [167, 768]                [167, 768]                590,592
├─Linear: 1-4                            [167, 768]                [167, 5]                  3,845
===================================================================================================================
Total params: 5,329,925
Trainable params: 5,329,925
Non-trainable params: 0
Total mult-adds (Units.MEGABYTES): 888.56
===================================================================================================================
Input size (MB): 0.52
Forward/backward pass size (MB): 9.24
…
