Class counts: {'company': 648, 'date': 949, 'address': 449, 'total': 992, 'other': 12732}
Model summary:
===================================================================================================================
Layer (type:depth-idx)                   Input Shape               Output Shape              Param #
===================================================================================================================
ConfigurableGNN                          [165, 776]                [165, 5]                  --
├─ModuleList: 1-1                        --                        --                        --
│    └─GCNConv: 2-1                      [165, 776]                [165, 5000]               5,000
│    │    └─Linear: 3-1                  [165, 776]                [165, 5000]               3,880,000
│    │    └─SumAggregation: 3-2          [326, 5000]               [165, 5000]               --
│    └─GCNConv: 2-2                      [165, 5000]               [165, 5000]               5,000
│    │    └─Linear: 3-3                  [165, 5000]               [165, 5000]               25,000,000
│    │    └─SumAggregation: 3-4          [326, 5000]               [165, 5000]               --
│    └─GCNConv: 2-3                      [165, 5000]               [165, 5000]               5,000
│    │    └─Linear: 3-5                  [165, 5000]               [165, 5000]               25,000,000
│    │    └─SumAggregation: 3-6          [326, 5000]               [165, 5000]               --
├─ModuleList: 1-2                        --                        --                        --
│    └─GATConv: 2-4                      [165, 5000]               [165, 5000]               45,000
│    │    └─Linear: 3-7                  [165, 5000]               [165, 20000]              100,000,000
│    │    └─SumAggregation: 3-8          [326, 4, 5000]            [165, 4, 5000]            --
│    └─GATConv: 2-5                      [165, 5000]               [165, 5000]               45,000
│    │    └─Linear: 3-9                  [165, 5000]               [165, 20000]              100,000,000
│    │    └─SumAggregation: 3-10         [326, 4, 5000]            [165, 4, 5000]            --
│    └─GATConv: 2-6                      [165, 5000]               [165, 5000]               45,000
│    │    └─Linear: 3-11                 [165, 5000]               [165, 20000]              100,000,000
│    │    └─SumAggregation: 3-12         [326, 4, 5000]            [165, 4, 5000]            --
├─SpatialAttentionLayer: 1-3             [165, 5000]               [165, 5000]               --
│    └─Linear: 2-7                       [165, 5000]               [165, 5000]               25,005,000
│    └─Linear: 2-8                       [165, 5000]               [165, 5000]               25,005,000
│    └─Linear: 2-9                       [165, 5000]               [165, 5000]               25,005,000
├─Linear: 1-4                            [165, 5000]               [165, 5]                  25,005
===================================================================================================================
Total params: 429,070,005
Trainable params: 429,070,005
Non-trainable params: 0
Total mult-adds (Units.GIGABYTES): 70.77
===================================================================================================================
Input size (MB): 0.51
Forward/backward pass size (MB): 118.81
…
