Class counts: {'company': 648, 'date': 949, 'address': 449, 'total': 992, 'other': 12732}
Model summary:
===================================================================================================================
Layer (type:depth-idx)                   Input Shape               Output Shape              Param #
===================================================================================================================
ConfigurableGNN                          [142, 776]                [142, 5]                  --
├─ModuleList: 1-1                        --                        --                        --
│    └─GCNConv: 2-1                      [142, 776]                [142, 5000]               5,000
│    │    └─Linear: 3-1                  [142, 776]                [142, 5000]               3,880,000
│    │    └─SumAggregation: 3-2          [280, 5000]               [142, 5000]               --
│    └─GCNConv: 2-2                      [142, 5000]               [142, 5000]               5,000
│    │    └─Linear: 3-3                  [142, 5000]               [142, 5000]               25,000,000
│    │    └─SumAggregation: 3-4          [280, 5000]               [142, 5000]               --
│    └─GCNConv: 2-3                      [142, 5000]               [142, 5000]               5,000
│    │    └─Linear: 3-5                  [142, 5000]               [142, 5000]               25,000,000
│    │    └─SumAggregation: 3-6          [280, 5000]               [142, 5000]               --
├─ModuleList: 1-2                        --                        --                        --
│    └─GATConv: 2-4                      [142, 5000]               [142, 5000]               45,000
│    │    └─Linear: 3-7                  [142, 5000]               [142, 20000]              100,000,000
│    │    └─SumAggregation: 3-8          [280, 4, 5000]            [142, 4, 5000]            --
│    └─GATConv: 2-5                      [142, 5000]               [142, 5000]               45,000
│    │    └─Linear: 3-9                  [142, 5000]               [142, 20000]              100,000,000
│    │    └─SumAggregation: 3-10         [280, 4, 5000]            [142, 4, 5000]            --
│    └─GATConv: 2-6                      [142, 5000]               [142, 5000]               45,000
│    │    └─Linear: 3-11                 [142, 5000]               [142, 20000]              100,000,000
│    │    └─SumAggregation: 3-12         [280, 4, 5000]            [142, 4, 5000]            --
├─SpatialAttentionLayer: 1-3             [142, 5000]               [142, 5000]               --
│    └─Linear: 2-7                       [142, 5000]               [142, 5000]               25,005,000
│    └─Linear: 2-8                       [142, 5000]               [142, 5000]               25,005,000
│    └─Linear: 2-9                       [142, 5000]               [142, 5000]               25,005,000
├─Linear: 1-4                            [142, 5000]               [142, 5]                  25,005
===================================================================================================================
Total params: 429,070,005
Trainable params: 429,070,005
Non-trainable params: 0
Total mult-adds (Units.GIGABYTES): 60.91
===================================================================================================================
Input size (MB): 0.44
Forward/backward pass size (MB): 102.25
…
