Class counts: {'company': 648, 'date': 949, 'address': 449, 'total': 992, 'other': 12732}
Model summary:
===================================================================================================================
Layer (type:depth-idx)                   Input Shape               Output Shape              Param #
===================================================================================================================
ConfigurableGNN                          [236, 776]                [236, 5]                  --
├─ModuleList: 1-1                        --                        --                        --
│    └─GCNConv: 2-1                      [236, 776]                [236, 5000]               5,000
│    │    └─Linear: 3-1                  [236, 776]                [236, 5000]               3,880,000
│    │    └─SumAggregation: 3-2          [468, 5000]               [236, 5000]               --
│    └─GCNConv: 2-2                      [236, 5000]               [236, 5000]               5,000
│    │    └─Linear: 3-3                  [236, 5000]               [236, 5000]               25,000,000
│    │    └─SumAggregation: 3-4          [468, 5000]               [236, 5000]               --
│    └─GCNConv: 2-3                      [236, 5000]               [236, 5000]               5,000
│    │    └─Linear: 3-5                  [236, 5000]               [236, 5000]               25,000,000
│    │    └─SumAggregation: 3-6          [468, 5000]               [236, 5000]               --
├─ModuleList: 1-2                        --                        --                        --
│    └─GATConv: 2-4                      [236, 5000]               [236, 5000]               45,000
│    │    └─Linear: 3-7                  [236, 5000]               [236, 20000]              100,000,000
│    │    └─SumAggregation: 3-8          [468, 4, 5000]            [236, 4, 5000]            --
│    └─GATConv: 2-5                      [236, 5000]               [236, 5000]               45,000
│    │    └─Linear: 3-9                  [236, 5000]               [236, 20000]              100,000,000
│    │    └─SumAggregation: 3-10         [468, 4, 5000]            [236, 4, 5000]            --
│    └─GATConv: 2-6                      [236, 5000]               [236, 5000]               45,000
│    │    └─Linear: 3-11                 [236, 5000]               [236, 20000]              100,000,000
│    │    └─SumAggregation: 3-12         [468, 4, 5000]            [236, 4, 5000]            --
├─Linear: 1-3                            [236, 5000]               [236, 5]                  25,005
===================================================================================================================
Total params: 354,055,005
Trainable params: 354,055,005
Non-trainable params: 0
Total mult-adds (Units.GIGABYTES): 83.52
===================================================================================================================
Input size (MB): 0.74
Forward/backward pass size (MB): 141.61
…
