Class counts: {'company': 530, 'date': 635, 'address': 1233, 'total': 1341, 'other': 24088}
Model summary:
===================================================================================================================
Layer (type:depth-idx)                   Input Shape               Output Shape              Param #
===================================================================================================================
ConfigurableGNN                          [177, 776]                [177, 5]                  --
├─ModuleList: 1-1                        --                        --                        --
│    └─GCNConv: 2-1                      [177, 776]                [177, 512]                512
│    │    └─Linear: 3-1                  [177, 776]                [177, 512]                397,312
│    │    └─SumAggregation: 3-2          [350, 512]                [177, 512]                --
│    └─GCNConv: 2-2                      [177, 512]                [177, 512]                512
│    │    └─Linear: 3-3                  [177, 512]                [177, 512]                262,144
│    │    └─SumAggregation: 3-4          [350, 512]                [177, 512]                --
│    └─GCNConv: 2-3                      [177, 512]                [177, 512]                512
│    │    └─Linear: 3-5                  [177, 512]                [177, 512]                262,144
│    │    └─SumAggregation: 3-6          [350, 512]                [177, 512]                --
├─ModuleList: 1-2                        --                        --                        --
│    └─GATConv: 2-4                      [177, 512]                [177, 512]                1,536
│    │    └─Linear: 3-7                  [177, 512]                [177, 512]                262,144
│    │    └─SumAggregation: 3-8          [350, 1, 512]             [177, 1, 512]             --
│    └─GATConv: 2-5                      [177, 512]                [177, 512]                1,536
│    │    └─Linear: 3-9                  [177, 512]                [177, 512]                262,144
│    │    └─SumAggregation: 3-10         [350, 1, 512]             [177, 1, 512]             --
│    └─GATConv: 2-6                      [177, 512]                [177, 512]                1,536
│    │    └─Linear: 3-11                 [177, 512]                [177, 512]                262,144
│    │    └─SumAggregation: 3-12         [350, 1, 512]             [177, 1, 512]             --
├─SpatialAttentionLayer: 1-3             [177, 512]                [177, 512]                --
│    └─Linear: 2-7                       [177, 512]                [177, 512]                262,656
│    └─Linear: 2-8                       [177, 512]                [177, 512]                262,656
│    └─Linear: 2-9                       [177, 512]                [177, 512]                262,656
├─Linear: 1-4                            [177, 512]                [177, 5]                  2,565
===================================================================================================================
Total params: 2,504,709
Trainable params: 2,504,709
Non-trainable params: 0
Total mult-adds (Units.MEGABYTES): 442.25
===================================================================================================================
Input size (MB): 0.55
Forward/backward pass size (MB): 6.53
…
