Class counts: {'company': 530, 'date': 635, 'address': 1233, 'total': 1341, 'other': 24088}
Model summary:
===================================================================================================================
Layer (type:depth-idx)                   Input Shape               Output Shape              Param #
===================================================================================================================
ConfigurableGNN                          [176, 776]                [176, 5]                  --
├─ModuleList: 1-1                        --                        --                        --
│    └─GCNConv: 2-1                      [176, 776]                [176, 4096]               4,096
│    │    └─Linear: 3-1                  [176, 776]                [176, 4096]               3,178,496
│    │    └─SumAggregation: 3-2          [348, 4096]               [176, 4096]               --
│    └─GCNConv: 2-2                      [176, 4096]               [176, 4096]               4,096
│    │    └─Linear: 3-3                  [176, 4096]               [176, 4096]               16,777,216
│    │    └─SumAggregation: 3-4          [348, 4096]               [176, 4096]               --
│    └─GCNConv: 2-3                      [176, 4096]               [176, 4096]               4,096
│    │    └─Linear: 3-5                  [176, 4096]               [176, 4096]               16,777,216
│    │    └─SumAggregation: 3-6          [348, 4096]               [176, 4096]               --
├─ModuleList: 1-2                        --                        --                        --
│    └─GATConv: 2-4                      [176, 4096]               [176, 4096]               12,288
│    │    └─Linear: 3-7                  [176, 4096]               [176, 4096]               16,777,216
│    │    └─SumAggregation: 3-8          [348, 1, 4096]            [176, 1, 4096]            --
│    └─GATConv: 2-5                      [176, 4096]               [176, 4096]               12,288
│    │    └─Linear: 3-9                  [176, 4096]               [176, 4096]               16,777,216
│    │    └─SumAggregation: 3-10         [348, 1, 4096]            [176, 1, 4096]            --
│    └─GATConv: 2-6                      [176, 4096]               [176, 4096]               12,288
│    │    └─Linear: 3-11                 [176, 4096]               [176, 4096]               16,777,216
│    │    └─SumAggregation: 3-12         [348, 1, 4096]            [176, 1, 4096]            --
├─SpatialAttentionLayer: 1-3             [176, 4096]               [176, 4096]               --
│    └─Linear: 2-7                       [176, 4096]               [176, 4096]               16,781,312
│    └─Linear: 2-8                       [176, 4096]               [176, 4096]               16,781,312
│    └─Linear: 2-9                       [176, 4096]               [176, 4096]               16,781,312
├─Linear: 1-4                            [176, 4096]               [176, 5]                  20,485
===================================================================================================================
Total params: 137,478,149
Trainable params: 137,478,149
Non-trainable params: 0
Total mult-adds (Units.GIGABYTES): 24.19
===================================================================================================================
Input size (MB): 0.55
Forward/backward pass size (MB): 51.91
…
