Class counts: {'company': 648, 'date': 949, 'address': 449, 'total': 992, 'other': 12732}
Model summary:
===================================================================================================================
Layer (type:depth-idx)                   Input Shape               Output Shape              Param #
===================================================================================================================
ConfigurableGNN                          [174, 776]                [174, 5]                  --
├─ModuleList: 1-1                        --                        --                        --
│    └─GCNConv: 2-1                      [174, 776]                [174, 5000]               5,000
│    │    └─Linear: 3-1                  [174, 776]                [174, 5000]               3,880,000
│    │    └─SumAggregation: 3-2          [344, 5000]               [174, 5000]               --
│    └─GCNConv: 2-2                      [174, 5000]               [174, 5000]               5,000
│    │    └─Linear: 3-3                  [174, 5000]               [174, 5000]               25,000,000
│    │    └─SumAggregation: 3-4          [344, 5000]               [174, 5000]               --
│    └─GCNConv: 2-3                      [174, 5000]               [174, 5000]               5,000
│    │    └─Linear: 3-5                  [174, 5000]               [174, 5000]               25,000,000
│    │    └─SumAggregation: 3-6          [344, 5000]               [174, 5000]               --
├─ModuleList: 1-2                        --                        --                        --
│    └─GATConv: 2-4                      [174, 5000]               [174, 5000]               45,000
│    │    └─Linear: 3-7                  [174, 5000]               [174, 20000]              100,000,000
│    │    └─SumAggregation: 3-8          [344, 4, 5000]            [174, 4, 5000]            --
│    └─GATConv: 2-5                      [174, 5000]               [174, 5000]               45,000
│    │    └─Linear: 3-9                  [174, 5000]               [174, 20000]              100,000,000
│    │    └─SumAggregation: 3-10         [344, 4, 5000]            [174, 4, 5000]            --
│    └─GATConv: 2-6                      [174, 5000]               [174, 5000]               45,000
│    │    └─Linear: 3-11                 [174, 5000]               [174, 20000]              100,000,000
│    │    └─SumAggregation: 3-12         [344, 4, 5000]            [174, 4, 5000]            --
├─SpatialAttentionLayer: 1-3             [174, 5000]               [174, 5000]               --
│    └─Linear: 2-7                       [174, 5000]               [174, 5000]               25,005,000
│    └─Linear: 2-8                       [174, 5000]               [174, 5000]               25,005,000
│    └─Linear: 2-9                       [174, 5000]               [174, 5000]               25,005,000
├─Linear: 1-4                            [174, 5000]               [174, 5]                  25,005
===================================================================================================================
Total params: 429,070,005
Trainable params: 429,070,005
Non-trainable params: 0
Total mult-adds (Units.GIGABYTES): 74.63
===================================================================================================================
Input size (MB): 0.54
Forward/backward pass size (MB): 125.29
…
