Class counts: {'company': 648, 'date': 949, 'address': 449, 'total': 992, 'other': 12732}
Model summary:
===================================================================================================================
Layer (type:depth-idx)                   Input Shape               Output Shape              Param #
===================================================================================================================
ConfigurableGNN                          [196, 776]                [196, 5]                  --
├─ModuleList: 1-1                        --                        --                        --
│    └─GCNConv: 2-1                      [196, 776]                [196, 4096]               4,096
│    │    └─Linear: 3-1                  [196, 776]                [196, 4096]               3,178,496
│    │    └─SumAggregation: 3-2          [388, 4096]               [196, 4096]               --
│    └─GCNConv: 2-2                      [196, 4096]               [196, 4096]               4,096
│    │    └─Linear: 3-3                  [196, 4096]               [196, 4096]               16,777,216
│    │    └─SumAggregation: 3-4          [388, 4096]               [196, 4096]               --
│    └─GCNConv: 2-3                      [196, 4096]               [196, 4096]               4,096
│    │    └─Linear: 3-5                  [196, 4096]               [196, 4096]               16,777,216
│    │    └─SumAggregation: 3-6          [388, 4096]               [196, 4096]               --
│    └─GCNConv: 2-4                      [196, 4096]               [196, 4096]               4,096
│    │    └─Linear: 3-7                  [196, 4096]               [196, 4096]               16,777,216
│    │    └─SumAggregation: 3-8          [388, 4096]               [196, 4096]               --
├─ModuleList: 1-2                        --                        --                        --
│    └─GATConv: 2-5                      [196, 4096]               [196, 4096]               36,864
│    │    └─Linear: 3-9                  [196, 4096]               [196, 16384]              67,108,864
│    │    └─SumAggregation: 3-10         [388, 4, 4096]            [196, 4, 4096]            --
│    └─GATConv: 2-6                      [196, 4096]               [196, 4096]               36,864
│    │    └─Linear: 3-11                 [196, 4096]               [196, 16384]              67,108,864
│    │    └─SumAggregation: 3-12         [388, 4, 4096]            [196, 4, 4096]            --
│    └─GATConv: 2-7                      [196, 4096]               [196, 4096]               36,864
│    │    └─Linear: 3-13                 [196, 4096]               [196, 16384]              67,108,864
│    │    └─SumAggregation: 3-14         [388, 4, 4096]            [196, 4, 4096]            --
│    └─GATConv: 2-8                      [196, 4096]               [196, 4096]               36,864
│    │    └─Linear: 3-15                 [196, 4096]               [196, 16384]              67,108,864
│    │    └─SumAggregation: 3-16         [388, 4, 4096]            [196, 4, 4096]            --
├─Linear: 1-3                            [196, 4096]               [196, 5]                  20,485
===================================================================================================================
Total params: 322,129,925
Trainable params: 322,129,925
Non-trainable params: 0
Total mult-adds (Units.GIGABYTES): 63.11
===================================================================================================================
Input size (MB): 0.61
Forward/backward pass size (MB): 128.46
…
