Class counts: {'company': 648, 'date': 949, 'address': 449, 'total': 992, 'other': 12732}
Model summary:
===================================================================================================================
Layer (type:depth-idx)                   Input Shape               Output Shape              Param #
===================================================================================================================
ConfigurableGNN                          [147, 776]                [147, 5]                  --
├─ModuleList: 1-1                        --                        --                        --
│    └─GCNConv: 2-1                      [147, 776]                [147, 5000]               5,000
│    │    └─Linear: 3-1                  [147, 776]                [147, 5000]               3,880,000
│    │    └─SumAggregation: 3-2          [290, 5000]               [147, 5000]               --
│    └─GCNConv: 2-2                      [147, 5000]               [147, 5000]               5,000
│    │    └─Linear: 3-3                  [147, 5000]               [147, 5000]               25,000,000
│    │    └─SumAggregation: 3-4          [290, 5000]               [147, 5000]               --
│    └─GCNConv: 2-3                      [147, 5000]               [147, 5000]               5,000
│    │    └─Linear: 3-5                  [147, 5000]               [147, 5000]               25,000,000
│    │    └─SumAggregation: 3-6          [290, 5000]               [147, 5000]               --
│    └─GCNConv: 2-4                      [147, 5000]               [147, 5000]               5,000
│    │    └─Linear: 3-7                  [147, 5000]               [147, 5000]               25,000,000
│    │    └─SumAggregation: 3-8          [290, 5000]               [147, 5000]               --
├─ModuleList: 1-2                        --                        --                        --
│    └─GATConv: 2-5                      [147, 5000]               [147, 5000]               45,000
│    │    └─Linear: 3-9                  [147, 5000]               [147, 20000]              100,000,000
│    │    └─SumAggregation: 3-10         [290, 4, 5000]            [147, 4, 5000]            --
│    └─GATConv: 2-6                      [147, 5000]               [147, 5000]               45,000
│    │    └─Linear: 3-11                 [147, 5000]               [147, 20000]              100,000,000
│    │    └─SumAggregation: 3-12         [290, 4, 5000]            [147, 4, 5000]            --
│    └─GATConv: 2-7                      [147, 5000]               [147, 5000]               45,000
│    │    └─Linear: 3-13                 [147, 5000]               [147, 20000]              100,000,000
│    │    └─SumAggregation: 3-14         [290, 4, 5000]            [147, 4, 5000]            --
│    └─GATConv: 2-8                      [147, 5000]               [147, 5000]               45,000
│    │    └─Linear: 3-15                 [147, 5000]               [147, 20000]              100,000,000
│    │    └─SumAggregation: 3-16         [290, 4, 5000]            [147, 4, 5000]            --
├─Linear: 1-3                            [147, 5000]               [147, 5]                  25,005
===================================================================================================================
Total params: 479,105,005
Trainable params: 479,105,005
Non-trainable params: 0
Total mult-adds (Units.GIGABYTES): 70.40
===================================================================================================================
Input size (MB): 0.46
Forward/backward pass size (MB): 117.61
…
